Train_result/Mon_Jun_16_01_00_06_2025_Encoder_Medium_Train.model (torch, 55036 bytes, 10 tensors)

conv2.0.kernel f4 [64, 1, 3, 3]
0	0xbe650acb	-0.22367398
1	0x40001279	2.0011275
2	0x3e83d9fd	0.2575225
3	0xbf0588e3	-0.52162
4	0x3eff0930	0.49811697
5	0x3f89a7a4	1.0754285
6	0x3e85acc1	0.26108363
7	0x3e255e29	0.161492
8	0x3e704e74	0.23467427
9	0x3f83e730	1.0304928
10	0xbfa58fd3	-1.2934517
11	0xc014920a	-2.3214135
12	0xbf393fa2	-0.7236272
13	0xbf4ebcd8	-0.807569
14	0x3fa97dcf	1.3241519
15	0xbf8ab120	-1.0835304
16	0x3f4c5155	0.798116
17	0xbe1a41c0	-0.15064144
18	0x3f21f5c3	0.6326563
19	0x3f0a0c29	0.53924805
20	0x3fcd21b7	1.6025914
21	0x3f610ac5	0.8790706
22	0xbea9cf13	-0.33165798
23	0x3cde8604	0.027163513
24	0x3fabd38d	1.3423935
25	0x4000cd1f	2.0125196
26	0x3fc325d9	1.5245925
27	0x3f1d0fdb	0.6135232
28	0x3fd21f62	1.6415827
29	0x40028a81	2.0397036
30	0x3fcf7af9	1.6209403
31	0xbfa0c40d	-1.255983
32	0xbed8363c	-0.42228878
33	0x3fb762a4	1.4326978
34	0xbe5cc268	-0.21558535
35	0xbf6958b7	-0.91150993
36	0x3f01ed43	0.5075266
37	0xbe691944	-0.22763544
38	0x3eb7ae7d	0.35875311
39	0x3f5c0237	0.8594088
40	0xbfa853fa	-1.3150628
41	0x3f89ae6d	1.0756356
42	0xbd938c24	-0.07204464
43	0x3f22a351	0.6353045
44	0x3e7a90d0	0.24469304
45	0x3f7124a0	0.9419651
46	0x3f303f5e	0.6884669
47	0xbf10e2f8	-0.56596327
48	0x3c1d3258	0.009594522
49	0xbec392fd	-0.3819808
50	0xbed36b55	-0.41292825
51	0xbe1d9053	-0.15387087
52	0x3e23895d	0.15970369
53	0xbeb634ab	-0.35587057
54	0x3e809719	0.25115278
55	0xc0059012	-2.0869184
56	0xbf89948f	-1.0748461
57	0xbf204e5b	-0.6261956
58	0x3deae15d	0.11468766
59	0xbc239c35	-0.009985973
60	0xbdd20753	-0.10255303
61	0xbeae3448	-0.34024262
62	0x3fde44f5	1.7364794
63	0x3f52e8aa	0.8238627
64	0xbf82a301	-1.0205995
65	0xbc261f17	-0.010139248
66	0x3e6252c0	0.22101879
67	0x40283947	2.628496
68	0xbf4cec31	-0.800479
69	0xbec2f722	-0.38079172
70	0xbf6ca7f4	-0.92443776
71	0xbe3c4773	-0.1838663
72	0x3ea41873	0.32049903
73	0xbefbab54	-0.4915415
74	0x3f2dea88	0.6793599
75	0x3e89ceb1	0.26915506
76	0x3ed54a63	0.41658315
77	0xbf3c847e	-0.7363967
78	0x3f08dbaf	0.5346021
79	0x3eae85aa	0.34086353
80	0xbf98b247	-1.1929406
81	0x3e78b9a1	0.24289562
82	0x3cd1e1a3	0.025620287
83	0x3cef51df	0.029213844
84	0x3f898caa	1.0746052
85	0x3e2c248f	0.16810821
86	0xbfc9881b	-1.5744661
87	0x3c82ee5a	0.015982796
88	0xbec6f75e	-0.388606
89	0xbee0eefa	-0.43932325
90	0xbf9f1abc	-1.2430034
91	0xbe2d650a	-0.16933075
92	0x3f49b81b	0.7879655
93	0xbf792e4b	-0.9733626
94	0xbf94e5aa	-1.1632588
95	0xbf9b842f	-1.2149714
96	0xbf5d4196	-0.864282
97	0x3ef2f087	0.47449133
98	0x3f31a640	0.693943
99	0xbe7e3e26	-0.24828395
100	0xbf1748a4	-0.59095216
101	0xbed4975c	-0.41521728
102	0xbf40a9c0	-0.7525902
103	0x3f1da827	0.61584705
104	0x3e20b9aa	0.15695825
105	0xbf2126b3	-0.62949675
106	0x3f67bdd8	0.90524054
107	0xbea1a673	-0.31572303
108	0x3e5f3202	0.2179642
109	0x3e15db2e	0.14634392
110	0x3f0fca4b	0.5616805
111	0x3f939340	1.1529312
112	0xbe899fb5	-0.2687966
113	0x3f90a4d7	1.1300305
114	0x3f8dd2c5	1.1079947
115	0xbe3a9282	-0.18219951
116	0x3f7af6dd	0.98032933
117	0x3f9cae0e	1.2240617
118	0xbf243c14	-0.6415417
119	0xbf813ca6	-1.0096633
120	0x3e7c2a7a	0.24625579
121	0xbef98ccd	-0.48740235
122	0xc004a9f3	-2.0728729
123	0xbf1e572a	-0.6185175
124	0xbdb432db	-0.087987624
125	0x3ed036a2	0.40666682
126	0x4005927d	2.087066
127	0x3dc491e5	0.0959814
128	0x3e9523b6	0.29128808
129	0xbfba3e74	-1.4550309
130	0xbf32702f	-0.6970243
131	0xbdfcdfdc	-0.12347385
132	0xbf8735c2	-1.056328
133	0xbf449fc2	-0.7680627
134	0x3f400030	0.75000286
135	0xbea42d44	-0.32065785
136	0xbf86a1d6	-1.0518138
137	0xbf99f90f	-1.2029132
138	0xbfc220b6	-1.5166233
139	0x401aa1d1	2.4161265
140	0x3f8ca601	1.098816
141	0x3fc4da43	1.5379108
142	0xbe01fa79	-0.12693204
143	0x3f81ffca	1.0156186
144	0xbd18c773	-0.037299585
145	0xbfb93c12	-1.4471457
146	0xbdf2f8c4	-0.118638545
147	0x3e3f4818	0.18679845
148	0xbf2bd1c3	-0.67116946
149	0xbe0de6f2	-0.1385763
150	0x3f16af5a	0.58861315
151	0x3fceaedd	1.6147114
152	0x3f361682	0.71128094
153	0x3f8f3423	1.1187786
154	0x3f111b7c	0.5668256
155	0x3fa69c2d	1.3016411
156	0xbf0eb911	-0.5575114
157	0xbe3a61e1	-0.182014
158	0x3e9d96b1	0.3077903
159	0x3f01f16f	0.50759023
160	0x3eb4287e	0.35187143
161	0x3ed13e89	0.40868023
162	0x3f70174d	0.93785554
163	0x3f866003	1.049805
164	0x3e1138c6	0.14181814
165	0xbdd815a8	-0.105510056
166	0x3dc458a1	0.09587217
167	0xbf27f6a8	-0.6561074
168	0x3bff6181	0.007793606
169	0xbfa86b60	-1.3157768
170	0x3fb56cd4	1.4173837
171	0x3f5c5e1c	0.860811
172	0x3fb9b347	1.4507836
173	0x3f8c9903	1.0984195
174	0x3e9e2a9e	0.3089189
175	0xbfc128d5	-1.5090586
176	0xbfcb871b	-1.5900606
177	0x3f220eb7	0.63303703
178	0x3ffdb034	1.9819398
179	0x3f920d95	1.1410395
180	0x3f9df254	1.2339578
181	0x3f7ee457	0.9956717
182	0xbfc53536	-1.5406864
183	0x3e2c4e5d	0.16826768
184	0x3ec38d2a	0.38193637
185	0xbd7e9143	-0.06215025
186	0x3fa89a13	1.317202
187	0x3fbd7784	1.4802098
188	0xc036babd	-2.8551476
189	0x3f0c9326	0.5491203
190	0x3f382529	0.719317
191	0xbf441c5c	-0.7660577
192	0xbfd3a7c0	-1.6535568
193	0xbf7b322d	-0.9812344
194	0xbdf9b4d2	-0.12192692
195	0x3f7c3486	0.98517644
196	0xbdf916d9	-0.12162561
197	0x3e8adff3	0.27123985
198	0x3eec3c52	0.4613977
199	0xbf7eac67	-0.99481815
200	0xbee1f902	-0.4413529
201	0xbfe8c390	-1.8184681
202	0x3d8fcadd	0.07021115
203	0x3fd5f952	1.6716712
204	0x3fb232e3	1.3921779
205	0x3e4a1cbf	0.19737528
206	0x3fee1e56	1.8603008
207	0xbe2e1f6b	-0.17004173
208	0xbedba273	-0.42897376
209	0x3f64d42b	0.8938624
210	0x3fa22138	1.2666388
211	0xbc22823c	-0.009918746
212	0x3f17d63f	0.5931129
213	0x3f085b7a	0.5326458
214	0xbf35b2fc	-0.70976233
215	0x3ed0f4aa	0.40811664
216	0xbf5af706	-0.8553318
217	0xbd1f7298	-0.038927644
218	0x3f43deef	0.76512045
219	0xc02fe6f3	-2.748471
220	0x3fee13ca	1.8599789
221	0x3f50fc74	0.8163521
222	0x3fb43586	1.4078834
223	0xbcf796f2	-0.030223344
224	0x3ed52e0f	0.41636702
225	0x3f045b8e	0.517022
226	0xbe2cac73	-0.16862659
227	0x3e951a2b	0.29121527
228	0x3f011814	0.50427365
229	0x3e9b6d2d	0.30356732
230	0x3e475bf3	0.1946867
231	0x3f0a8e27	0.5412316
232	0x3f731d17	0.9496626
233	0x40605007	3.5048845
234	0xbd55fc7c	-0.05224274
235	0xbe532429	-0.20619263
236	0x3fa8acb1	1.3177701
237	0xbfa0c273	-1.2559341
238	0xbe75b734	-0.23995668
239	0x3eff577d	0.49871436
240	0xc0004fc5	-2.0048687
241	0x3fa0e701	1.2570497
242	0x3e86e581	0.26346973
243	0x3e15220e	0.14563772
244	0xbe0e2ae0	-0.13883543
245	0xbdfc31c8	-0.123141825
246	0x3ff23792	1.8923209
247	0x3f80e920	1.0071144
248	0xbfe22585	-1.76677
249	0x3e8afb07	0.27144644
250	0x3f3cda1b	0.737703
251	0x3e0e2462	0.13881066
252	0x3f5d73d6	0.86504877
253	0xbfedc0f3	-1.8574508
254	0xbfee00c0	-1.8593979
255	0xbfc7c6c0	-1.5607529

conv2.1.kernel f4 [64, 1, 3, 3]
0	0xbf4be438	-0.7964511
1	0x3e8c65a8	0.27421308
2	0xbee10b7e	-0.4395408
3	0x3fa45488	1.2838297
4	0xbe9402cd	-0.28908387
5	0xbf20feee	-0.6288899
6	0x3ed580e3	0.41699895
7	0x3f1f98e5	0.62342674
8	0xbf7e24ff	-0.992752
9	0xbfe4e790	-1.7883167
10	0xbf1a1ece	-0.60203254
11	0x3f124c91	0.5714808
12	0x3da0add9	0.07845659
13	0xbfb39182	-1.402878
14	0x3f40646e	0.75153244
15	0xbf81dfe8	-1.0146456
16	0xbf4d5814	-0.8021252
17	0x3f680c76	0.90644014
18	0xbfeb0f1a	-1.8363984
19	0x3f08988d	0.53357774
20	0x3f6d576a	0.9271151
21	0xbe5f2a86	-0.21793565
22	0xbecbbe2b	-0.39793524
23	0x3fdc41ed	1.7207619
24	0x3fc190f2	1.5122359
25	0x401ec51b	2.4807804
26	0x406e5192	3.7237287
27	0x3f274493	0.6533901
28	0xbf14eae9	-0.58170944
29	0xbe54da7f	-0.20786475
30	0xbfcafb47	-1.5857934
31	0xbf074853	-0.52844733
32	0xbff98cb6	-1.9496067
33	0x3e27a8ae	0.1637294
34	0x3e36cfac	0.17852658
35	0xbf145b25	-0.57951576
36	0xbf9bb6cb	-1.2165159
37	0xbed086cc	-0.40727842
38	0xbf68c64c	-0.90927577
39	0xbefa765d	-0.4891843
40	0x3f7aefcc	0.9802215
41	0xbf9227de	-1.1418417
42	0xbe204fab	-0.15655391
43	0x3f65560e	0.89584434
44	0xbf47a143	-0.7798044
45	0xbfac19f7	-1.3445424
46	0xbfdea8e6	-1.7395294
47	0x3f0e84e9	0.55671555
48	0xbffc9dd5	-1.9735667
49	0xbf06cbf5	-0.52654964
50	0xbf54837d	-0.83013135
51	0x3fa85538	1.3151007
52	0xbecdfce3	-0.40232
53	0xbf215c6c	-0.6303165
54	0x3ef30eb3	0.47472152
55	0xbf4dd10e	-0.8039712
56	0x3f25b523	0.6472952
57	0x3f23e194	0.6401608
58	0x3d2f6b6d	0.04282706
59	0xbee4b67b	-0.44670472
60	0x3f6575e0	0.8963299
61	0xbf177d5a	-0.59175646
62	0xbfb0e44c	-1.3819671
63	0xbed57ef0	-0.41698408
64	0x3f838f3e	1.0278089
65	0x3feb6ba2	1.8392222
66	0x3fe1fd6a	1.7655461
67	0x3fd79d49	1.6844875
68	0x3f8ca00b	1.0986341
69	0x3e8fd05d	0.28088656
70	0xbfafef36	-1.3744876
71	0x3ec2c687	0.3804209
72	0xbf5a9173	-0.8537819
73	0x3f451d3f	0.7699775
74	0x3f95fffb	1.1718744
75	0x4023f738	2.561964
76	0x3eea1767	0.4572098
77	0xbf161071	-0.5861884
78	0x3f9af406	1.210572
79	0x4037ddff	2.8729246
80	0x3ff0531e	1.8775365
81	0xbf15c43e	-0.58502567
82	0xbf343bc8	-0.7040372
83	0xbef85ee7	-0.48509905
84	0xbfb46942	-1.4094622
85	0x3f8b1aa6	1.0867507
86	0xbfb04bf6	-1.3773181
87	0x3f44d0fd	0.7688139
88	0x3ff03d29	1.8768665
89	0xbfd27e06	-1.6444709
90	0xbf792647	-0.9732403
91	0xbf909e25	-1.1298262
92	0xbeca7243	-0.395403
93	0xbfbe40bb	-1.4863504
94	0xbf1938c5	-0.5985225
95	0xbe94ea7e	-0.29085153
96	0xbba98cd4	-0.0051742587
97	0x3f1bd89d	0.608774
98	0xbf906ba4	-1.1282849
99	0xbeb368ec	-0.35040987
100	0xbfba58c5	-1.455834
101	0xbfb61230	-1.42243
102	0xc01bf383	-2.4367378
103	0xbf202860	-0.6256161
104	0x3e94ec20	0.290864
105	0xbf2b5884	-0.6693194
106	0xbf0bac60	-0.545599
107	0x3f9f1a72	1.2429945
108	0x3f930b4c	1.1487823
109	0xbf8acd2f	-1.0843867
110	0x3ea10119	0.3144615
111	0x3f2f5308	0.6848607
112	0xbedad24d	-0.42738572
113	0xbeb1e162	-0.34742266
114	0xbef2728a	-0.4735301
115	0xbe70847d	-0.2348804
116	0x3f4c7720	0.7986927
117	0x3f4a22f2	0.7895957
118	0xbeebd196	-0.4605834
119	0xbf279218	-0.65457296
120	0xbf231d9d	-0.6371706
121	0xbf1b12d1	-0.60575587
122	0x3c307e62	0.0107723195
123	0xbf0770ec	-0.5290668
124	0xbf0a9e0a	-0.541474
125	0x3e740586	0.23830232
126	0xbf0d6021	-0.55224806
127	0x3fb70a02	1.4299929
128	0xbd3247ed	-0.043525625
129	0x3f2fb337	0.68632835
130	0x3f6ea606	0.9322208
131	0xbe631225	-0.2217489
132	0x3fea050c	1.828279
133	0xbf8aae6c	-1.0834479
134	0x3da7faf7	0.082021646
135	0x3f2d1b38	0.6761966
136	0x3fcd062d	1.601751
137	0x3fd4e9e9	1.6633884
138	0x3edddcdf	0.43332574
139	0x3f175223	0.59109706
140	0x3d022550	0.031773865
141	0x3ebb365e	0.36564916
142	0xbe5e83d8	-0.21729982
143	0x3d6d29a1	0.05790103
144	0xbeb63332	-0.35585934
145	0x3f30bebc	0.6904104
146	0x4026c604	2.605836
147	0x3f86bfe4	1.052731
148	0xbf0c6fe2	-0.5485822
149	0x3ff4274e	1.9074495
150	0x3f68044d	0.9063156
151	0x3f591bee	0.8480824
152	0xbe5a9677	-0.2134646
153	0x3f43b446	0.7644695
154	0xbedd6db8	-0.4324777
155	0x3e6d5053	0.23175173
156	0x3f3f220e	0.7466134
157	0xbfbcdfab	-1.4755758
158	0x3f91ebb8	1.1400061
159	0xbf7aa955	-0.9791463
160	0xbec15769	-0.37762
161	0x3f82ccd0	1.0218754
162	0xbeadc0ec	-0.3393625
163	0xbfe9b821	-1.8259317
164	0xbf617f68	-0.8808503
165	0xbdfeb874	-0.124375254
166	0xbf902bb4	-1.1263337
167	0x3ea3a859	0.31964377
168	0xbfd103cb	-1.6329283
169	0xbfe9d38f	-1.8267688
170	0x3f26732f	0.65019506
171	0xbdf20661	-0.11817623
172	0x3f553b86	0.8329395
173	0xbf1b105e	-0.6057185
174	0xbd61c170	-0.055116117
175	0x3fbe52cc	1.4869018
176	0x3fa57c3c	1.2928538
177	0x3fcd300f	1.6030291
178	0xbf4893b0	-0.78350353
179	0x3f0bbf52	0.54588807
180	0x3f743a20	0.9540119
181	0x3f396849	0.7242475
182	0x4002b261	2.0421374
183	0x3f02e918	0.5113692
184	0xbe488e19	-0.19585456
185	0xbea4043b	-0.32034478
186	0xbfae8e42	-1.3637164
187	0xbfadc74b	-1.3576444
188	0xbf2a572e	-0.66539276
189	0x3f8c374a	1.0954373
190	0x3fa12b6c	1.2591376
191	0x3f8f902d	1.1215874
192	0x3f4d0b93	0.80095786
193	0xbe6922e5	-0.22767217
194	0xbed737ce	-0.42034763
195	0x3f2e58aa	0.6810404
196	0xbf33be05	-0.7021182
197	0x3ec24dde	0.37950033
198	0x3f982e20	1.1889076
199	0xbe988013	-0.29785213
200	0x3d85ee18	0.065395534
201	0xbf0fe573	-0.56209487
202	0x3fa538ce	1.290796
203	0x3dc74bdd	0.09731267
204	0xbce98757	-0.028506918
205	0x3f629ef4	0.88523793
206	0x3f6d6cd2	0.9274417
207	0xbf2c82ca	-0.6738707
208	0xbfb7bb92	-1.4354117
209	0xbe8ccd0a	-0.27500182
210	0xbfb6e34e	-1.4288118
211	0xbf8959ba	-1.0730507
212	0x3f28188a	0.65662444
213	0xbe6a0f1a	-0.22857323
214	0x3f30fc56	0.69135034
215	0xbf546291	-0.829629
216	0x3e8dcb35	0.27694097
217	0xbf9ebee1	-1.2402002
218	0xbf692c75	-0.9108346
219	0xbf7699f5	-0.9632867
220	0xbf4962c2	-0.7866632
221	0x400d247b	2.2053516
222	0xbee74a52	-0.4517389
223	0x3f9f45f4	1.2443223
224	0xbf6c611e	-0.9233569
225	0x3c635bf9	0.013876908
226	0x3f537a05	0.8260806
227	0x3eba2431	0.36355737
228	0x3f0ef810	0.55847263
229	0x3fa38eba	1.2777932
230	0xbee37a19	-0.4442909
231	0x3e7d7e4a	0.24755207
232	0xbe050d17	-0.12993275
233	0x3f97b2da	1.1851456
234	0x3f2493cc	0.6428802
235	0x3f024fd9	0.5090309
236	0x3dde7bb5	0.10863439
237	0x3fcb7c4e	1.589731
238	0x3c758c8f	0.014987125
239	0x4003c216	2.058721
240	0xbf8e8bf3	-1.1136459
241	0xbf109769	-0.56481034
242	0x3fa3a397	1.2784299
243	0xbf28a59a	-0.6587769
244	0x3f8492a6	1.0357254
245	0xbf057ec3	-0.5214655
246	0xbf699ef8	-0.9125819
247	0x3db7dd3a	0.089777425
248	0xbe4e698d	-0.20157452
249	0x3ec2118d	0.37904015
250	0xbf8a1183	-1.0786594
251	0xbf64ac82	-0.89325726
252	0xbf3d61d9	-0.7397743
253	0xbe8bfb93	-0.27340373
254	0x3f07e6ad	0.5308636
255	0xbf985506	-1.1900947

conv2.2.kernel f4 [64, 1, 3, 3]
0	0x3fa72509	1.3058177
1	0x3f94ecdb	1.1634783
2	0xbf168d18	-0.5880904
3	0xbef5946e	-0.47964805
4	0xbf0be10a	-0.5464026
5	0x3f9db7d3	1.2321724
6	0xc0650ca4	-3.5788965
7	0xbfa89f12	-1.3173544
8	0xbe67cd2d	-0.22636862
9	0xbed2e3d8	-0.41189456
10	0xbeb5fc19	-0.35543898
11	0xbf179a55	-0.59219867
12	0xbdd837ca	-0.10557516
13	0xbe506786	-0.20351991
14	0x3fa4c930	1.2873898
15	0xbf124cdd	-0.57148534
16	0xbfcf6a5d	-1.6204334
17	0xbf8f0da0	-1.1176033
18	0xbf3b013f	-0.73048776
19	0x3ee2adb3	0.44273147
20	0xbf3845d6	-0.7198156
21	0x3f64e680	0.89414215
22	0x3e3169e1	0.17325546
23	0xbf11d98c	-0.56972575
24	0xbeb8bb5b	-0.3608044
25	0x3fc5e575	1.546065
26	0x3f5c21e0	0.8598919
27	0xbfb11d01	-1.3836976
28	0x3f86ac35	1.0521303
29	0xbf00df5f	-0.5034084
30	0x3f6a894b	0.9161574
31	0xbe1d89a2	-0.15384534
32	0xbf84444f	-1.0333346
33	0x3f979792	1.184313
34	0xbba085f8	-0.004898783
35	0x3f114aa2	0.56754506
36	0xbf9514b9	-1.1646949
37	0xbf0a4324	-0.540087
38	0x3ef6af43	0.4818059
39	0xbf2985fb	-0.6622006
40	0xbe04a8fb	-0.12955086
41	0xbf29b488	-0.66291094
42	0x3f239f9c	0.6391542
43	0x3ec7c7c3	0.39019594
44	0xbed70ca9	-0.42001846
45	0x3ec37d5f	0.38181588
46	0x3e55ce1a	0.20879403
47	0xc00e9e76	-2.2284217
48	0xbf54941e	-0.8303851
49	0xbf128e24	-0.5724814
50	0xbf8ccff8	-1.1000967
51	0xbec28bed	-0.3799738
52	0xbf979f4f	-1.1845492
53	0x3f03ca81	0.5148087
54	0x3e8bf951	0.2733865
55	0xbe422535	-0.18959506
56	0xbf0fa7e1	-0.5611554
57	0x3ed5aca8	0.4173329
58	0x3cafc205	0.02145482
59	0x3f56f5b7	0.8396868
60	0xbf4d00d1	-0.8007937
61	0xbed9a4f8	-0.42508674
62	0x3f459194	0.7717526
63	0x3f205725	0.6263297
64	0x3fb8bf43	1.4433368
65	0x3e9aad23	0.30210218
66	0x3f03a143	0.5141794
67	0x3d7ce12f	0.06173819
68	0xbff662fa	-1.9248955
69	0xbee2ebb4	-0.44320452
70	0x3f81ee58	1.0150862
71	0x3fc7b372	1.5601637
72	0x3d2b4b19	0.041819666
73	0xbf0855d6	-0.53255975
74	0x3f837dd6	1.0272777
75	0x3e7538f9	0.23947515
76	0x3fb9ba09	1.4509898
77	0x3f600c84	0.875191
78	0xbea81930	-0.32831717
79	0x3e705baa	0.23472467
80	0xbd688d10	-0.056775153
81	0x3e4066bd	0.18789192
82	0x3f1a37ef	0.602416
83	0xbe857bc1	-0.2607098
84	0x3e8b6c2d	0.2723097
85	0xbeda261a	-0.42607194
86	0xbfbb1e0e	-1.4618547
87	0xbf314603	-0.69247454
88	0xc017c989	-2.3716757
89	0xbfc8e9a9	-1.5696307
90	0x3e977869	0.29584053
91	0xbea2b58a	-0.31779128
92	0x3e2cb1f9	0.16864766
93	0xbe09db67	-0.13462602
94	0xbf55d984	-0.8353503
95	0xbe081903	-0.13290791
96	0xbf22a916	-0.63539255
97	0x3f875933	1.0574096
98	0xbf8e1e12	-1.1102927
99	0xbf560a86	-0.8360981
100	0x3f2035f5	0.6258233
101	0xbeb2c945	-0.3491918
102	0xbfa5ab3b	-1.294288
103	0xbf41ba0d	-0.75674516
104	0x3f044a4a	0.51675856
105	0xbede5a17	-0.43428108
106	0xbfa519ed	-1.2898537
107	0xbe045b5f	-0.1292548
108	0x3e3436e7	0.17599069
109	0xbf83d680	-1.0299835
110	0xbf8e7b44	-1.1131368
111	0xbf4dc31b	-0.8037583
112	0x3f2ca5ff	0.6744079
113	0xc00569fc	-2.0845938
114	0xbecd1e0e	-0.40061992
115	0x3e471b91	0.1944411
116	0x3f2fdd44	0.68697
117	0xbf064ac0	-0.5245781
118	0xbdf6caac	-0.12050375
119	0x3f29ed2d	0.66377527
120	0xbd80d5f6	-0.0629081
121	0xbff1c3b5	-1.888785
122	0x3f4b9a01	0.79531866
123	0x3f1b779f	0.607294
124	0xbdbb4c3c	-0.091454
125	0x3f74768d	0.95493394
126	0xbefa93b4	-0.48940814
127	0xbe438e11	-0.19097163
128	0x3ffe28ab	1.9856161
129	0xc02130cb	-2.518603
130	0xbf25b827	-0.6473412
131	0x3f410f0d	0.7541359
132	0xbe2aff9e	-0.16699073
133	0xbfcb094c	-1.5862212
134	0x3f0a5ff1	0.54052645
135	0xbf1779a2	-0.5916997
136	0x3d95ff53	0.0732409
137	0xbfff9a47	-1.9968957
138	0x3fa89481	1.317032
139	0x3eb91a51	0.3615289
140	0xbe05a918	-0.13052785
141	0xbfc2980c	-1.5202651
142	0x3e280da9	0.16411461
143	0xbf92d456	-1.147105
144	0xbf0b45a2	-0.54403126
145	0x3f01787a	0.5057446
146	0xbf9382fe	-1.1524351
147	0x3edce49b	0.43143162
148	0x3fee4fef	1.8618144
149	0x3f916ffa	1.1362298
150	0x3f3ebd88	0.7450795
151	0x3fe84f06	1.8149116
152	0x3e38dc6f	0.18052839
153	0xbfa9fc9a	-1.3280213
154	0x3f03b64b	0.5145003
155	0x3f1886d7	0.5958075
156	0xbfad2c43	-1.3529133
157	0x3eb99c5f	0.36252114
158	0x3f55877b	0.8340985
159	0xbe2e7379	-0.17036237
160	0xbf8cf44f	-1.1012057
161	0xbe5a0df2	-0.21294382
162	0x3f2dffcf	0.6796846
163	0x3e8f5c2e	0.28000015
164	0xbe2c4605	-0.16823585
165	0xbf32359c	-0.6961305
166	0x3fda32bd	1.7046734
167	0x3f12b72d	0.57310754
168	0x3f1b4832	0.60657036
169	0x3f321684	0.69565606
170	0xbf17c368	-0.5928254
171	0x3f3a9540	0.7288399
172	0x3fe8cf75	1.8188311
173	0xc010644a	-2.2561212
174	0x3ecb28a2	0.39679438
175	0xbf105230	-0.5637541
176	0x3fa3c43b	1.279426
177	0x3f1bdce2	0.60883915
178	0xbf1a7d9e	-0.60347927
179	0x3fe8cf2e	1.8188226
180	0x3eeeb0f3	0.46619377
181	0x3d3e98c8	0.046532422
182	0xbf407080	-0.7517166
183	0xc0031ad9	-2.0485137
184	0xbf91449d	-1.1349064
185	0xc01cc3b5	-2.449445
186	0x3d9b2b8e	0.07576667
187	0xbd95d0ad	-0.07315192
188	0xbfef3717	-1.8688687
189	0xbfe66e59	-1.8002425
190	0x3fb924c8	1.446435
191	0x3eca7ae5	0.39546886
192	0x3e775bda	0.24156132
193	0xbff9931f	-1.9498023
194	0xbff5b130	-1.9194698
195	0x3e831230	0.25599813
196	0x40155a20	2.3336258
197	0x3e6ba0a6	0.23010501
198	0xbd630f1c	-0.05543433
199	0xbeaa5433	-0.33267364
200	0x3f7b8a41	0.98257834
201	0xbf539e90	-0.8266382
202	0xbf3e9df2	-0.74459755
203	0x3ff9d2a8	1.9517412
204	0xbee96386	-0.45583743
205	0xbf167b49	-0.5878187
206	0xbfc2606c	-1.5185676
207	0x3f5f6867	0.8726868
208	0xbf18b13e	-0.5964545
209	0x3fa113ff	1.2584227
210	0xbfc68475	-1.5509173
211	0xbfcdc6f7	-1.6076344
212	0xbef68ca0	-0.48154163
213	0x3f5a6403	0.85308856
214	0x3f46e08c	0.7768638
215	0x3fccee5e	1.6010244
216	0xbecf6af0	-0.40511274
217	0x3e73ba9b	0.23801653
218	0x3eb49ad1	0.35274366
219	0x3e09eee4	0.13470036
220	0xbe0674a8	-0.13130438
221	0xbf56a8cf	-0.8385133
222	0x3d62b5f8	0.05534932
223	0xbf15cf39	-0.5851932
224	0xbe5ee4e9	-0.2176701
225	0xbf92d108	-1.1470041
226	0x3ee0f508	0.43936944
227	0x3d08faf8	0.033442467
228	0x3dc48816	0.09596269
229	0xbe425273	-0.18976764
230	0xbf7714fe	-0.96516407
231	0x3f7a0065	0.9765685
232	0xbfc729b4	-1.5559602
233	0x3db72dae	0.089442596
234	0x3d8f0377	0.06983083
235	0xbf73abd0	-0.9518404
236	0xbf56b2b7	-0.8386645
237	0x3edc63c6	0.4304487
238	0xbfd76b63	-1.6829647
239	0xbfafdf97	-1.3740109
240	0x3fc7db18	1.5613737
241	0xbf5e0795	-0.8673032
242	0xbff740d8	-1.9316664
243	0x3e396f82	0.18108943
244	0x3ff92141	1.9463273
245	0xbeea71ff	-0.45790097
246	0xbea1218b	-0.31470904
247	0xbf5d9992	-0.86562455
248	0x3f20b2af	0.6277265
249	0xbebc2b0a	-0.36751586
250	0x3e9a8012	0.30175835
251	0x3d69b0fb	0.057053547
252	0xbe97d95d	-0.29658023
253	0xbfa4e302	-1.2881777
254	0x3ece6d34	0.4031769
255	0x3f5df458	0.86700964

conv2.3.kernel f4 [64, 1, 3, 3]
0	0x3f96ae9e	1.1772039
1	0x3ef5eefc	0.48033893
2	0xbf14e17d	-0.5815657
3	0xbea1ba18	-0.3158729
4	0x3f38d455	0.7219899
5	0xbfc479c1	-1.5349656
6	0x3f406b5b	0.7516381
7	0xbf0dd8ae	-0.5540875
8	0xbe468629	-0.19387116
9	0xbfa3fdf9	-1.2811881
10	0xbf26b80e	-0.65124595
11	0x3f078600	0.5293884
12	0xbf7168a2	-0.9430028
13	0x3fc6ecc9	1.5541011
14	0xbf847558	-1.034831
15	0x3ee33c70	0.44382048
16	0x3f6472bf	0.8923759
17	0x3ec5e9c3	0.3865491
18	0xbebb72c1	-0.36610988
19	0xbfd1a128	-1.6377306
20	0xbf01fafe	-0.5077361
21	0xbf59462a	-0.84872687
22	0xbf949573	-1.1608108
23	0x3f4d0cdd	0.8009775
24	0x3efb2425	0.49051014
25	0xc05f8ead	-3.4930832
26	0xbf73ebf9	-0.9528194
27	0xbf6ad725	-0.91734535
28	0x3f4fd47d	0.81183606
29	0x3f8afed8	1.0859022
30	0x401a9ce1	2.4158251
31	0x3f04c32a	0.51860297
32	0x3eda240e	0.42605633
33	0x3fa93416	1.321902
34	0x3ddac45f	0.10681986
35	0xbf8ef391	-1.116808
36	0x3f584ecd	0.8449524
37	0xbeabfb01	-0.33589938
38	0x3f9fa9f0	1.2473736
39	0x3a24139e	0.00062590267
40	0xc088d330	-4.2757797
41	0x3e50071b	0.2031521
42	0x3ee7e764	0.45293725
43	0xbdb20360	-0.0869205
44	0x3f3c7deb	0.73629636
45	0xbf636f93	-0.88842124
46	0xbf9fb2ee	-1.247648
47	0x3c327a3f	0.010893404
48	0x3fbc6516	1.4718349
49	0xbf973d54	-1.1815591
50	0x3fe3b9c9	1.7791072
51	0x3f91d490	1.1392994
52	0xbee58e82	-0.44835287
53	0xbe2eaa50	-0.17057157
54	0x3fe002b9	1.7500831
55	0xbd6590b5	-0.056046207
56	0x3f604eae	0.87620056
57	0xbf7665a6	-0.96248853
58	0x3fc7f5e2	1.5621912
59	0x3e8eb1b7	0.2786996
60	0xbe0d28d9	-0.13785113
61	0xbef9bde9	-0.48777702
62	0xbf6b10a3	-0.9182226
63	0xc01209c1	-2.2818453
64	0xbf81b385	-1.013291
65	0x3faec5d1	1.3654119
66	0x3ea463f3	0.32107505
67	0xbfc36616	-1.5265529
68	0xbfb34f78	-1.4008627
69	0xbeb2fc1c	-0.3495797
70	0x401048ca	2.2544427
71	0x3fc85ca8	1.5653276
72	0xbf0aa138	-0.5415225
73	0xbf899610	-1.074892
74	0xbe9127a8	-0.28350568
75	0xbe036a4b	-0.12833516
76	0x3d464788	0.04840806
77	0xbf4964ea	-0.7866961
78	0x3f5df5be	0.867031
79	0xbea47bb5	-0.3212563
80	0x3ed4bcac	0.41550195
81	0x3e82bc47	0.2553427
82	0x4021633c	2.5216818
83	0x3ebb7825	0.366151
84	0xbf42ae21	-0.7604695
85	0xbf2dc101	-0.67872626
86	0xbefe7cf1	-0.49704698
87	0xbf3feea7	-0.7497353
88	0xbf3c8eb5	-0.73655254
89	0x3da7e564	0.0819805
90	0x3f0720b4	0.52784276
91	0x3ede2f0f	0.43395278
92	0xbf0736e8	-0.52818155
93	0x3f2c9e0c	0.6742866
94	0xbf3bed7f	-0.73409265
95	0xbed086eb	-0.40727934
96	0x3f887b30	1.0662594
97	0x3f973c1d	1.181522
98	0xc00ee507	-2.2327287
99	0xbf5b4285	-0.85648376
100	0x3fa0f0c5	1.2573477
101	0x3f7aaac4	0.9791682
102	0x3f2dd480	0.67902374
103	0xbf9569e7	-1.1672944
104	0xbf518c85	-0.8185504
105	0x3eb743fc	0.35794055
106	0xbf236067	-0.63818973
107	0xbd4c09f8	-0.049814194
108	0x3edb6bc9	0.4285567
109	0xbed4b385	-0.41543213
110	0x403029de	2.7525554
111	0xbfd0e05d	-1.631847
112	0x3efd3967	0.49457857
113	0x3ee01a50	0.43770075
114	0xbf439189	-0.76393944
115	0x3cf8458f	0.030306606
116	0xbfc8e6d8	-1.5695448
117	0xbe996970	-0.29963255
118	0xbf36074a	-0.7110487
119	0x3ee6f221	0.45106605
120	0xbea8ffad	-0.33007565
121	0x3fa95706	1.3229682
122	0xbe268bfa	-0.16264334
123	0x3f97509f	1.1821479
124	0xbf9556fa	-1.1667168
125	0xbf37e034	-0.7182648
126	0xbbc265bb	-0.0059325374
127	0xbf973707	-1.1813668
128	0xbe0eb37c	-0.13935655
129	0x3e40d95f	0.1883292
130	0xbfac9332	-1.348242
131	0xbf777588	-0.96663713
132	0xbf35a322	-0.70952046
133	0x3fd17f9d	1.636707
134	0x3fdb9c57	1.7157086
135	0x3e2c509f	0.1682763
136	0x3fea1ad9	1.8289443
137	0xbf4d006a	-0.80078757
138	0xbf021b3e	-0.5082282
139	0x3f847e04	1.0350957
140	0x3e8a2709	0.26982906
141	0xbfa0682c	-1.2531791
142	0x3fb979e5	1.4490324
143	0xbf6b09ab	-0.9181163
144	0xbedd7c07	-0.43258688
145	0x3ec3928d	0.38197747
146	0x3ccb5be7	0.024824096
147	0xbe063f63	-0.13110118
148	0xbf8cade6	-1.099057
149	0x3cf48914	0.02985052
150	0xbe283fe1	-0.16430618
151	0x3f9efc0c	1.2420669
152	0x3e1a6bbd	0.15080161
153	0x3e593e18	0.21215093
154	0xbfb0f860	-1.3825798
155	0xbfae8e7f	-1.3637236
156	0x3bf5c827	0.0075006667
157	0xc02581ec	-2.5860548
158	0x3f1ed423	0.62042445
159	0x3f6b63c4	0.91949105
160	0x3ff1098d	1.883104
161	0x3ef69cd3	0.48166522
162	0xbf7f3a40	-0.9969826
163	0xbf9a7d16	-1.2069423
164	0x3c48ba2e	0.01225142
165	0x3f75306e	0.9577702
166	0x3f736514	0.9507611
167	0x3f8b7ed1	1.0898076
168	0x3eea91c8	0.45814347
169	0x3f6d7d3c	0.9276922
170	0x3f42a804	0.7603762
171	0xbf1769ae	-0.5914563
172	0xbef1f729	-0.4725888
173	0xbd325c26	-0.04354491
174	0x3fa0c670	1.2560558
175	0x3f0d795d	0.5526331
176	0x3f6df331	0.92949206
177	0xbfd25d35	-1.6434695
178	0xbfdb4e1e	-1.7133214
179	0xbf562f22	-0.8366567
180	0x3ee13c12	0.43991143
181	0x40025c0d	2.0368683
182	0xbf84c270	-1.0371838
183	0xbfb4efbf	-1.4135665
184	0xbf1b2f2e	-0.60618865
185	0x3fd04299	1.6270324
186	0xbf1bdc9a	-0.60883486
187	0x3f268437	0.65045494
188	0x3f989dac	1.1923118
189	0x3eb6272f	0.3557677
190	0x3dc9b113	0.09848227
191	0x3f9fcc30	1.2484188
192	0xbe52ee93	-0.20598821
193	0x3ebc9591	0.3683286
194	0xc056775f	-3.3510358
195	0x3f330fb4	0.69945836
196	0xbe633050	-0.22186399
197	0x3f324c2c	0.6964748
198	0xbe0de3c0	-0.13856411
199	0x3e8e7f7a	0.27831632
200	0xbe9374e5	-0.2880012
201	0x3f98bb46	1.1932151
202	0x3fc7bfeb	1.5605444
203	0x3ee29427	0.44253656
204	0x3ff0153e	1.8756483
205	0x3e38f674	0.18062764
206	0xbfcd1351	-1.602152
207	0xbefd33bc	-0.49453533
208	0xbf03c324	-0.51469636
209	0xbff34a75	-1.9007097
210	0xbea7ff48	-0.32811952
211	0xbee9b107	-0.45642874
212	0x3f932cb3	1.1498016
213	0x3f6b292d	0.91859704
214	0x3f4d3dd7	0.80172485
215	0x3f0b4c6d	0.5441349
216	0x3f51232d	0.816943
217	0x3f1a2d31	0.60225207
218	0x3dd51181	0.10403729
219	0x3da76077	0.08172696
220	0xbf99f892	-1.2028983
221	0xbfbd928f	-1.4810351
222	0xbefa510c	-0.4888996
223	0xbfba52ef	-1.4556559
224	0x3f2cc417	0.6748671
225	0x3f4e0992	0.80483353
226	0xbf4f5613	-0.80990714
227	0xbf13f523	-0.57795924
228	0x3f056400	0.5210571
229	0xbd285b9e	-0.041102998
230	0x3f1d9e09	0.6156927
231	0x3c0c14eb	0.008549909
232	0x3f07a184	0.5298083
233	0x3f673b22	0.90324605
234	0xbfd3aa64	-1.6536374
235	0xbeaf5c73	-0.3425022
236	0x3fec13e8	1.8443575
237	0x3e399e45	0.18126781
238	0x3d8dbc31	0.0692066
239	0xbf4e29d0	-0.8053255
240	0x3e03c23d	0.12867065
241	0xbf752a06	-0.9576725
242	0x3d2b6fad	0.04185455
243	0x3f5428f3	0.82874984
244	0x3f961ec2	1.1728137
245	0x3e685aa0	0.2269082
246	0x3e82ed79	0.25571802
247	0xbf9f2232	-1.243231
248	0xbf8330b5	-1.0249239
249	0xbfa99b94	-1.3250604
250	0x3f57d835	0.8431428
251	0xbda20ee9	-0.07913
252	0x3fa08f80	1.2543793
253	0xc013dbc4	-2.3102884
254	0x3fc6fe10	1.5546284
255	0xbea25e50	-0.3171258

conv2.4.kernel f4 [64, 1, 3, 3]
0	0xbd70fc64	-0.05883445
1	0x3f4455fd	0.7669371
2	0xbee9eeca	-0.45689994
3	0xbf581f88	-0.8442311
4	0x3fa385ed	1.2775246
5	0x3f41f522	0.7576467
6	0x3f2c2923	0.6725027
7	0xbfd2ea21	-1.64777
8	0xbdd4e005	-0.10394291
9	0xbf21280d	-0.6295174
10	0xbe087ea9	-0.13329567
11	0xbf84ce20	-1.0375404
12	0xbedcd191	-0.43128636
13	0x3fa74806	1.3068855
14	0xbe253d30	-0.16136622
15	0x3fa5750b	1.2926344
16	0x3f5a8874	0.8536446
17	0xbf9706fc	-1.1799006
18	0x3f9782ba	1.183677
19	0x3f5158d5	0.8177617
20	0xbee4b4ff	-0.4466934
21	0x3fab34d0	1.3375492
22	0xbf08b919	-0.53407437
23	0xbf1d72fe	-0.6150359
24	0x3f19cd05	0.6007846
25	0x3f756c14	0.9586804
26	0xbf22452e	-0.6338681
27	0x3eb9627a	0.36207944
28	0x3f9e4a71	1.2366468
29	0xbd7d170a	-0.06178955
30	0x3daaf93d	0.0834832
31	0x3f27909c	0.6545503
32	0x3ef0dcf8	0.47043586
33	0xc01909a4	-2.3912134
34	0x3eb41216	0.35170048
35	0x3f6454e7	0.8919205
36	0xbfd4bca1	-1.6620065
37	0x3ff89764	1.9421201
38	0x3fbe6371	1.4874097
39	0xbedeee33	-0.43541107
40	0xbe031f8b	-0.12805001
41	0xbf97cee1	-1.186001
42	0xc0081646	-2.1263595
43	0x3fdf0755	1.7424113
44	0xbf81a3f0	-1.0128155
45	0xbf54d3a1	-0.8313542
46	0x4049c8cd	3.152881
47	0xbe18c6de	-0.14919612
48	0x3f49c797	0.78820175
49	0x3f787359	0.97051007
50	0xbf1ab5e0	-0.6043377
51	0x3f9affa3	1.2109264
52	0xbf261f24	-0.64891267
53	0xbeec9dd5	-0.46214166
54	0x3ec73091	0.3890424
55	0xbd9a1da8	-0.07525188
56	0xbf33a933	-0.7018005
57	0x3e928b96	0.2862212
58	0x3f91d3ef	1.1392802
59	0x3df2f37e	0.11862849
60	0x3e75d261	0.24006034
61	0xbfde5bec	-1.7371802
62	0x40069d04	2.1033335
63	0xbfd6197c	-1.6726527
64	0x3e6f73f5	0.23384078
65	0x3f850759	1.0392867
66	0xbfd4961a	-1.6608307
67	0x3fe412f1	1.781828
68	0xc025411f	-2.5820997
69	0xbf91f8bf	-1.1404036
70	0x3fe10d97	1.7582272
71	0x3f9865c1	1.1906053
72	0x3f794ad2	0.9737979
73	0xbf378e87	-0.71701854
74	0x3f69eafa	0.9137417
75	0xbdf9ba40	-0.121937275
76	0x4008c643	2.137101
77	0x3f848c91	1.0355397
78	0xbfb2d669	-1.3971683
79	0x3eac50eb	0.33655486
80	0x3d06541c	0.032795057
81	0x3f57a000	0.84228516
82	0xbe67f907	-0.2265359
83	0xbf8bc2fb	-1.0918878
84	0xbf9f37b8	-1.2438879
85	0x3eec74f0	0.46182966
86	0x3ff21681	1.8913118
87	0x3ecca60b	0.3997043
88	0xbf673c81	-0.90326697
89	0xbceb59c4	-0.028729327
90	0x3f8a2e61	1.0795404
91	0xbe8cf6be	-0.27532
92	0x3f4ee8a7	0.8082375
93	0xc00698ff	-2.1030881
94	0xc004fd06	-2.0779433
95	0xbe9b5c2a	-0.30343753
96	0xbe414fcb	-0.18878095
97	0x3fbf43b2	1.4942534
98	0x3f4092c1	0.7522393
99	0x3ec8d63b	0.39225945
100	0xbe6ac8a6	-0.22928104
101	0xbf02187f	-0.5081863
102	0x3f4004a0	0.7500706
103	0x403520b7	2.8301218
104	0x3f98817f	1.1914519
105	0xbed8f78a	-0.42376357
106	0x3ef68472	0.48147923
107	0x3dc200c2	0.09472801
108	0x3f9ad89b	1.2097353
109	0x3fffcf4b	1.9985136
110	0x3e434bbe	0.19071862
111	0x3d838e8b	0.06423672
112	0x3f97ea75	1.1868426
113	0x3f25aeee	0.64720047
114	0xbf0cdbec	-0.55023074
115	0x3f802cf5	1.001372
116	0x3ef93649	0.4867423
117	0x3f78a8bc	0.9713247
118	0x3d201106	0.039078735
119	0x3ec88780	0.39165878
120	0xbf72d024	-0.9484885
121	0xbecf7518	-0.40519023
122	0x402643d8	2.5978909
123	0x3f85ef8c	1.0463729
124	0x3f845d7c	1.0341029
125	0x3e5f9870	0.21835494
126	0x3f1b8dbc	0.60763144
127	0xbc28464b	-0.010270665
128	0x3f02bae2	0.5106641
129	0xbf602820	-0.87561226
130	0x3f06ea0e	0.5270089
131	0xbf895340	-1.0728531
132	0x3ee5f3d5	0.44912592
133	0xbf23ff03	-0.6406099
134	0x3d2220b0	0.039581954
135	0xbff3eb85	-1.905625
136	0x3fe19592	1.762377
137	0xbbc25ce8	-0.0059314854
138	0x3fa74795	1.306872
139	0xbef965f5	-0.487106
140	0x4027d811	2.6225626
141	0x3f6ed284	0.9328997
142	0xbf87d566	-1.0611999
143	0x3efaf846	0.49017543
144	0xbfe2931c	-1.7701144
145	0xbf9c2d03	-1.2201236
146	0xc0070de3	-2.1102226
147	0x3f0df677	0.554542
148	0xbf4f16a4	-0.8089392
149	0xbea9bbf0	-0.33151197
150	0xbf0289fc	-0.509918
151	0x3f76d598	0.9641967
152	0x3eabbae4	0.33541024
153	0x3ef8b705	0.48577133
154	0x3f242db9	0.6413227
155	0xbec0041d	-0.37503138
156	0x3ffe88ef	1.9885539
157	0x3fe5ea4a	1.7962124
158	0xbec9c6f2	-0.39409596
159	0xbfa92492	-1.3214285
160	0x3f7c5b67	0.9857697
161	0x3ea3f6d6	0.32024258
162	0x402d89ef	2.7115438
163	0xbf9716b2	-1.1803801
164	0xbf37dc91	-0.7182093
165	0xbfc7f583	-1.5621799
166	0xbee394f4	-0.4444958
167	0xbe9d93fb	-0.30776963
168	0x3f3d481a	0.73938143
169	0xbf9519c1	-1.1648484
170	0x3f391195	0.72292453
171	0xbec5f7dd	-0.38665667
172	0xbfadd921	-1.3581887
173	0x3eb023e2	0.34402376
174	0xbf2b3342	-0.6687509
175	0xbf552020	-0.83252144
176	0x3e9a9e9a	0.30199128
177	0xbe4fc823	-0.2029119
178	0x3f0a632f	0.5405759
179	0x3eaf112f	0.34192798
180	0xbe9190a8	-0.28430676
181	0xbf9f36cc	-1.2438598
182	0x40198fa6	2.3993926
183	0xbf0553d7	-0.52081054
184	0xbfd4ab8f	-1.6614856
185	0xc010ab2e	-2.260448
186	0xbeb295de	-0.34879965
187	0x3fb8caf0	1.4436932
188	0xbf98e613	-1.1945213
189	0xc001cc72	-2.0281034
190	0x3e636b97	0.22209011
191	0xbf8d5d6b	-1.1044134
192	0x3f6ac8ed	0.9171284
193	0x3fbc542a	1.4713185
194	0x3fa9844f	1.3243502
195	0xbdbd4229	-0.09241135
196	0x3e07f8c5	0.13278492
197	0x3e92711b	0.28601918
198	0xbf6beedf	-0.92161363
199	0x3f10110e	0.56276023
200	0x40045a0e	2.0679965
201	0x3fad164e	1.3522432
202	0x3eb6a25b	0.35670742
203	0xbf32fd37	-0.69917625
204	0x3f074df3	0.52853316
205	0xbf3f5458	-0.74738073
206	0x3e5ea812	0.21743801
207	0xbdba02eb	-0.09082588
208	0xbf8b2ba4	-1.0872693
209	0xbe40f9cb	-0.18845288
210	0xbfca47c4	-1.5803151
211	0x3b434dea	0.002980108
212	0xbd0ab010	-0.033859313
213	0x3f897d5c	1.0741382
214	0xbfb6a090	-1.426775
215	0xbf277594	-0.65413785
216	0x3f2b22c8	0.66849947
217	0x3eda3985	0.4262201
218	0x3fd7c144	1.6855855
219	0x3f28368f	0.6570825
220	0x3dec95a5	0.1155198
221	0xbd757084	-0.059921756
222	0x3f8c0f80	1.094223
223	0x3fcf10b7	1.6176976
224	0x3f0c9246	0.54910696
225	0xbf8f059f	-1.117359
226	0xbe66d5e2	-0.22542527
227	0x3dc0afe2	0.09408547
228	0x40143c24	2.3161707
229	0xbf774988	-0.96596575
230	0xbe21f8a6	-0.15817508
231	0x3f0e2b51	0.55534846
232	0xbf6c7a51	-0.9237414
233	0x3de7c38d	0.11316595
234	0x3f332153	0.69972724
235	0x3f0cdee6	0.55027616
236	0x3ed5688e	0.4168133
237	0xbfc89030	-1.5669003
238	0xbe833f03	-0.25634012
239	0xbf39ed64	-0.72627854
240	0xbfb1effe	-1.3901365
241	0x3f99b359	1.2007858
242	0xbf436777	-0.7632975
243	0xbf8ae702	-1.0851748
244	0xbd12327e	-0.035692684
245	0x3f4f856e	0.8106297
246	0x3f4fe67a	0.81211054
247	0xbf2c163c	-0.67221427
248	0xbf203c61	-0.6259213
249	0xbf930883	-1.1486973
250	0x3f120112	0.57032883
251	0xbf5a92a6	-0.8538002
252	0xbe4cad9f	-0.19988106
253	0x3f5623a4	0.83648133
254	0xbef1f6ea	-0.47258693
255	0xbea81228	-0.32826352

conv2.5.kernel f4 [64, 1, 3, 3]
0	0xbffe6b95	-1.9876581
1	0x3f4f8dac	0.8107555
2	0xbf873bef	-1.0565165
3	0xbfb73b7b	-1.4315027
4	0x3f75b7e0	0.95983696
5	0xbf21bf77	-0.6318278
6	0xbf5b1698	-0.8558135
7	0x3f0fcbd7	0.5617041
8	0xbe471937	-0.19443212
9	0x3fdd8168	1.7305117
10	0x3f00134e	0.50029457
11	0x3fdf209d	1.7431828
12	0x3e639e87	0.22228442
13	0xbe4bfa14	-0.19919616
14	0xbeedcb36	-0.464441
15	0x3e3614d2	0.1778138
16	0xbfd88c23	-1.6917766
17	0xbdc8517d	-0.09781168
18	0x3f02b25b	0.510534
19	0x3f40dbd4	0.7533543
20	0xbfa18f5c	-1.2621875
21	0xbf91c770	-1.1388988
22	0x3e8fd928	0.28095365
23	0xbeba24b9	-0.36356142
24	0xbff89b1e	-1.9422338
25	0xbe15e3ea	-0.14637724
26	0xbfbdd537	-1.4830693
27	0x3ef6ca9f	0.48201463
28	0x3ee1ecd7	0.44126007
29	0xbe900697	-0.28130028
30	0xbfc1d4b9	-1.5143043
31	0xbf603008	-0.8757329
32	0xbff62f59	-1.9233199
33	0x3dbaf0d0	0.091279626
34	0xbf974243	-1.1817096
35	0xbf0dea8e	-0.5543603
36	0x3f7b2cb0	0.9811506
37	0x3f2d7750	0.6776018
38	0xbf4032ae	-0.7507733
39	0xbf07ae66	-0.53000486
40	0xbf5eb0b4	-0.8698838
41	0x3f951615	1.1647364
42	0xbf843521	-1.0328714
43	0x3e2e601f	0.17028855
44	0x3f52b08d	0.82300645
45	0xbdf16a0c	-0.11787805
46	0x3cb5a571	0.022173615
47	0xbe0fc43b	-0.140397
48	0x3f8d3a3a	1.1033394
49	0x3f93c7f7	1.15454
50	0x3fc7f874	1.5622697
51	0xbee5d8e8	-0.4489205
52	0xbe18b06a	-0.14911047
53	0x3e76913d	0.24078842
54	0x4012e080	2.2949524
55	0x3f493bd3	0.7860691
56	0x3f38b802	0.72155774
57	0xbf94bc23	-1.1619915
58	0xbfa1a819	-1.2629424
59	0xbe9aff27	-0.3027279
60	0xbfc984bc	-1.5743632
61	0xbd1b28ed	-0.037880827
62	0xbef47ed4	-0.47753012
63	0x3fae1a1e	1.360172
64	0x3fa9d0fa	1.32669
65	0xbf9124e5	-1.1339384
66	0x3d06ef52	0.032943077
67	0xbcd71912	-0.026257072
68	0xbe5f6da5	-0.2181917
69	0x3f913068	1.1342897
70	0xbe1e80ea	-0.15478864
71	0x3f2726ef	0.6529378
72	0x3e27b8e6	0.16379127
73	0x3fce604a	1.6123135
74	0xbef6d96c	-0.48212755
75	0xbf74f6fc	-0.9568937
76	0x3f247ec1	0.6425591
77	0xbc541bd1	-0.012946085
78	0xbf594986	-0.8487781
79	0x403e9244	2.9776773
80	0x3f2e3387	0.68047374
81	0xbeaef433	-0.34170684
82	0xbeb01ed4	-0.3439852
83	0x3f3fb0d2	0.7487918
84	0x3ec26f1a	0.3797539
85	0x3e9d7bac	0.30758417
86	0x3ee5aab9	0.44856814
87	0xbed2fa99	-0.41206816
88	0x3fc4a46d	1.5362679
89	0x3dcb5438	0.09928173
90	0x3f586d68	0.8454194
91	0x3feeac1c	1.8646274
92	0xbf2c190d	-0.67225724
93	0xbfb25801	-1.3933107
94	0x3f0c710b	0.5485999
95	0x3f7b4767	0.98155826
96	0x3dc299c3	0.09501984
97	0x3f487aef	0.7831258
98	0xbf74b2b1	-0.9558516
99	0x3f1565a4	0.58358216
100	0xbf9cbace	-1.2244508
101	0xc00e9b88	-2.2282429
102	0x3d7c4967	0.06159344
103	0x3fcb964b	1.5905241
104	0x3d9e3fe2	0.077270284
105	0xbedeee69	-0.43541268
106	0xbf7f110d	-0.9963539
107	0x3fa2d3d8	1.27209
108	0x3e321dab	0.1739413
109	0x3f6b13f9	0.9182735
110	0xc0300659	-2.7503874
111	0x3f9089e3	1.129208
112	0x3d9cdcc0	0.07659292
113	0xbf0b5687	-0.54428905
114	0x3fb1105e	1.383312
115	0x3f94b684	1.1618199
116	0xbf8e7438	-1.1129217
117	0x3d205604	0.03914453
118	0xbf49eb0e	-0.7887429
119	0xbe0fafcd	-0.14031906
120	0xbeffd62d	-0.4996809
121	0x3c9db237	0.019250019
122	0xbf9ebb86	-1.2400978
123	0x3f1ca013	0.61181754
124	0x3f423fd1	0.75878626
125	0xc01cc20d	-2.449344
126	0x3fa1316e	1.259321
127	0xbe31db18	-0.17368734
128	0xbfe20d81	-1.7660371
129	0x3f07d359	0.53056866
130	0xbeace226	-0.33766288
131	0xbe9bc85e	-0.30426306
132	0xbf15998a	-0.58437407
133	0x3dacc979	0.08436865
134	0x400f28c2	2.2368627
135	0xbe275c4b	-0.163438
136	0xbf06fb5a	-0.5272728
137	0x3facd492	1.3502371
138	0x3f11efb9	0.5700641
139	0xbffec3ef	-1.9903544
140	0x3ea6085b	0.3242825
141	0x3e9a9947	0.30195066
142	0x3f0f54ea	0.55988944
143	0xbfd14b14	-1.6351037
144	0x401edd80	2.4822693
145	0xbee4294a	-0.4456275
146	0xbfdde1fc	-1.733459
147	0x3e946f30	0.2899108
148	0xbe9c83c2	-0.30569273
149	0xbf68e439	-0.9097324
150	0xbe8caa42	-0.27473646
151	0xbf62b742	-0.8856088
152	0x3fb9cf0c	1.4516311
153	0xbe032b99	-0.128096
154	0xc038c2af	-2.8868825
155	0x3e4357a8	0.19076407
156	0x3faaac2b	1.3333791
157	0xbf18b1a2	-0.59646046
158	0x3e8e3ae0	0.27779293
159	0xbe7c958a	-0.2466642
160	0x3ecf1a86	0.40449923
161	0x3f9bbd9b	1.2167238
162	0xbd324da7	-0.043531086
163	0x3f8fe398	1.1241331
164	0xbda509b1	-0.08058489
165	0xbf551f44	-0.8325083
166	0xbfca5ef2	-1.5810225
167	0xbec59d14	-0.38596404
168	0xbfd0d247	-1.6314172
169	0xbf329a7f	-0.6976699
170	0x3f98a033	1.1923889
171	0x3f1c2674	0.60996175
172	0xbf065c7f	-0.5248489
173	0xbf8a83e6	-1.0821502
174	0xbfcaedbe	-1.5853803
175	0x3f924b9f	1.1429328
176	0xbf9ad9ea	-1.2097752
177	0x3f32badc	0.69816375
178	0x3ef1f265	0.47255245
179	0xbe996f87	-0.299679
180	0xbfed25a3	-1.8527111
181	0xbf3e92c5	-0.744427
182	0xbf12b7b7	-0.57311577
183	0x3e562d3d	0.20915695
184	0xbfa61121	-1.2973977
185	0xbf81b001	-1.0131837
186	0xbff44a04	-1.9085088
187	0xbe9293b5	-0.28628317
188	0xbfd6d148	-1.6782618
189	0x3f4de8fe	0.8043364
190	0x3f0687cc	0.5255096
191	0x3ea1ab63	0.3157607
192	0xbf10fb05	-0.56633025
193	0x3fad473b	1.3537363
194	0xbf190b5f	-0.59782976
195	0xbfb87232	-1.440985
196	0xbf1fbaf9	-0.6239467
197	0x3f4ebed3	0.80759925
198	0xbf78880f	-0.9708261
199	0x3e8df716	0.27727574
200	0x4064a64c	3.57265
201	0xbdee2322	-0.11627795
202	0xbfbd6ea8	-1.4799395
203	0x3e9485a5	0.29008213
204	0x3f0d0c58	0.5509696
205	0xbe598692	-0.21242741
206	0x3fc9cf39	1.5766364
207	0xbf703ffa	-0.9384762
208	0x40224011	2.5351603
209	0xbe3740cc	-0.17895812
210	0x3ea0f9ed	0.31440678
211	0xbf14b6b9	-0.5809131
212	0x3d8f6055	0.07000796
213	0xc00f702f	-2.2412221
214	0xbf13d552	-0.57747376
215	0x3f05bc57	0.5224051
216	0x3eb4ad83	0.3528863
217	0x3f383d9a	0.71968997
218	0x3f8fb77e	1.1227872
219	0xbf452545	-0.77009994
220	0xbfb2bf5e	-1.3964651
221	0xbfc355d2	-1.5260565
222	0x3f974b00	1.1819763
223	0x3dff645b	0.12470313
224	0xbf36184d	-0.7113083
225	0x3fd39a72	1.6531508
226	0x3fc8a719	1.5675994
227	0x3f824a8c	1.0179
228	0x3f10219c	0.56301284
229	0xbfab7caf	-1.3397425
230	0xbe1d47f4	-0.15359479
231	0x3f2bb58f	0.6707391
232	0xbf793de2	-0.9736005
233	0xbfad2ee4	-1.3529935
234	0x3f597ea6	0.84958875
235	0x3eb03e12	0.34422356
236	0xbfba74a1	-1.4566842
237	0xbfb7dce2	-1.4364283
238	0xc007a5d7	-2.119497
239	0xbdd0d769	-0.10197336
240	0xbe7ae3c0	-0.24500942
241	0x3f0988fe	0.5372466
242	0xbf34f9be	-0.70693576
243	0xbfa1cbe9	-1.2640353
244	0xbf60ca43	-0.87808627
245	0x400f80ad	2.2422287
246	0x3f81f8b2	1.0154021
247	0x3f60bddb	0.87789696
248	0xbe73cafa	-0.23807898
249	0x3fa44d36	1.2836063
250	0xbe6974e4	-0.22798496
251	0xbf9d0471	-1.226698
252	0xbea7d763	-0.32781515
253	0x3f107eb4	0.56443334
254	0xbed892e8	-0.4229958
255	0x3f24734a	0.6423842

conv2.6.kernel f4 [64, 1, 3, 3]
0	0xbf28359f	-0.6570682
1	0xbf6a8f1a	-0.91624606
2	0xbe332787	-0.17495547
3	0xbfd639ea	-1.6736424
4	0x3e39dd0e	0.18150732
5	0x3e6334c4	0.22188097
6	0x3f6cabc9	0.92449623
7	0x3de0e5c5	0.10981325
8	0x3e61ba83	0.22043805
9	0xbe0ff452	-0.14058045
10	0xbf9b2c30	-1.212286
11	0xbf276c4c	-0.6539962
12	0xbf6db4bf	-0.9285392
13	0xbfff9e0f	-1.9970111
14	0x3f4e5b37	0.8060793
15	0xbfc88316	-1.5665004
16	0x3e566374	0.20936376
17	0x3f856a32	1.0423033
18	0x3fad7b64	1.3553281
19	0xbef5cf5d	-0.48009768
20	0xbcbd45c4	-0.023104556
21	0xbf39cbd5	-0.7257665
22	0xbe3f698a	-0.18692604
23	0x3f5f3de6	0.87203825
24	0x4021593c	2.5210714
25	0xbf4b7cec	-0.7948749
26	0xbda70110	-0.081544995
27	0x3ed9ad34	0.42514956
28	0x3f7085eb	0.9395434
29	0x3e902ce5	0.28159252
30	0xc00ed613	-2.231816
31	0x3eba6d29	0.36411408
32	0xbfa1415a	-1.2598069
33	0xbf8ed66c	-1.1159186
34	0xbeaeddbb	-0.34153542
35	0x3f308593	0.6895382
36	0x3f4acf03	0.79222125
37	0xbf9334b6	-1.1500461
38	0xbfca8eac	-1.582479
39	0xbfaa324b	-1.3296598
40	0x3e53c489	0.20680441
41	0x3efb1e21	0.49046424
42	0x3f9b6254	1.2139382
43	0x3f1fcebb	0.6242482
44	0xbfa4f88d	-1.2888352
45	0xbe3cddd4	-0.18443996
46	0xbe7a2cb2	-0.24431112
47	0x3f8e9edb	1.1142229
48	0xbfd39aac	-1.6531577
49	0x3f1479bf	0.5799827
50	0xc006d1a4	-2.1065454
51	0xbda73d9b	-0.08166047
52	0x3f04cbac	0.5187328
53	0xbe093613	-0.13399534
54	0xbe24fe8c	-0.16112727
55	0xbfdeef4a	-1.7416775
56	0xbe96fc03	-0.29489145
57	0x3f4852c0	0.78251266
58	0xbf93e7d7	-1.1555127
59	0xbfca1cdc	-1.5790057
60	0x3f35f054	0.71069837
61	0x3dd0ccfd	0.101953484
62	0xbe6b46a6	-0.22976169
63	0xbf364035	-0.7119172
64	0x3fbeb995	1.4900385
65	0xbd9de3ea	-0.07709487
66	0x3d46da0b	0.048547786
67	0x3fc2014e	1.5156648
68	0x3ec99e34	0.39378512
69	0xc010b321	-2.2609332
70	0xbe047cd2	-0.1293824
71	0xbf562243	-0.8364603
72	0x3f3aaa7a	0.72916377
73	0x3fbb03c2	1.4610522
74	0x3ecd4d20	0.40097904
75	0xbeecd707	-0.46257803
76	0x3fa0cfb1	1.2563382
77	0xbf837443	-1.0269855
78	0xbd0e73b0	-0.034778297
79	0xbec6a213	-0.38795528
80	0xbf87c319	-1.0606414
81	0x4008dee4	2.1386042
82	0x3df0e6f2	0.11762799
83	0xbffd8938	-1.9807501
84	0x3edd198c	0.43183553
85	0x3fa675e2	1.3004725
86	0xbfb349a4	-1.4006848
87	0xbfe1ac52	-1.7630713
88	0xbe915980	-0.28388596
89	0xbe0d120e	-0.13776419
90	0x3d95b04c	0.073090166
91	0xbe6e4639	-0.23268975
92	0x3f6792b4	0.90458226
93	0xbfcb19b4	-1.5867219
94	0x3d02a208	0.031892806
95	0x3f40cc54	0.7531178
96	0xbe585c00	-0.21128845
97	0x3ead1303	0.33803567
98	0x3f517f32	0.8183471
99	0xbedfd401	-0.43716434
100	0x3ec78ba5	0.38973728
101	0xbffad657	-1.9596661
102	0xbeb62f4d	-0.35582963
103	0x3f497a7a	0.7870251
104	0xbecb76dd	-0.39739123
105	0x3fbd000b	1.4765638
106	0x3f457b2d	0.77141076
107	0xbf82bbb4	-1.0213532
108	0x3d359d99	0.04433975
109	0xbf73b227	-0.95193714
110	0xbe89b7a5	-0.26897922
111	0x3f27652b	0.65388745
112	0x3e89aaf8	0.2688825
113	0xbef8f0b9	-0.48621157
114	0x3ea8548d	0.32877007
115	0xbf97004e	-1.1796968
116	0x3ff5781e	1.9177282
117	0xbee4839a	-0.44631654
118	0xbf422a25	-0.7584556
119	0x3fe0f861	1.7575799
120	0xbf639441	-0.8889809
121	0xbec879e6	-0.391555
122	0x3ee338d5	0.44379297
123	0x3dd2f582	0.10300733
124	0x3f60ef49	0.8786512
125	0x3f9cda89	1.2254192
126	0x3f1c44bd	0.61042386
127	0xbe81f9ce	-0.25385898
128	0x3f75d412	0.9602672
129	0xbfb43281	-1.4077913
130	0x3f0fd01f	0.5617694
131	0xbfec42ab	-1.8457845
132	0xbe38332a	-0.17988268
133	0x3f87e35c	1.061626
134	0x3f732529	0.94978577
135	0x3f917323	1.1363262
136	0x3fe7cf35	1.811011
137	0x3fef16ee	1.8678873
138	0x3f138c05	0.5763553
139	0xbd3697ba	-0.04457829
140	0xbf717257	-0.94315094
141	0x3e473e5d	0.19457383
142	0x3f912885	1.134049
143	0x3f47c916	0.7804121
144	0x3fad7494	1.3551202
145	0x3f0ca9c9	0.5494657
146	0x4022f177	2.5459878
147	0xbdc39dca	-0.0955158
148	0x3e433458	0.19062936
149	0x3f475a21	0.778719
150	0x3eec209c	0.4611863
151	0x3f0baaaf	0.5455732
152	0xb9985d5b	-0.00029061254
153	0x3f7e55c3	0.9934961
154	0x3f124814	0.5714123
155	0x3ea13609	0.31486538
156	0xbf37ca70	-0.7179327
157	0xbf50b9e5	-0.8153365
158	0xbf8f4f05	-1.119599
159	0xbe4e1d9f	-0.20128487
160	0xbf24aa4b	-0.64322346
161	0xbeeb17b1	-0.45916513
162	0x3e3f0fb3	0.18658333
163	0x3fba28b7	1.4543675
164	0x3c20ff50	0.009826496
165	0xbf5a0847	-0.8516888
166	0x3e90aefd	0.28258505
167	0xbfcf7c22	-1.6209757
168	0x40021a6e	2.0328631
169	0xbeb45a52	-0.3522516
170	0xbed9e785	-0.42559448
171	0x3f8200c3	1.0156482
172	0xbf41f47e	-0.7576369
173	0xbfd12b19	-1.6341277
174	0x3b4f2718	0.0031608995
175	0xbf409d85	-0.75240356
176	0xbffeb612	-1.9899313
177	0xbf3f1125	-0.74635535
178	0x3f69a6f1	0.9127036
179	0x3f5a6ec8	0.8532529
180	0xbeb42a2a	-0.3518842
181	0xbf97d9b3	-1.1863312
182	0x3edde197	0.43336174
183	0x3f7391ce	0.95144355
184	0x3f9bbe65	1.2167479
185	0x3ff9a1bf	1.9502486
186	0x3fce21d6	1.6104076
187	0x3ea951bb	0.33070168
188	0x3eabb4cd	0.33536378
189	0x3f480a0b	0.78140324
190	0x3e982edd	0.29723254
191	0xbf653d5b	-0.89546746
192	0x3f44715d	0.7673548
193	0xc0120819	-2.2817442
194	0x3e3db83c	0.18527311
195	0xbfc791b6	-1.5591342
196	0x3f808693	1.0041069
197	0x3f745184	0.9543688
198	0x3f1ee1f1	0.6206351
199	0x3d5ad849	0.05342892
200	0xbf176592	-0.5913936
201	0x3f836aa4	1.0266919
202	0x3fddb354	1.7320352
203	0x3e9d6ea4	0.30748475
204	0x3f8f47ce	1.1193788
205	0x3fb66b92	1.4251578
206	0xbdf0ebf6	-0.11763756
207	0x3c8920e2	0.016739313
208	0x3f9416a0	1.1569405
209	0x3fb110da	1.3833268
210	0xbf186e55	-0.59543353
211	0xbee2ac99	-0.44272307
212	0xbef324d5	-0.47489038
213	0xbf99f406	-1.2027595
214	0xbe1b1de8	-0.15148127
215	0xbf45856b	-0.77156705
216	0xbfae700c	-1.3627944
217	0x3fbce308	1.4756784
218	0x3f957b98	1.1678343
219	0xbf9c4290	-1.2207813
220	0x3f9f9b24	1.246922
221	0xbf819693	-1.0124077
222	0x3f9b5d10	1.2137775
223	0xbe0b2987	-0.1359006
224	0xbed67bfa	-0.41891462
225	0x3f5b0c15	0.8556531
226	0xbf90b805	-1.1306158
227	0x3f83c5eb	1.0294775
228	0xbf78b870	-0.9715643
229	0x3f8065ca	1.0031064
230	0x3ec0f552	0.37687165
231	0xbfd8117b	-1.6880335
232	0xbfbfb888	-1.497819
233	0xbf3a0911	-0.72670084
234	0x3f331938	0.69960356
235	0x3f8e3f13	1.1112999
236	0xbedb54a2	-0.42838007
237	0xbf08053e	-0.53133
238	0xbe7d5195	-0.24738152
239	0xbf2da0fa	-0.67823756
240	0xbf9c1cdb	-1.2196306
241	0x3ea366aa	0.31914264
242	0xbed8581d	-0.42254725
243	0x3f1f84d5	0.6231206
244	0x3d8766b6	0.066113874
245	0xbe830e0f	-0.25596663
246	0x3fb7f1f1	1.437071
247	0xbebc88d6	-0.36823148
248	0xbf99b5ab	-1.2008566
249	0x3eacdee0	0.3376379
250	0x3d3a1a59	0.045435283
251	0xbdc8061c	-0.0976679
252	0x3efa5ae2	0.48897463
253	0x3df7dd1f	0.121027224
254	0xbf873c37	-1.0565251
255	0xbf452dbe	-0.7702292
