Train_result/Mon_Jun_16_01_00_06_2025_Encoder_Base_Train.model (torch, 54848 bytes, 10 tensors)

conv1.0.kernel f4 [64, 1, 3, 3]
00000000: 9c78 d33f a115 95bf f82e ee3f 416d e43f
00000010: 54f6 793f 0aeb c7bd 9e7f 5bbe 4ad3 70bd
00000020: b470 32bf 59ef f43e 095f 453e 6017 1fbf
00000030: fe43 a33f 53f7 983f 71a3 d53f 02d5 bc3e
00000040: ad0d 86be 6f7e c83f 6a35 dc3f 7324 e03e
00000050: f0d0 a5bf e0be b43e cf16 97bf 2bc9 59be
00000060: e524 1abf 3381 3e3f 339a 3e3f 3554 46bf
00000070: 8b60 aebf 6364 d23f 797a 4abf 5551 1fbf
00000080: b1fc 183d ac30 5b3e 4bf9 4440 3228 8d3f
00000090: 6c71 c8be 51cf 6abe ea48 cabf 07ef f63e
000000a0: 2e51 56be 4514 1fbf fc82 9e3e 802e 253f
000000b0: e33a 5a3f 23e2 9d3f 062b 00c0 9887 e9bf
000000c0: fb39 f33e 4b63 ddbe efe2 653f 1a49 b73f
000000d0: ea85 e93d 2ce3 d93e 6242 a63f dcfd 8e3f
000000e0: 4daa bf3f 7025 1d3f 5579 353f 60e3 993f
000000f0: 87ff 0d3f 9af3 9abd 1514 11be 9fc0 793f
00000100: 87ad e43e c582 3a3f bebb 0a40 f524 e13e
00000110: 5c73 28be df1b 05bd 455b df3d 708c b0bf
00000120: 2f37 193f f40b fabe 0ffc 44be 47b5 a13f
00000130: 7acc 443f 31c9 e7be 9119 6c3f f229 573f
00000140: 15a1 a9be 6e77 903d 8f40 933f c5db 8ebf
00000150: 20ab 0b3e c7fc 1cc0 35db 9dbb 071d 883f
00000160: 30a9 563f b074 2ebf 200a 17bf a535 8c3c
00000170: f830 bd3c 0275 b1bf f64c 583f dfde d53f
00000180: 12c6 edbe b4fb 993f c46f 3b3e 3562 083f
00000190: bd36 df3e 40f7 72be c384 41be 1e84 403e
000001a0: 3bee d23f b69c c4be 5788 15bf ea92 cabe
000001b0: fa47 7d3f 2acb 5c3f e34b 103f 8294 73bf
000001c0: 944e 98bf ee71 ccbf 00ee a6be 9768 9b3e
000001d0: 9fb0 bd3e dc51 643f 3570 823f b4c3 b83f
000001e0: 509e 7abf 7640 3f3f fb4e 8bbf 6a8d ce3e
000001f0: 6325 09c0 efed 49bf 4d7c 91bf 915e fabf
00000200: 72f3 3a3f 1106 e9be 0372 be3d 9337 f13d
00000210: c906 293e 1f1b 073f c4c1 2b3f b62c 83bf
00000220: 21dc 483f 5b9f f6be 5be5 febf 44b9 d0bf
00000230: d003 9ebf ce76 44bf f208 f23e 6941 00c0
00000240: 2040 1b3d b3af b1bf 6d07 873d cacc 91be
00000250: 1e09 a5bf ceca 52bf 3b04 c8bf 8261 043f
00000260: 7a92 1440 c430 5abf 1a2c ccbe 8fa8 f93e
00000270: f5da 78bf 6b50 babd a642 a3bd f864 9bbf
00000280: 3f4b b8be b67b 75bf b71a 3cbe 9d27 653f
00000290: 73db f6be feb6 943f 86f4 43bf 6394 4c3f
000002a0: 5b26 e33e fda4 f53d bdd7 403f 8260 f43f
000002b0: c932 b5be 2724 1ec0 0b9c 4b3f 2147 2bbf
000002c0: a18d 65bf df20 4abf fcfc d63e d48a af3e
000002d0: 0316 873f 7ce5 d93f c37b 54be 381e 453f
000002e0: 246a 1a40 cd52 743b c848 05c0 1a05 05c0
000002f0: b020 82be a95f 5a3f 945a ab3e dd76 bd3f
00000300: a1fa bd3c 4f5c d6be c769 f83f cb28 403f
00000310: c862 e5bf f652 b7be cba7 d6be 105a 0dbf
00000320: bb77 0340 9e9c 81bf 3adc 83be 9eea 57bf
00000330: 797f 1ebf 1f9b b6bf 0426 c2be bd1e 0ec0
00000340: 848f 61bf 1fa6 d23e fa7d 663f e169 60bf
00000350: f910 47bf 7b8c 2b3f 581c 053f 4e84 c1bd
00000360: dfdc d9bf a803 a1bf 719a adbe 47f5 9d3f
00000370: 29e6 73be 07c5 b3bf aa50 523f 1a2a 693f
00000380: ec7d 1bbe 9054 c8bf 266b 9ebf f577 5fbf
00000390: f46f a73e 2197 8d3e cd17 60bf e45e 5a3f
000003a0: e3e1 c33f 2821 893f c7bb f33f cd0a a03f
000003b0: 4219 ef3f c508 b63f 60ed 95bf 681c dc3e
000003c0: cdc5 36bf b34a 92bf 4248 e2bf f26d 95be
000003d0: c341 133f d6d5 1c3f 331e d63f 839c 7abf
000003e0: 5038 033f 9c3f fc3e 0b2a 8d3f 44f1 b3be
000003f0: 1a3e b53f db74 07c0 077f c53f 0a0d ec3f
1.6521182 -1.1647226 1.8608084 1.7845842 0.9764149 -0.09761627 -0.21435401 -0.05879525
-0.6970322 0.47838858 0.19274534 -0.6214504 1.2755125 1.1950477 1.6690503 0.36881262
-0.2618231 1.5663584 1.7203801 0.4377781 -1.2954388 0.35301876 -1.1803836 -0.21268146
-0.60212547 0.7441589 0.7445404 -0.7747224 -1.3623213 1.6436886 -0.7909313 -0.6223348
0.03735036 0.21405286 3.0777156 1.1027892 -0.39149034 -0.22930647 -1.5803502 0.48229238
-0.20929405 -0.62140304 0.30959308 0.6452408 0.85246104 1.2334636 -2.002626 -1.8244505
0.47505173 -0.43239817 0.897994 1.4319184 0.11402495 0.4255613 1.2989008 1.1171222
1.4973847 0.6138525 0.70888263 1.2022514 0.5546803 -0.075659946 -0.14167817 0.9755954
0.4466364 0.7285579 2.1677089 0.43973508 -0.16450256 -0.032497283 0.1090608 -1.3792858
0.5984983 -0.48837245 -0.19236778 1.2633446 0.76874506 -0.45270684 0.9222651 0.8404838
-0.33130708 0.070540294 1.1504077 -1.1160818 0.13639498 -2.4529283 -0.0048173913 1.0633858
0.8385191 -0.681468 -0.58999825 0.017115423 0.02309464 -1.3863833 0.84492433 1.670864
-0.46440178 1.2029939 0.18304354 0.5327485 0.4359645 -0.23727131 -0.18898301 0.18800399
1.6478952 -0.3840081 -0.58411163 -0.39565212 0.9893795 0.86247504 0.56365794 -0.9514848
-1.189898 -1.5972269 -0.32603455 0.30353233 0.37048814 0.8918741 1.0190493 1.4434724
-0.97897816 0.74707735 -1.0883478 0.40342265 -2.142907 -0.7887868 -1.1366059 -1.9560109
0.7302772 -0.4551244 0.0929909 0.11778178 0.16506495 0.5277576 0.6709254 -1.024802
0.7846089 -0.48168454 -1.9913744 -1.6306539 -1.2344913 -0.7674378 0.4727245 -2.0039923
0.03790295 -1.3881744 0.06593213 -0.28476554 -1.2893407 -0.82340705 -1.5626291 0.51711285
2.3214402 -0.8523066 -0.39877397 0.48761413 -0.972091 -0.0909737 -0.079716966 -1.2140188
-0.35994908 -0.9589189 -0.18369566 0.8951357 -0.482143 1.1618345 -0.7654499 0.7991392
0.443652 0.1199436 0.7532919 1.9091952 -0.35390308 -2.4709566 0.7953498 -0.6690541
-0.89669234 -0.7895641 0.41989887 0.34285605 1.0553592 1.7023158 -0.20750336 0.76999235
2.4127283 0.0037280798 -2.0825672 -2.0784364 -0.25415564 0.85302216 0.33467543 1.4801899
0.023190798 -0.418673 1.9407281 0.75062245 -1.7920771 -0.35805482 -0.4192489 -0.5521555
2.0541828 -1.0125921 -0.25753957 -0.8434237 -0.6191326 -1.4266089 -0.3791963 -2.220626
-0.8810961 0.41142365 0.90035975 -0.8766156 -0.77760273 0.6701123 0.51996374 -0.09449063
-1.702053 -1.2579241 -0.33906892 1.2340478 -0.23818268 -1.4044503 0.82154334 0.91079867
-0.15184754 -1.5650806 -1.2376449 -0.87292415 0.327026 0.27654365 -0.8753632 0.8530104
1.530331 1.0713243 1.904168 1.2503296 1.8679583 1.4221426 -1.1713066 0.42990422
-0.7139557 -1.1429046 -1.7678301 -0.29185444 0.5752222 0.6126379 1.6727966 -0.9789507
0.512578 0.4926728 1.1028455 -0.3514501 1.4159577 -2.1165073 1.5429391 1.8441479

conv1.1.kernel f4 [64, 1, 3, 3]
00000000: c1bb 103f 81a6 2b3f 9b71 093f 9455 0bbe
00000010: aa7a a73e 6dc1 48bd 3119 91bf 32f6 0fbe
00000020: e2b2 7d3f ee83 9bbe f458 30bf b231 e33e
00000030: d2ea e23f 2278 9d3e a66d 90bd 9c28 863f
00000040: 54f5 a83e d34c 01c0 3283 2d3f 6eec 0c3e
00000050: f9ea 64bf e7ea c73d 2077 a03e f211 2e3e
00000060: 7347 dcbf 0b4f 733f dfe6 ee3f c8c0 92bf
00000070: dbde 37bf 81dd 65be 60e5 0b40 c960 a23d
00000080: 399b b03f 7544 33be f04d d43e f61a c7bd
00000090: e5a3 06c0 e53f 94be c68d 363f 9001 73bf
000000a0: 391a 5a3e 523c 503f 5b9f b53f c608 febf
000000b0: 2de0 c1be 923d afbe 30d0 353c 3928 073e
000000c0: 25df 4bbf 8d0f fe3e a74f 183d ce96 04bf
000000d0: 0c62 263f f29f c1bc fbc1 84bf 1e3d 933f
000000e0: 4d52 6b3f 8bd7 0d3f e390 5bbf 5e6e d73f
000000f0: 1196 ea3e cdc5 94bf 4be7 893f 8947 ee3b
00000100: 819c 723f 520b 123f bbd4 6ebf ea66 07bf
00000110: f91b dd3f b750 23bf c8ee 14bf 06ff aebe
00000120: dd52 783f b260 f2bd ada4 2440 8f4d 5a3c
00000130: fbaf 5abe fa1a f2be 50c2 e7bf 88d2 e8be
00000140: fa30 44bf a058 c63f a2be af3f 7ca5 f7bf
00000150: 1122 123f 5d70 cdbf b555 963d 4823 2d3f
00000160: 0581 913f 6661 b6bf ddaa 2040 800c 993f
00000170: 9534 3c3f 940b b4bf 1eb2 e0bf e6cc 05bf
00000180: 48b6 6fbf 96a7 413f 772b 9bbe de24 e63f
00000190: e3a4 bb3e fc4f 1e3f 2a28 f93e 5d46 dabe
000001a0: 7f4d b63f e8cd 0ec0 f4e5 eabe 5dcf 84be
000001b0: ec00 35bd 46d3 c8bf fc37 e2bf 3097 0f40
000001c0: e77d 763d 2765 85bf cb4e cb3f 2f5c 45bf
000001d0: 6555 2b3e 8884 1c40 1005 6fbf b182 463f
000001e0: 8ce7 dc3d a59c abbe 1ae3 d0bf e148 0040
000001f0: 0147 95bf 64b5 ddbd 287a 52be 369b 813d
00000200: cb8b 323f dc5f 74bf 74dd 81bf 8fef 86bd
00000210: 41ce 7d3f b8b0 1c3e 8d15 e9bf 4eb0 693e
00000220: b140 0e3f 9e6c c1be 9359 943d c12d d0bf
00000230: 12dc 6fbf 2a71 e73e 0439 8c3f 1ff8 9d3f
00000240: e3b2 c7be 97e3 2abf 3b98 23bf 2b1c 0a3f
00000250: 27a4 60bf c615 cbbe 57e8 4e3e 972f 163f
00000260: 9e6c 7ebf 5132 5b3e ff9c a23f 90b6 0b40
00000270: 9853 b5bf 9028 51bf 2ae8 e2bd 4a9d 0dbf
00000280: 8fb4 9bbf 4769 af3f f07c cc3e 40e9 a2be
00000290: 5de2 37c0 2202 943f 2aa0 e6bf 86a9 f13f
000002a0: 8927 853f 63a1 f63e 71da adbf 3bbd 8ebf
000002b0: dd0b 2c3f 300a 94bf 4401 0e40 5439 03c0
000002c0: f5db 11bf 3634 cf3f 03fd 9f3b 7ede d8bf
000002d0: 7e90 a3be 1f79 5e3f 29d2 a13e 2c7e 9dbf
000002e0: 6c1d e83c e46c 813e 4f00 a3bf d82d 493d
000002f0: da18 483e 9371 933f b50e 7ebf b9d1 93bf
00000300: 64a7 ef3e 59b6 9ebe 4099 fd39 18bd 993f
00000310: fb04 90bf aaa9 a53d 9722 f5bf 6566 263f
00000320: 4fa6 2cbe 5ef2 e03f 82ed 10be 840b 69be
00000330: 8f0d 91bd 344c 2cbf 1921 113f 7d18 163e
00000340: 34fa 06c0 de31 883f a51a 32bf 1521 093f
00000350: fb01 113f cbf9 b1be 9f52 05bf 6caf b1bf
00000360: 52e7 a13f e15d 9bbe 8cbc 133f 8a6a d6bf
00000370: 928a d83f bb67 65bf 4b46 91bf 5232 75bf
00000380: 02eb 89be 6df2 1d3d 248a f43f 28eb cb3f
00000390: b25d 313e 2884 c6bf 7814 d1bf a4af cc3f
000003a0: 73e6 76bf e734 dfbf dfa9 29bf 888f d73f
000003b0: fbdb a4bf a7b0 e83f 8bff 02bf 569c 4abd
000003c0: cf36 aa3f 32a4 3b3f 9891 c1bf a574 bbbf
000003d0: 846c 773f 336f e2bf 9150 1ebf c606 68bf
000003e0: be63 7e3f 3356 213c 3f3f 23bf 46e7 ec3f
000003f0: 463c c3bf 398b babd cc0a 46be 844e 72be
0.5653649 0.6705094 0.53688973 -0.13606864 0.32710773 -0.04901259 -1.1335813 -0.1405876
0.9910108 -0.30374092 -0.6888573 0.44373852 1.7727911 0.30755717 -0.07052164 1.0481143
0.3299967 -2.020314 0.67778313 0.13762066 -0.8942104 0.09761601 0.31340885 0.16999033
-1.7209305 0.95042485 1.8664206 -1.1465082 -0.71824425 -0.22447778 2.185875 0.079286166
1.379737 -0.17506583 0.41465712 -0.09721939 -2.1037533 -0.28954998 0.7131008 -0.9492426
0.21299066 0.8134204 1.4189256 -1.9846427 -0.37866345 -0.34226662 0.011096999 0.13198937
-0.79637367 0.4962124 0.037185337 -0.5179261 0.6499336 -0.023635838 -1.0371698 1.1503026
0.91922456 0.5540702 -0.85767955 1.6830556 0.45817617 -1.1622864 1.077371 0.0072717112
0.94770056 0.57048523 -0.9329335 -0.5289141 1.7274162 -0.63795036 -0.5817685 -0.34178942
0.9700144 -0.118348494 2.572551 0.0133241555 -0.21356194 -0.47286206 -1.8106174 -0.45473123
-0.7663723 1.5495796 1.3730052 -1.9347377 0.5708323 -1.6049916 0.07340566 0.6763196
1.1367499 -1.4248474 2.5104287 1.195694 0.73517734 -1.4066033 -1.7554357 -0.52265775
-0.93637514 0.7564634 -0.303066 1.7980001 0.36649236 0.61840796 0.48663455 -0.42631808
1.42424 -2.2313175 -0.45878565 -0.25939456 -0.044190332 -1.5689476 -1.7673335 2.2436028
0.060178664 -1.0421494 1.5883421 -0.77093786 0.16731794 2.445589 -0.933671 0.7754317
0.107863516 -0.33517948 -1.6319306 2.0044482 -1.1662294 -0.10825613 -0.20554411 0.06328432
0.6974456 -0.9545877 -1.0145707 -0.06588661 0.99142843 0.15301788 -1.8209702 0.22821161
0.5556746 -0.3777818 0.072436474 -1.6263963 -0.93695176 0.45203525 1.09549 1.2341346
-0.39003667 -0.66753525 -0.6390416 0.5394923 -0.87750477 -0.3966505 0.20205818 0.58666366
-0.99384487 0.21405913 1.2704161 2.1830177 -1.4166136 -0.8170252 -0.11079438 -0.5531813
-1.2164477 1.3704003 0.3993907 -0.3181858 -2.873191 1.1563151 -1.8017628 1.887986
1.040269 0.48170003 -1.3582288 -1.1151499 0.672056 -1.1565609 2.2188272 -2.050374
-0.5697625 1.6187809 0.0048824563 -1.6942899 -0.31946176 0.86903566 0.31605652 -1.230413
0.028334342 0.2527839 -1.2734469 0.049115986 0.1954073 1.1519035 -0.9924119 -1.1548377
0.46807396 -0.30998495 0.000483701 1.2010832 -1.125152 0.080890015 -1.9151181 0.6499999
-0.16860317 1.7573965 -0.14153102 -0.22758299 -0.07082664 -0.67303777 0.5669113 0.14657779
-2.1090212 1.0640218 -0.69571906 0.53566104 0.56643647 -0.3476089 -0.52079195 -1.388166
1.2648718 -0.3034506 0.57709575 -1.6751263 1.6917288 -0.89611405 -1.1349577 -0.9577991
-0.2693711 0.038561273 1.9104657 1.5931139 0.17320898 -1.5509081 -1.6334372 1.5991101
-0.9644539 -1.743802 -0.6627483 1.6840677 -1.2879633 1.817891 -0.5117118 -0.0494655
1.3297976 0.7329742 -1.5122557 -1.4644972 0.96649957 -1.7690185 -0.61841685 -0.90635335
0.99370944 0.009847212 -0.6376838 1.8508079 -1.5252769 -0.09108586 -0.19340056 -0.23662764

conv1.2.kernel f4 [64, 1, 3, 3]
00000000: da5e a93f a04a 503f 7ac5 a13e 6145 08bf
00000010: 40b7 f93f 64ea 273f 7645 acbe c157 ffbe
00000020: aa96 813f b9b0 26be 5188 a23f 8a3f ce3f
00000030: 017f 5ebf fef6 cabd e7df f6be 248f 26be
00000040: 00c1 023f b7f9 9abf 6602 323f c7ed 59bf
00000050: dd85 e3bf 18b9 cc3c 69a2 22bf f9ed c33f
00000060: 72e4 1e3f f8d4 62bf 397d 96bf e10b 7d3f
00000070: 03ee 67bf c839 3340 d018 873e b3af 7d3f
00000080: 6e68 04bf 5d78 51bf a9c9 c3bf 16d2 93bf
00000090: 149f 653f 12f2 253e 00cc 7cbf 712f d23e
000000a0: fe92 c43f ef55 fbbe f90e 2440 e8f4 f4be
000000b0: dfa7 08bf 9464 38bf e845 57be 3a00 373f
000000c0: dc49 df3d 7086 983f 2a7d 5ebe 6ba9 49be
000000d0: 3d5d 62bd 56bf 0340 ec63 db3f 9a53 59bf
000000e0: 1d91 1fbf 9ebf d83f 880e 95bf c446 31bd
000000f0: d735 51bf f202 a4bf 51c8 bb3c 8b58 17bf
00000100: 5e07 4dbf 53b9 b93f 1c31 f03f 3f0e c93f
00000110: 01d4 e23e edfc 17bf 8267 11be 998e a4bc
00000120: 00bf f23e cf20 ed3c 40a9 11c0 9689 1e40
00000130: 8879 c8bf 596b fdbd 32dd db3e 3799 903e
00000140: 0183 dcbf c91a 25bf a748 22bf 4662 d9bf
00000150: 0c0f b43e bc60 873f 9873 163f d0d2 0040
00000160: d371 3c3f 63bd fabf 7380 68be 3be1 bebf
00000170: 2a62 8dbe 882d 793f eda9 acbe 2e0f 8ebe
00000180: 2128 59bf 755a 04bf f135 9f3e 6276 973e
00000190: fc9a b8be 1d0b 923f c4ff 1fbf 205b 0fbd
000001a0: 4e25 4fbf 4b62 e93f ed9a 493f f3ef d73f
000001b0: 09d0 913f 24b7 143e 4eea 3dbf 544e a03e
000001c0: 2205 cebf 72ec 083f c8ae ab3e e252 46bf
000001d0: 0a15 5c3e ebe4 9cbf 1461 b93e 9adf b83d
000001e0: 3376 253f c8dc 8cbf d447 e23f 98bf 31bf
000001f0: 8b5b 993f eb1b 4a3e d454 87be b73e 98bf
00000200: bc46 a43f f878 ab3f 4a96 3bbe 74df 3e3e
00000210: 40c2 68be 0b7c 8c3f 05ce 293f 7483 5fbc
00000220: 0e24 b7bf 8e28 2abf e301 30bf be8c 0b3f
00000230: a854 f0be 51c8 9f3f 6f4a cabd ef03 fa3e
00000240: 1316 083e a6f5 943e 1cd5 adbf 88d9 97be
00000250: f898 883e cc57 d03f 6586 2640 a23e 3a3f
00000260: e621 3dbf f4d5 a9be 3726 10bd 928d 8f3f
00000270: 101e 5f3f 591d 163e 2b7f bb3f fe9c bdbf
00000280: ba8e ae3e 1640 e23e 9af6 eabf bb3c a23e
00000290: 1527 893e 4127 b7bf 34fd 5cbf 1dc0 81be
000002a0: 95fe 0740 c49f dcbf 1568 e33e 7a8c 573f
000002b0: 4c22 a63f 111c 2fbf e13c 3e3e 6674 7f3f
000002c0: 3b8e b53f 85e2 99be abb3 8cbf 7630 9a3d
000002d0: 3911 7e3f ea11 d3bf 800c 433f 2cf1 3a3f
000002e0: f511 773e 0916 bfbf 499d 99be 995e 4abf
000002f0: a3c9 4abf 0123 91be 2ca1 2d3e b686 54bf
00000300: 0b4d e4bf 63b3 373f bb08 a33f e335 583d
00000310: 18c6 83be 26ac 163e ecdb 96bf 2944 953e
00000320: 5aa9 67bd 7a7e c8bf b577 94bf 7ac9 e53e
00000330: d3b2 5d3f ff06 8dbf 173c f73c c37d 4bbf
00000340: 3163 9c3d e6db e8be 97de 11bf 07e7 07bf
00000350: 0ee1 2dbf 3047 10be 3b8a f8be 4b47 493f
00000360: 0e8d abbf 30bc 50bf 7865 0940 1a96 6cbf
00000370: d973 a8bf af06 38bd 44be b73f daf3 05be
00000380: c842 5cbf 6595 703e c8f7 0e3f 9355 bbbe
00000390: b54f 8d3e 3082 adbb 8f15 8d3e 826d b2be
000003a0: f447 843f c58b d13f 2757 573e 1a02 e3be
000003b0: a071 12bd ddda 39bf 7536 c33e 0cdf 823f
000003c0: be68 253f 2f2f e4bf 45e8 393f 8c88 5f3e
000003d0: 4e5e 4e3f 055b 11bf f41f 9bbe 4029 0a3f
000003e0: 9f58 1b3d 46fc 2b3f da97 8dbf 44a4 b8bf
000003f0: 88d3 b33f 8222 143d ad2e c73f 7f28 21be
1.3232071 0.8136387 0.31595975 -0.53230864 1.9509048 0.65592027 -0.33646744 -0.49871638
1.0124104 -0.16278352 1.269785 1.611314 -0.8691254 -0.09910391 -0.482177 -0.16265541
0.51075745 -1.2107457 0.6953491 -0.85128444 -1.7775227 0.024990603 -0.6352907 1.5306998
0.6206733 -0.88606215 -1.1756965 0.9884625 -0.9059755 2.8004017 0.26386118 0.9909622
-0.5172185 -0.81824285 -1.5295917 -1.1548488 0.8969586 0.16205624 -0.9874878 0.4105182
1.5357358 -0.49089 2.5634139 -0.478431 -0.5338115 -0.7202847 -0.21022761 0.7148472
0.109027594 1.1916027 -0.21727434 -0.19693534 -0.0552647 2.0585532 1.7139869 -0.8489319
-0.623308 1.6933477 -1.164506 -0.043280378 -0.8172278 -1.2813399 0.022922667 -0.5911948
-0.80089366 1.4509681 1.8764987 1.5707473 0.4430237 -0.5937031 -0.14199641 -0.020087527
0.47411346 0.028946308 -2.2759552 2.4771476 -1.5662088 -0.123739906 0.42942196 0.28241894
-1.7227479 -0.64493996 -0.6339211 -1.6983116 0.3516773 1.0576396 0.5877013 2.012867
0.7361118 -1.9589046 -0.2270525 -1.4912485 -0.27613956 0.973351 -0.33723393 -0.27745956
-0.84826857 -0.51700526 0.31095842 0.29582506 -0.36055744 1.1409642 -0.6249964 -0.034999013
-0.809163 1.8233122 0.78752023 1.6870102 1.1391612 0.14522988 -0.74185646 0.3130976
-1.6095316 0.53485787 0.33531785 -0.7747022 0.21492401 -1.225736 0.36206877 0.090270236
0.6463348 -1.1004877 1.767817 -0.69432974 1.1981062 0.19737212 -0.26431906 -1.1894139
1.2834086 1.3396292 -0.1831905 0.18639928 -0.2273035 1.0975355 0.66329986 -0.013642181
-1.4307878 -0.6646813 -0.6875288 0.5451163 -0.46939588 1.2483007 -0.09877478 0.48831126
0.1328967 0.29093665 -1.3580661 -0.2965815 0.26679206 1.6276793 2.6019528 0.7275182
-0.7387985 -0.33171046 -0.035192695 1.1215079 0.87155247 0.14659633 1.4648184 -1.4813535
0.34093267 0.4418952 -1.8356507 0.3168696 0.2678763 -1.4308854 -0.8632386 -0.25341883
2.1249135 -1.7236257 0.44415346 0.84198725 1.2979217 -0.684022 0.18577911 0.99786985
1.418403 -0.30055633 -1.099233 0.075287744 0.9924503 -1.6489842 0.7619095 0.7302425
0.24127944 -1.49286 -0.30002812 -0.79050595 -0.79213923 -0.28347018 0.16956013 -0.8301805
-1.7836012 0.717581 1.2737039 0.052785765 -0.2573707 0.14714107 -1.1785865 0.29153565
-0.05655799 -1.5663598 -1.1599032 0.44880277 0.8660099 -1.101776 0.03018002 -0.7948877
0.07636107 -0.4548027 -0.5698027 -0.53086895 -0.6792153 -0.14089656 -0.4854296 0.7862441
-1.3402421 -0.8153715 2.1468182 -0.92416537 -1.3160354 -0.04492825 1.435494 -0.13081303
-0.860394 0.2349449 0.55846834 -0.36588725 0.27599874 -0.0052950606 0.2755551 -0.34849173
1.0334458 1.6370779 0.2102934 -0.4433754 -0.035752892 -0.72599584 0.38127485 1.0224319
0.6461295 -1.7826899 0.7262004 0.21829432 0.8061265 -0.5677951 -0.30297816 0.5396919
0.037926313 0.67181814 -1.1061966 -1.442513 1.4048929 0.03616572 1.5561119 -0.15738104

conv1.3.kernel f4 [64, 1, 3, 3]
00000000: 238d cebe 0e26 863f c4e9 7dbf 1800 323e
00000010: 0b3e a8bf a9df c23e d6dc 12bd 7c3d 7cbe
00000020: 87cb 813e d04e bc3f 3b61 16bd afcc 7abe
00000030: 3653 ab3d 9b21 2c3f 1692 503e c130 803f
00000040: 5ae4 9b3e 195d 913f 54be c8be a9b3 90bf
00000050: 1e77 1a3f aa7b a4be 0f99 573e caa8 543e
00000060: 1b62 0b3e c665 13c0 08ef 82bf e1f5 adbe
00000070: c3dd 403e 3b56 0640 9965 02bf 347e 673f
00000080: 2e2c 023f 4579 14bf 6afb 723e 875c 2d3f
00000090: 64ef 983f 7aa2 f23e 32f0 b1bf 14b4 2d3f
000000a0: a5e6 c83e 0af3 9c3e 8571 5f3f db0d ce3e
000000b0: 65f9 90bb a5b0 ddbe f1a3 6ebf 2b4d cabe
000000c0: a6a8 d6be bf46 7abf 1c7f b53f 50e5 56be
000000d0: 2f8f 6ebe f76e 8cbd 64da 713a 7747 f33e
000000e0: 54a1 613f 44ab 91bf c3a8 6d3f 21e6 2b3e
000000f0: f544 24bf 4569 133f 2fbd 53be cef7 fa3f
00000100: 1e07 0bbf 2a46 b03e 2cd6 813e 2c56 f6be
00000110: 96d9 aa3f 0576 91bf 3d0e a7be 5e50 b43f
00000120: 6364 763f 91d9 8c3e 1335 a63f c673 6dbe
00000130: 639b 973d 3ee3 2f3f 7ee1 133e f29b 543e
00000140: 84ed b53f 3c51 f0be 0d85 20bf 5685 a2bf
00000150: 4bc7 d8be 83c2 a2bf 103e 33be 67ad a63f
00000160: 7dd9 0cc0 f815 82bf 79db cdbf 21cc 04c0
00000170: a713 d9bf 2605 44bf ccd1 853f f8c4 8bbf
00000180: fee5 323f d5a2 5e3f 8437 0c3e 86ca 9abf
00000190: e179 94bf 46e9 f9be 74b4 a8be d727 2cc0
000001a0: 4524 cb3f 9b02 d3bf cfa3 3cbf a380 e4be
000001b0: 2a80 a03f 8c33 c43e b90a 1a3f 2525 313d
000001c0: ebda 6bbf 19cb cabf 6138 903e a933 b43f
000001d0: 7eab 693e da63 113e c85c dc3e 1ed0 2840
000001e0: 551a 593f 7f36 e33e b6ac c33f e2f2 26be
000001f0: debc f8bf 1709 26be eae5 e9be dd44 ebbf
00000200: 4251 813e 791c f1bf 8175 69bf cb54 b5be
00000210: ffd6 703d 929d 453f 76f9 3c3e f825 973e
00000220: 8b3c eb3c 72d2 783f 962a 0240 8954 96bf
00000230: e4c9 c23f c240 5ebf 7a18 143f 7a54 573f
00000240: a037 22bf 6fe9 bcbf 41c4 09c0 fef4 efbd
00000250: 8a61 f0be 4ff7 55bf 5a6e a5bf 26a0 78bf
00000260: 03f8 a63e 5758 59bd 1749 11bf 5dfe 0e3f
00000270: 4a28 41bf 8f6e 003e dbce 083f aa8a 93bf
00000280: f7aa cc3f 163b 243f d9d2 99be d1c9 4fbe
00000290: ab7a 803f 421a 0c3f 62c1 a7bf 0d7a 0c3f
000002a0: 9434 483e 0d46 313e fa89 3fbe bf0a 153e
000002b0: 3d17 3a3d 0452 d7bf 5bc1 613f 4b82 52c0
000002c0: 5f71 323f e874 7d3f 5f25 213f a4e6 91bf
000002d0: d0d8 0d3f d496 153f 9493 853e 44c5 febd
000002e0: a6b4 433e cd7c a4bd 43c7 28c0 a3a7 a6bc
000002f0: 79fc 48c0 c502 23c0 587d 4cbf 789d 113f
00000300: 865c 063f 9f37 f2be 6bff 19bf 5d88 533f
00000310: c78f cbbd c1fa f0bd 0466 0f3f beac 3ebf
00000320: 3090 e8be b168 97bf 0a06 f5bb 4928 4ebf
00000330: 3563 32bf df53 e1bf 8bcf 553f 3258 8bbf
00000340: 4819 f83e f19b c1bf 5d15 183f 00ba 013f
00000350: 6f42 b2be c8b1 6f3f 178f 9d3e 8c7e 453f
00000360: 4faf 363f fa78 9bbf 3c6b 85bf 564d 393e
00000370: 2a8d 8dbe 4ff8 09c0 4f05 72bf 934c a1bf
00000380: a206 8b3f dda5 80bf 7494 513f 7387 a23f
00000390: 95cc 17bf 4480 c13f 99aa 07c0 2176 edbe
000003a0: 1dd3 0e3f 728a 143f 94b8 24bf ada6 a2be
000003b0: 8395 1a3e 42ff 0f3f 4ddc 683d 1140 c2be
000003c0: eb2e e63f 9b6d e83f 9389 083a 5d40 6c3f
000003d0: 0897 8ebf afdb 8c3f 2e82 f1be 8723 1cbf
000003e0: 60fc c5bf 8fa5 223f fd3d ad3e 501e de3f
000003f0: 489f 57bf e121 eebe 4541 21be a5a0 70bf
-0.40342054 1.0480363 -0.99184823 0.17382848 -1.3143934 0.38061264 -0.035855137 -0.2463283
0.25350592 1.4711552 -0.03671382 -0.24492143 0.083654806 0.6723878 0.20368227 1.0014879
0.30447656 1.1356536 -0.3920771 -1.1304828 0.6033801 -0.32125598 0.21054481 0.20767513
0.13611643 -2.3030868 -1.0229197 -0.33976653 0.18834595 2.099013 -0.50936276 0.90426946
0.5084866 -0.5799754 0.2372872 0.6771931 1.1948056 0.47389585 -1.3901427 0.678529
0.39238468 0.30654174 0.8728259 0.40244946 -0.0044242614 -0.43298832 -0.93218905 -0.39512
-0.41925544 -0.977642 1.4179416 -0.20985913 -0.23296808 -0.06857102 0.0009225963 0.4751546
0.8813679 -1.1380391 0.92835635 0.16787006 -0.6416772 0.57582504 -0.20677637 1.9606874
-0.54307735 0.3442853 0.25358713 -0.4811262 1.3347652 -1.1364142 -0.3262805 1.4087026
0.9624693 0.2750974 1.2984947 -0.23188695 0.074026845 0.6870612 0.14441487 0.20762613
1.4213109 -0.46936977 -0.6270302 -1.2696941 -0.42339548 -1.271561 -0.17504144 1.3021668
-2.2007744 -1.0162954 -1.6082603 -2.074959 -1.6959122 -0.76570356 1.045465 -1.0919485
0.6988219 0.8696721 0.13693053 -1.2093055 -1.1599694 -0.48810786 -0.32950175 -2.6899316
1.5870444 -1.648517 -0.7368745 -0.44629392 1.2539113 0.38320577 0.6017261 0.043248314
-0.9213092 -1.584323 0.28168014 1.4078265 0.22819325 0.14198247 0.43039536 2.6377025
0.84805804 0.44377515 1.5287082 -0.1630359 -1.9432638 -0.16214405 -0.45683223 -1.838039
0.25257307 -1.8836814 -0.9119492 -0.35416254 0.058798786 0.7719356 0.18454537 0.29521155
0.028715393 0.97196114 2.0338492 -1.1744548 1.5217862 -0.8681756 0.5784985 0.84113276
-0.63366127 -1.4758738 -2.1526034 -0.117166504 -0.46949416 -0.8358049 -1.2924302 -0.9711937
0.32611093 -0.053062763 -0.5675215 0.5585688 -0.754521 0.12542175 0.53440636 -1.1526692
1.5989674 0.6415266 -0.30043676 -0.2029183 1.0037435 0.54727566 -1.3105891 0.54873735
0.19551307 0.17311879 -0.18704978 0.1455488 0.045432318 -1.6821904 0.8818566 -3.2892025
0.6970424 0.9900651 0.6294765 -1.1398511 0.55408955 0.5843327 0.26089156 -0.12439969
0.1911188 -0.08031616 -2.637162 -0.020343607 -3.1404097 -2.547044 -0.7987876 0.56880903
0.5248493 -0.4730806 -0.6015536 0.8262995 -0.09939533 -0.117665775 0.5601504 -0.74482334
-0.45422506 -1.1828824 -0.0074775266 -0.8053022 -0.6968263 -1.760372 0.8351981 -1.088629
0.48456788 -1.5125715 0.594076 0.5067444 -0.3481631 0.9363065 0.3077323 0.7714622
0.7136125 -1.2146294 -1.042335 0.18095908 -0.27646762 -2.1557806 -0.9453935 -1.2601494
1.0861399 -1.0050617 0.81867146 1.2697586 -0.5929654 1.5117269 -2.1197875 -0.46379188
0.55790883 0.5802375 -0.64344144 -0.3176779 0.15096097 0.5624887 0.05685072 -0.37939504
1.7983068 1.8158449 0.00052084884 0.9228571 -1.1139841 1.1004542 -0.47169632 -0.6099171
-1.5467644 0.6353387 0.33836356 1.7353001 -0.8422742 -0.46510223 -0.15747555 -0.93995124

conv1.4.kernel f4 [64, 1, 3, 3]
00000000: 9cb7 993e 3077 b9bf feea 84bf e504 6ebf
00000010: 0702 e8bf fb58 3a3f 18ec 483e 0f07 b83e
00000020: 4ddb 89bf 7bc4 e2bd 34e9 203e 2b7e e53f
00000030: 5c94 d23d 199c d83f c372 2fc0 9f11 da3f
00000040: 8557 0140 c1ed 96bd 287d 02bd 2810 00c0
00000050: 974a 76bf c433 ecbe d712 10bf bd34 fdbf
00000060: 8d07 853c f9bd 063f 6c4a 1dc0 0e85 bdbe
00000070: d4f7 91bf 25a1 9cbf 3ff5 edbd 53dd ae3e
00000080: 161e e0be f89f bebf 8b07 b93e 1b61 b2be
00000090: 9a3e fe3e 3c80 0c3f e969 60c0 a942 d5be
000000a0: 140b acbf 847a 85bf bd5d 32bf d1cc bcbf
000000b0: a734 cfbe 648e aa3f 0466 093d 51af c43e
000000c0: 114e 983c 8784 ce3e 125e b53e 78d6 f03f
000000d0: 1b1e c83f 2639 f03f afe6 99bf 9d4c 61bf
000000e0: 0834 24bf 6457 bf3e ec6f 82bf dd18 25bf
000000f0: 3462 e23e 4bb7 66bf 98ad 533f 57cc 393f
00000100: f8a3 a7be eb9d 76be bf80 44bf ddce 6cbf
00000110: cf74 82be 9d5b 903f 76e7 7bbe d855 1340
00000120: b62b 4140 9e65 d53f 0944 843f 8629 a63e
00000130: f856 d03f 59b1 c53e 8ce5 b5be 6fbf 0c40
00000140: 550e c2be 669e 9d3f bccf 4d3f cc62 e6be
00000150: 21e8 81bf dd62 90bf 615b 583f 0bd3 a3bf
00000160: 0897 643f 696b e0bf 32f1 79bf 113a 84bf
00000170: 32eb 97bf 30a2 13bf 042a 493f dd07 47be
00000180: 74ab 99bf 91f2 46bf 3bde 9fbb 5ce9 d53d
00000190: db63 38bf e7d0 883f 72c0 0e3f a129 a0bf
000001a0: 65a7 ac3e 6a3e 8fbe bd78 e6bf 3cf5 b2bd
000001b0: 5250 183f f79e 35be 2b03 503e 4aa8 f43f
000001c0: 2ab6 aa3f 1487 2fbf a276 2fbf 6527 0440
000001d0: 0d20 903e 211d 7239 3eb7 b5bf cb54 f33d
000001e0: c864 193f 7a51 2ebe 5c57 9c3f a22b 683f
000001f0: 1120 893f 11a8 f73f 2aa7 abbe daad adbf
00000200: e2ac 053f 2c35 6f3f 2395 03bf 7c93 da3d
00000210: cae7 7cbe 717c 2c3e c37f 90bf 90ab 98be
00000220: 7fd3 903f 55dd 9cbf 8b34 99bf 3cf7 d23c
00000230: 4c74 40bf 1a20 ff3f e88b eabb a765 71bf
00000240: 99e0 823f f580 22c0 d81f a5bd baf2 a73f
00000250: 8641 cdbe 9458 14bf c199 4dbf 9965 98bf
00000260: c14a babe 69b3 0fbf 7b73 ebbe 3d57 85be
00000270: 4a99 c43e 6104 76bf 6cea 1040 8279 893f
00000280: 691a dbbe 6c16 a7bf 1c00 27bf 5f15 ba3e
00000290: 6954 85bf a755 693e 111a a43e fccf b0be
000002a0: 25d8 9ebe e4ef c3bf c5ef 08be bce6 b23e
000002b0: 7127 16bf 6fb3 6b3e 0753 3fbf f0ff a93f
000002c0: 5369 35bd 2c9f 79bf 1e9d 573f d9eb af3f
000002d0: bf9b c63e e067 e63f ee96 7abe 6fb3 b3be
000002e0: 1f8b 913f 0721 273f f8c5 2cbf d5cb b33f
000002f0: e004 b43e a10b 383f 53d3 46bf 9a5e 98be
00000300: 6197 ab3f ed19 eebe a444 d9bd 4723 e0be
00000310: 0b87 983e d017 0cbf 4947 cbbe c6f1 33bf
00000320: 46fb 7c3e da67 16bf c3d0 1a3f 782c 86bf
00000330: affd ad3f 87d6 1dbf 57ad ad3f d783 ef3e
00000340: 028e a93f 5f45 0f40 5643 b5bd 7611 063f
00000350: dd47 c53e bfe7 62be 0f38 52be 68a3 ac3f
00000360: acd3 10bf 8767 883f 9188 db3f f935 be3e
00000370: e026 4dbf df7d 0a3f 9bfd c33e 0f6e 20be
00000380: 7a24 593f 0da3 b53d 5dee 083f 062e 93be
00000390: 98e2 9d3f 4d91 293f 96e9 c93e b05e 0a3f
000003a0: c0d3 3c3f 7294 0d3f 4d24 90be 421d 313e
000003b0: 9a01 bbbe 2fd1 9e3e e412 393f a301 853f
000003c0: 3924 2e3f e9a3 953e 4d59 51bf 575a c8bf
000003d0: 4829 bebf 7b98 1c3e 1234 4ebf dcd4 1dbf
000003e0: a42e c7bf 76c4 0dc0 9bc9 243f 8966 dbbf
000003f0: 3167 d1bf 0a8d 4bbf 5e24 e4bf 4743 f23e
0.30022895 -1.4489498 -1.0384214 -0.9297622 -1.8125619 0.72792023 0.19621313 0.35942885
-1.077005 -0.11072632 0.1571396 1.7929128 0.102822036 1.6922637 -2.7413795 1.7036628
2.0209668 -0.07369567 -0.03185764 -2.000986 -0.96207565 -0.46133244 -0.5627875 -1.978172
0.016238952 0.52633625 -2.4576674 -0.37015575 -1.1403756 -1.2236677 -0.116190426 0.34153232
-0.43772954 -1.4892569 0.36138567 -0.3483971 0.49657136 0.5488317 -3.5064642 -0.4165242
-1.3440881 -1.0428014 -0.69674283 -1.4750005 -0.40469858 1.3324704 0.033544555 0.38415006
0.018591912 0.40335485 0.35423332 1.8815451 1.5634187 1.876744 -1.2023524 -0.8800753
-0.64141893 0.3737136 -1.0190406 -0.64491063 0.44215548 -0.9012343 0.8268676 0.7257742
-0.32742286 -0.24083678 -0.7675895 -0.9250315 -0.25479743 1.1277958 -0.24600014 2.3021145
3.018293 1.6671636 1.0333263 0.32453555 1.6276541 0.38611868 -0.35526693 2.1991842
-0.3790156 1.2313964 0.803951 -0.4499725 -1.0148965 -1.1280171 0.84514433 -1.279878
0.89292955 -1.7532779 -0.9763366 -1.033022 -1.1868651 -0.57669353 0.78579736 -0.19436593
-1.2005448 -0.77713877 -0.004878787 0.104449004 -0.7202737 1.0688752 0.557624 -1.2512704
0.33721462 -0.27977306 -1.8005596 -0.08738181 0.5949756 -0.17736422 0.20313708 1.9113858
1.3336842 -0.6856549 -0.68540394 2.0649045 0.28149453 0.0002308977 -1.4196546 0.11881407
0.59919405 -0.17023268 1.221416 0.9069158 1.0712911 1.9348165 -0.33525974 -1.356868
0.52216923 0.9344051 -0.5139944 0.10672662 -0.24697796 0.16844346 -1.128899 -0.29818392
1.1314543 -1.2255045 -1.196916 0.025752656 -0.75177455 1.9931672 -0.0071577914 -0.94295734
1.0224792 -2.539121 -0.08062714 1.3120949 -0.40089053 -0.5794766 -0.80312735 -1.1906005
-0.36385158 -0.56133133 -0.45986542 -0.2604312 0.383982 -0.9610043 2.264308 1.0740206
-0.42793587 -1.3053718 -0.6523454 0.3634443 -1.0416385 0.2278658 0.32051137 -0.3453368
-0.3102428 -1.5307584 -0.13372715 0.3494166 -0.5865393 0.23017667 -0.74736065 1.3281231
-0.044289898 -0.975085 0.84224117 1.374385 0.387907 1.800045 -0.24471638 -0.35097834
1.1370581 0.6528477 -0.67489576 1.404658 0.3515997 0.71892744 -0.77666205 -0.29759675
1.3405572 -0.46504155 -0.10608795 -0.43776914 0.2979053 -0.54723835 -0.39702824 -0.7029079
0.24705228 -0.58752215 0.60474795 -1.0482321 1.3593043 -0.6165547 1.3568524 0.46780273
1.3246462 2.238609 -0.08850734 0.52370393 0.3853139 -0.22158717 -0.20529197 1.3487368
-0.56572986 1.0656594 1.7151052 0.37150553 -0.80137444 0.54098314 0.38279423 -0.15666984
0.84821284 0.0886899 0.53488714 -0.2874605 1.2334776 0.66237336 0.39436024 0.5405073
0.73760605 0.55304635 -0.28152695 0.17296317 -0.3652466 0.3101897 0.7229445 1.0391124
0.6802402 0.29226616 -0.8177689 -1.565257 -1.4856348 0.15292542 -0.80548203 -0.6165292
-1.5561109 -2.215116 0.64370126 -1.7140666 -1.6359617 -0.79512084 -1.7823598 0.47316954

conv1.5.kernel f4 [64, 1, 3, 3]
00000000: 1006 b1be 692c 873f 7295 2140 f294 f03f
00000010: 9941 0840 5fdf 053f 9f95 87bf cbe0 a23e
00000020: 75ca 4a3f 587d 26bf 5541 bdbd 6da3 c3be
00000030: 60e6 ce3d 7e46 823e a453 cc3f e768 a5bd
00000040: 8022 c33f 5e55 173e 91c2 b7bf 4dfe c73d
00000050: 5f06 48be 193a e5bf 57b0 0ec0 48f7 44bf
00000060: 0f6d 8fbe cd0f 5ebe 61b1 cc3e 674d 5440
00000070: cd60 223f 69ab 203d 7f33 393f 4a62 3abf
00000080: 4b2d 1abf 4a6a 3e3f 0cda a83f bedf 3fbf
00000090: 2bbc 86bf 93cb 893f 5608 393f 8cf5 243f
000000a0: 2ce5 09bf 73c6 053f b7b5 6a3f 34b8 1740
000000b0: 111a 8a3f 4fe8 51c0 f4cb 0a3e 7f17 92be
000000c0: 38ac 16bf a2c6 853e fe3c 5abf 69ed edbe
000000d0: fff9 45bf 76ec 813f 896b edbe da7f 34be
000000e0: be1f d53d aae2 2b3e 5854 193f 2c0b 08bf
000000f0: af08 9cbe 7173 34be cb48 31bf 582f 65bf
00000100: 9f25 033f 8835 29bf b0ce 003f 6234 5d3f
00000110: e4f7 d63f b6ba 0a3f 952e bd3d 1bfc e53f
00000120: 8785 e33e 27f8 f4be 2842 9c3f be5c 54be
00000130: 3ea5 92be 2faf eb3f ceb6 0a40 130e 4ebf
00000140: 04de d73f ba16 053e b42d 26c0 a6e0 e33d
00000150: 03ff b8bf 9021 3dbf a354 5b3f a7b4 52be
00000160: eb17 f13d dc60 c9be 012f edbc 137a 3fc0
00000170: 9162 64bb bed0 94bf 580d c63f 0794 1dbf
00000180: 7577 183e 9598 a9bf 57a0 febe 203c 1c3f
00000190: a56d f9bf 2fba cbbe ddbe b6bf 3309 dbbf
000001a0: 4411 003d 44df a53e 5189 b1bf e1b3 243e
000001b0: c704 e73f 5d1d 7f3f c92b 983d 98e5 233f
000001c0: d408 833f b089 2cbf 823d 753e f36a 583f
000001d0: 6aa8 c43e a0f8 c33d d7e4 0140 c326 39bf
000001e0: 70c3 b63f fd19 74bd 1b51 b53e ffa1 ffbf
000001f0: 80c9 9e3f 0cd7 44bc 102b 813d f6c5 a63f
00000200: c180 38bf 4c5f 8e3f 4c4d cbbe 2e08 723f
00000210: 471d 813f c8e3 e43e fcd4 b83e bb03 12bf
00000220: c33e 82be 7551 7fbf e23a cdbf 33e0 d6be
00000230: 69a4 89bf 0121 9fbe 3316 0dc0 7e41 6abf
00000240: f5b1 653f 73d4 3cbe ea49 8a3e b3d7 ab3f
00000250: 4f76 9cbf a9be fd3f 239b e43f 1d05 b43f
00000260: 6f56 ca3f 0b43 9fbf 5a40 2fbf d9f9 863c
00000270: 3af7 b3be 1c9b febe e6f3 ef3f 10fa 98be
00000280: f36a d7bd d7f0 9d3e 670e d6bd aaf3 60bf
00000290: b7f9 13be f4b2 56be 582e c2bf d1c3 a4bf
000002a0: 48c3 a1bf bedc a8bf 3659 d53e 1107 82bf
000002b0: 54ea a73f f888 2040 7f3c 4a3f 20ba 0140
000002c0: 5e25 403f 2276 38bf 53f4 5d3d 321e d53e
000002d0: bf2d 5f3f 4adf 883f ac2c 603f a6bc ae3c
000002e0: 5382 a83f 0a82 5e3f 23ae 3b3f 0d09 24bf
000002f0: 1786 9c3f ea82 d1bd f115 7a3f 3db1 d5be
00000300: 5b61 bcbf 0d18 e9be 330a 4c3f f6e8 27bf
00000310: 85de a8be 01f1 2a3f bacf 823f 820e a7be
00000320: 2a78 a4be 44d9 f73e 506a e23e 1292 643f
00000330: 039e d03f a46e c6be c061 083f e785 603e
00000340: ba4a bc3f 26a2 893e 90c2 753e 27ef 833f
00000350: 1bf1 983f 799e adbe 1ea3 423e 3ace 53bc
00000360: b5b1 d8be 4282 a63e 18be 573f 5e5b 6abf
00000370: f839 36c0 9b66 463f e79f 24bf cf75 12be
00000380: 62ac 36bf e9da 21bf 0ced 5c3e b3ee 00bf
00000390: 0d96 f43f 9325 be3f c8f3 873f 9ee0 a73f
000003a0: ac01 87be a4a6 d53d de5d 76bf fd36 fa3e
000003b0: 229c dabe 471f febe 34c3 473f f0b4 46bf
000003c0: b70b 57bf d4cd 6d3e fc27 993f 3284 d93e
000003d0: 3600 5dbf 77d3 873e 3105 bbbe 515f 823f
000003e0: adc3 15c0 07b2 87be f78b 70bf 0683 49be
000003f0: 0e64 6abe b056 87bd 295b 683f 9a8d e23d
-0.34574938 1.0560428 2.5247464 1.8795455 2.1290038 0.5229396 -1.0592536 0.31812128
0.79215175 -0.6503501 -0.09240977 -0.3821062 0.10102534 0.25444406 1.5963025 -0.08076649
1.5244904 0.14778659 -1.4356252 0.09765301 -0.1953368 -1.7908355 -2.229513 -0.7693982
-0.28012893 -0.21685715 0.3997908 3.3172243 0.63428956 0.03922597 0.723442 -0.7280623
-0.6022536 0.74380934 1.3191543 -0.7495078 -1.0526174 1.0765251 0.72278345 0.64437175
-0.53865314 0.52255934 0.91683525 2.3706179 1.0789205 -3.279804 0.13554364 -0.2853355
-0.58856535 0.26128107 -0.85249317 -0.46470192 -0.7733459 1.0150287 -0.46371105 -0.17626897
0.10406445 0.16785684 0.59894323 -0.53142047 -0.30475375 -0.17622162 -0.692517 -0.89525366
0.5122928 -0.6609731 0.5031538 0.86408055 1.67944 0.5419115 0.092374004 1.7967561
0.4443781 -0.47845575 1.2207689 -0.20738503 -0.28641695 1.8412837 2.1674075 -0.80490226
1.6864629 0.12996951 -2.5965395 0.11126833 -1.4452823 -0.7387934 0.8567602 -0.20576726
0.1177214 -0.3933171 -0.028953077 -2.9918258 -0.003484879 -1.1626203 1.5472822 -0.61553997
0.14889319 -1.3249689 -0.49731705 0.61029243 -1.9486586 -0.39790484 -1.4276997 -1.7112182
0.031266466 0.323969 -1.3870031 0.16084243 1.8048333 0.9965418 0.07430226 0.6402221
1.0237069 -0.67397594 0.23949245 0.8453819 0.3840974 0.09568906 2.0295923 -0.7232477
1.4278393 -0.059595097 0.3541344 -1.9971312 1.2405243 -0.012014162 0.06307042 1.3029163
-0.7207146 1.1122832 -0.3970741 0.9454373 1.008706 0.44705033 0.36099994 -0.5703694
-0.25438508 -0.9973367 -1.6033595 -0.41967925 -1.0753299 -0.31079867 -2.20448 -0.91506183
0.89724666 -0.18440418 0.27009517 1.3425201 -1.2223605 1.982381 1.7859844 1.406406
1.5807627 -1.2442335 -0.6845757 0.016476559 -0.35149556 -0.49727714 1.8746307 -0.29878283
-0.10518446 0.3084781 -0.10451966 -0.878718 -0.14450727 -0.20966703 -1.5170393 -1.2872258
-1.263772 -1.3192365 0.41669625 -1.0158406 1.3118386 2.50836 0.7899856 2.0269852
0.7505702 -0.72055256 0.054188084 0.416246 0.8717918 1.0693142 0.87568164 0.021330189
1.3164772 0.86917174 0.73312587 -0.6407631 1.2228421 -0.10230048 0.9768973 -0.41736785
-1.471721 -0.45526162 0.7970306 -0.65589845 -0.3298227 0.6677399 1.0219643 -0.32628256
-0.32122928 0.48407948 0.44221735 0.89285386 1.6298221 -0.38756287 0.53274155 0.2192608
1.4710305 0.26881522 0.24000001 1.0307359 1.194858 -0.33909968 0.19007537 -0.012927586
-0.4232308 0.32521254 0.84274435 -0.91545665 -2.8472881 0.77500314 -0.6430649 -0.14302753
-0.71356785 -0.63224655 0.21574801 -0.50364226 1.9108292 1.4855217 1.0621271 1.3115423
-0.26368463 0.10432175 -0.9623698 0.48870078 -0.42697245 -0.49633238 0.7803223 -0.7761984
-0.8400225 0.23223048 1.1965327 0.4248367 -0.86328447 0.26528522 -0.36527398 1.0185338
-2.340068 -0.26503012 -0.9396357 -0.19678888 -0.2288973 -0.06608331 0.907641 0.110621646

conv1.6.kernel f4 [64, 1, 3, 3]
00000000: dcb7 0c3e ce4e 84bf ae27 963f 98d2 dcbf
00000010: 9b5e 033e 8845 16c0 66a9 a1bc 8fa4 8d3f
00000020: 30e3 93be 9d25 863e d43b d63f b480 623f
00000030: 561b 00bc 3ecc 583f c7ff 9abe 6c8a 523f
00000040: c771 473d e0bb b5be 5741 c03d 0ebd 223f
00000050: 8de4 83bf 6798 373f 35bf 29bf 98ac eabe
00000060: 33a8 7a3f ca8f e03f 5ede f03f 34d6 543f
00000070: a3b0 253f 0d21 493f 40a1 413f 8719 14bf
00000080: d27d b5bf 5563 da3e ea67 1abf 7018 a83f
00000090: d5b7 28c0 173b 45bf 4e4c f0be 297c cb3c
000000a0: c053 3e3f 9e05 8ebf b35c 123f 6c0a 973f
000000b0: 81fb aa3f bd5e 2ebf f90a 1fbf 1a1e f4be
000000c0: 9709 5cbf 9451 2a40 0c2c 0e3f 5da6 19bf
000000d0: a2c6 123f 7229 9d3f fce2 8ebf 62ab 0bbf
000000e0: 639f a8bf f3f1 3cbf 3174 803f 7b05 823f
000000f0: 2ed6 043e f307 3cbf 4646 21bf e801 6ebe
00000100: 0d30 963f ec1e a03e 0419 39bf 889b bdbe
00000110: a09e e2bf de78 05bd 7b85 b2be 77c8 a33e
00000120: 235a b0bf 60e2 ea3e 59f5 37bf 568e 9bbf
00000130: e2bf 9abe 717e 483f 06b3 6b3f db56 04bf
00000140: cb8d b3be 624c 893f dacb 6dbc 8691 b93d
00000150: b306 083e 785d 53be ecf4 5b3f 23e2 f3bd
00000160: 6ba6 35bd a156 883f 29ce 1fbf d454 333f
00000170: c2af 37be a3b2 87bf a19c cf3e 1ae0 483e
00000180: fde4 f7bf 9692 353e 5748 4abf 5cc8 21bf
00000190: 2d59 25bf 7694 92bf c433 833f 2668 dfbd
000001a0: 533a f7bf a8c8 a7bf 8ef6 fdbf b943 1abf
000001b0: 2d52 7fbe fb42 8abe e8c3 133f 2d39 6bbe
000001c0: 0dec 07be 0b9b 81be b041 963f cd7d 16bf
000001d0: a9cf cfbe 183e f53e 3fe8 3abf a6bc 8cbf
000001e0: 297a ff3e 35f2 a23e 1066 40be 1ec4 02bf
000001f0: 9ddd adbe a323 9fbe 4afa 123f 87d0 7b3f
00000200: a21b 84bf c98d 573e c73c 62bf ba2d ca3f
00000210: bde6 d93f 1464 b33f 9279 b93d d414 b93f
00000220: 2631 483f 5335 5dbe b4f1 973f 2cd1 aabf
00000230: 718e 10bf 32b4 a6be c2d5 06bf 4e5b b63f
00000240: 8f03 aa3e 3514 90bf 1968 13be 15f5 2c3f
00000250: 5b7b bebe 76c8 25bf 03f5 a9bf 151d bbbd
00000260: 23b4 b9bf f669 96bf 7e85 be3d 040d 2c3f
00000270: 5c9e 0d3f 7390 49bf 5d6b 12be b1c5 aa3d
00000280: c0f6 d5bf 9fdb 1f3f a32a 20bf f05a 0ebf
00000290: e10c d9be 4b19 153f c72a 60bf 9c97 a63f
000002a0: d394 43c0 0eef 1a3e 85b0 39be 9efb 73be
000002b0: 6af2 a63e d1a2 f9be 47d9 9f3e 808c 4cbf
000002c0: adfa b23f d8b9 a83f 1ff1 babf 4b74 3640
000002d0: d2e1 bbbf 60ff f4be f63f fcbd 632d a03d
000002e0: a6e2 07be 5234 92bf 56f2 913e 8a8d 9a3f
000002f0: 3b65 7b3f bc8b f7bf 3288 963e 56da 583f
00000300: 0664 cfbe d8de 623d ee9d 553f 0ba4 49be
00000310: 8ce3 1abf a4f7 f0bf 313e af3f 68e0 eabd
00000320: 9519 253f 6a70 c93e 188b 953f d640 8a3f
00000330: 8796 5d3e 405f 98be 7c54 243f a28f 22bf
00000340: 96ad c73e 977b 0e3f 0f55 2abf ff2c e4bf
00000350: 6d67 98bf 8368 8bbc b460 aabf 93a5 11bf
00000360: 0a3f 823f 7493 453e 3488 f0be a49e 5ebf
00000370: 63c7 973f 728e b13f cf7c 14c0 572f 95bf
00000380: efae ac3d 5c72 153f f775 63be da1f 483f
00000390: efd5 f53e 86c3 ebbd c9eb f23e 442e fbbe
000003a0: 55cb 0ec0 7ce9 1abf 32e1 70bd a35f 9d3e
000003b0: 6612 423f 0d95 ecbf d173 d63f 6b32 203f
000003c0: 63c6 1a3f 241c 45bf 8457 5cbf e094 de3e
000003d0: 789f 8ebf 9783 e7be d918 8fbf 3a26 f9bf
000003e0: fdd7 963b 8967 b03f f132 87bf c6bc 90be
000003f0: 0e2c 4cbf 1e46 fdbe 94f6 ee3e b350 973e
0.13742012 -1.0336549 1.1730859 -1.7251768 0.12829058 -2.3479939 -0.019734096 1.1065844
-0.28884268 0.26200572 1.6737008 0.88477635 -0.007819017 0.8468665 -0.30273268 0.82242465
0.04869249 -0.354949 0.093874626 0.63569725 -1.0304123 0.7171692 -0.66307384 -0.45834804
0.979129 1.7543881 1.8817861 0.8313935 0.6472265 0.78566056 0.7563667 -0.5785145
-1.4179022 0.4265391 -0.6031481 1.3132458 -2.6362202 -0.7704329 -0.46933216 0.024839478
0.7434654 -1.1095464 0.571727 1.1800056 1.3358003 -0.6811331 -0.6212612 -0.47679216
-0.8595213 2.6612291 0.5553596 -0.60019475 0.5733434 1.2278273 -1.116302 -0.54558384
-1.3173641 -0.73806685 1.0035459 1.0157923 0.12972328 -0.7344963 -0.62997854 -0.23242915
1.1733414 0.31273592 -0.72303796 -0.37032723 -1.7704659 -0.03258597 -0.34867463 0.3198888
-1.3777508 0.45875835 -0.71858746 -1.2152812 -0.3022452 0.78317934 0.92070043 -0.5169503
-0.35069117 1.0726435 -0.014513934 0.090609595 0.13283806 -0.20641124 0.85920596 -0.119083665
-0.04434816 1.0651437 -0.6242395 0.7005131 -0.1793814 -1.0601391 0.40549186 0.19616738
-1.9366757 0.177317 -0.7901663 -0.6319635 -0.64589196 -1.1451557 1.0250173 -0.109085366
-1.9314674 -1.310811 -1.9840868 -0.60259587 -0.24933691 -0.27004227 0.57720804 -0.2297103
-0.1327364 -0.253136 1.1738796 -0.58785707 -0.4058812 0.47898936 -0.7301063 -1.0995071
0.49897888 0.31825414 -0.18788934 -0.510805 -0.3395814 -0.31081876 0.5741316 0.9836506
-1.0320933 0.2105018 -0.8837399 1.5795205 1.7023541 1.4014916 0.09056391 1.4459481
0.78199995 -0.21602373 1.1870637 -1.3345084 -0.5646735 -0.32559353 -0.5266992 1.4246614
0.3320584 -1.1256167 -0.14395179 0.67561466 -0.37203488 -0.64759004 -1.3277897 -0.09136406
-1.4508098 -1.1751087 0.09302805 0.6720736 0.5531976 -0.78736037 -0.14298768 0.08338488
-1.6715927 0.6244449 -0.6256506 -0.5560751 -0.42392638 0.5824172 -0.87565273 1.3015018
-3.0559585 0.15130255 -0.18133743 -0.23826453 0.32606822 -0.48757032 0.31220457 -0.79901886
1.398275 1.3181715 -1.4604834 2.850848 -1.467829 -0.47851086 -0.12316887 0.07821157
-0.13270053 -1.1422217 0.285052 1.2074444 0.9820134 -1.9339519 0.29400784 0.84708154
-0.40506 0.0553883 0.83444107 -0.19691484 -0.6050346 -1.8825574 1.3690854 -0.11468583
0.6449216 0.39343578 1.1683073 1.0801036 0.21639453 -0.2976017 0.6419141 -0.63500416
0.38999623 0.55657333 -0.6653604 -1.7826232 -1.1906563 -0.017017609 -1.3310761 -0.5689327
1.0175488 0.1929453 -0.46978915 -0.86960816 1.1857723 1.3871596 -2.3201177 -1.1655072
0.084318034 0.58377624 -0.22212969 0.781736 0.4801478 -0.115119025 0.47445515 -0.49058735
-2.2311604 -0.6051252 -0.058808513 0.30737028 0.75809324 -1.8482987 1.6754094 0.6257693
0.60458964 -0.76996064 -0.8607104 0.43472958 -1.1142416 -0.45217583 -1.1179458 -1.9464791
0.0046033845 1.3781596 -1.0562421 -0.28269023 -0.7975472 -0.49467558 0.466725 0.29553756

conv1.7.kernel f4 [64, 1, 3, 3]
00000000: 2d23 fc3f 0ee9 403f 20d6 c33f b8a2 b9be
00000010: c985 ddbd db46 053f 985a 94bd 8328 8c3f
00000020: 8171 16c0 902c 073c c095 3e3e ab19 993d
00000030: a532 98bc f5eb 17bf 0d1e abbf 80bc df3f
00000040: d5ac adbf 074d a8bf 0c79 b33f a91f c3bf
00000050: d995 de3c bbe3 c4bf 8c6a 073f 794b 5e3f
00000060: 1c21 6a3c f2b6 08bf 9b9a 603f 2cee 273f
00000070: e22d 1b3f ec99 59bf b910 993e 3f46 87be
00000080: 07bb 3e3f 8295 653f acdc edbf 6880 9e3e
00000090: 1f62 6dbc e865 ffbc 7b76 16be 44b3 193f
000000a0: 8991 0c3f b9bf 96bf 612c 683e 27dc 1e3e
000000b0: 49a1 2e3f 6a16 c2be c3d3 eebe edce b03f
000000c0: e6ef a33f 0e7d 523e 68c1 86be de42 0bbf
000000d0: 5265 4e3f 249a afbf f159 bcbf 421d 053e
000000e0: 1064 0b40 8b59 fe3e 43b4 3bbf 92e8 d0be
000000f0: cf86 19bd ce90 2d3f f5be 213e 0fec 1fbe
00000100: 5a72 bb3e f603 75bf a2db 693f b0fe dc3d
00000110: b644 803f b202 473f e88b 02c0 414e 97bf
00000120: 7eef 8bbf 93d8 933e e28e 0dbf 2284 433d
00000130: 2283 9d3f 5013 d73b 77f4 8a3e ef98 c83b
00000140: 0214 1fbe f5bc 3cbf d1d2 8d3f ee80 8bbe
00000150: ec73 013f 3d7c 973f bf7b 21c0 f9a7 a13f
00000160: d398 c8be 7ce2 063f bf20 a2be 99e3 d4bf
00000170: 96cc b93c 36c3 f63e 05a6 ddbf e8f2 bebf
00000180: ffa9 6cbc 3dfd fabe bf1b 56bf 060a 943d
00000190: c003 9f3f 6a23 b0bd b308 cfbf 8ba3 973f
000001a0: 9361 1bbe 65e5 b33f e05f b2bf 050c 89bf
000001b0: d744 95be 5157 6dbf 0853 613f ad31 503f
000001c0: 2f32 f8bd 4c27 243f 8dc2 cebf 9462 40bf
000001d0: 31e8 cd3e 05cd dd3e 502f 84bf 6704 273f
000001e0: a808 803f f969 c7bf 1fa1 10be c0fa 74bf
000001f0: 5227 fcba 89cb ac3f 959b d63f 2b35 3040
00000200: 9f70 74bf 0ff8 7b3f a4ff 84bf e24d 1b40
00000210: ef3a 713d ee1d 1c3d 8fd4 df3f ac8b 813c
00000220: 2240 673f 2772 743e 9fd8 ea3f b25c 553f
00000230: 4906 d13e aeb6 db3d d166 953f b3ff bfbd
00000240: f23a b63f 7173 78bc 6068 733f f8f6 7f3f
00000250: 69e8 8c3f c0ee f33f fb61 d1bf c6e8 f43f
00000260: f117 2a3f 5cef 853f a001 a43f 23d3 a13f
00000270: e7b6 183f 9360 e03f ad9b 3a3f cc78 c03f
00000280: 5d4b 963f 200a 513f f5f3 713f 8d48 31bf
00000290: 7a2b 37bd 4c39 a63f 8b18 fa3d c47c 9f3f
000002a0: b9e2 893f 81f7 273f b36e c7be dee5 6dbf
000002b0: 275f 893f 3c6d b73f 8888 15be 5289 90bd
000002c0: af9e bb3c 095d 413f 1922 703f 80f9 a2be
000002d0: ec76 ab3e da04 913f 71e5 1ac0 c9f4 bb3f
000002e0: 7d3e 263d e43f 813f 8d0a 1d3f 2c6c 653f
000002f0: 36a5 88bf 0667 1bbf 384c c23f 11cb 2ebf
00000300: b683 2e3f 9085 e63d 2368 76bf b077 98be
00000310: b4d6 1bbf e380 d4be 114d bdbf 39ae 43bf
00000320: 9a32 9fbf 0235 0c3f 9ff1 153e 40c9 ae3f
00000330: 3f38 cd3e c071 3c3e 4d75 2740 621a 093f
00000340: 425b 013f a448 143f 4189 773f 5875 043f
00000350: ef50 343f 746c 3bbf ca78 703f 1a06 5bbf
00000360: f987 7c3e 4c95 72bf 4586 893f bf7b d03e
00000370: f7d3 793f 7e9a 85bf 59a8 1fbf 4470 e4bd
00000380: ee78 28bf 0c9d 3ebe aca1 aebf fba1 473f
00000390: a866 7c3f 22fb 463f 8016 cd3f 811c e13e
000003a0: 91f5 e03f 2aca b53e 8d0c b5bf 418c da3f
000003b0: 1495 cdbf ac69 253f 9c93 ae3e fc76 da3f
000003c0: 5f88 bd3e 418c 763f 7b3e 453f 8380 493d
000003d0: d35c d1bf 19aa abbf d1ec 22bf 7574 ff3e
000003e0: 0043 973f dc41 273f 82cd cc3d 17de 2c40
000003f0: 0637 ef3e be0b 53bf 3934 a9bf 10b3 18bd
1.9698235 0.75355613 1.5299721 -0.36256957 -0.10816533 0.5206124 -0.07243842 1.0949863
-2.3506777 0.008250371 0.18611813 0.07475599 -0.018578837 -0.59344417 -1.3368546 1.7479401
-1.3568369 -1.3148507 1.4021316 -1.5244037 0.027171062 -1.5381998 0.5289695 0.8683391
0.01429012 -0.5340415 0.8773591 0.65597796 0.60616887 -0.8500049 0.2989557 -0.2642078
0.7450413 0.89681256 -1.8582969 0.3095734 -0.014488726 -0.031176522 -0.14693634 0.6003916
0.5490957 -1.1777259 0.22673179 0.15513669 0.6821485 -0.37907726 -0.46645936 1.3813149
1.2807586 0.20555517 -0.26319432 -0.54398906 0.8062335 -1.3718915 -1.4714948 0.12999442
2.1779823 0.4967769 -0.7332193 -0.40802437 -0.03748208 0.6779908 0.157955 -0.15617393
0.3661068 -0.9570917 0.9135076 0.10790765 1.0020969 0.7773849 -2.0397892 -1.1820756
-1.0932462 0.2887617 -0.55296147 0.047733434 1.2305644 0.0065635815 0.27139637 0.0061217467
-0.15534976 -0.73725826 1.1079961 -0.27246803 0.5056751 1.183479 -2.5231779 1.2629386
-0.39179096 0.5268934 -0.31665608 -1.6631957 0.022680562 0.4819581 -1.731629 -1.4917879
-0.014444827 -0.4902133 -0.8363609 0.07228474 1.242302 -0.08600505 -1.617453 1.1846784
-0.1517394 1.4054381 -1.3935509 -1.0706793 -0.29154083 -0.9271136 0.8801732 0.813258
-0.12118947 0.6412246 -1.6153122 -0.7515042 0.4021621 0.4332048 -1.0326939 0.6524109
1.0002642 -1.5579215 -0.14123963 -0.95695114 -0.0019237793 1.3499614 1.676623 2.753245
-0.95484346 0.9842538 -1.0390515 2.4266286 0.058894094 0.03811448 1.7486743 0.015813671
0.90332234 0.2387167 1.8347358 0.83344567 0.40825108 0.10728203 1.1672002 -0.09374943
1.4236739 -0.015164242 0.9508114 0.9998622 1.1008426 1.9057236 -1.6358026 1.9133537
0.6644278 1.0463672 1.2812996 1.2642559 0.59654087 1.7529472 0.7289379 1.5036864
1.1741749 0.81656075 0.94512874 -0.6925133 -0.044719197 1.2986236 0.122117124 1.245995
1.0772315 0.65612036 -0.38951644 -0.92928874 1.0732163 1.4330211 -0.14602864 -0.07057442
0.022902815 0.75532585 0.9380203 -0.31830978 0.33489168 1.1329606 -2.420254 1.4684078
0.040586937 1.0097623 0.61344224 0.8961818 -1.0675418 -0.60704076 1.517951 -0.68278605
0.68169725 0.11255944 -0.9625265 -0.29778814 -0.60874486 -0.41504583 -1.4789144 -0.7643772
-1.2437317 0.54768384 0.14642952 1.3655167 0.40081975 0.18402767 2.6165345 0.5355588
0.50529873 0.5792334 0.9669381 0.5174155 0.70435995 -0.7321236 0.9393431 -0.85556185
0.24661244 -0.9475906 1.0744101 0.4071941 0.9758906 -1.0437772 -0.62366253 -0.111542255
-0.65809524 -0.18614596 -1.3643088 0.7798154 0.9859414 0.7772695 1.6022491 0.4396706
1.7574941 0.355058 -1.4144455 1.7074052 -1.606112 0.6461437 0.34096992 1.7067561
0.37018105 0.9630776 0.7704846 0.049194824 -1.6356453 -1.3411285 -0.63642603 0.49893537
1.1817322 0.6533487 0.10000135 2.7010553 0.46721667 -0.8243979 -1.3219062 -0.037280142
