Train_result/Mon_Jun_16_01_00_06_2025_Encoder_Detail_Train.model (torch, 55036 bytes, 10 tensors)

conv2.0.kernel f4 [64, 1, 3, 3]
0.24468292 -1.3524209 -0.07275444 -0.29001892 -0.6583164 0.3907325 -1.8095498 0.42895386
0.33684844 -0.39045253 -0.31256744 0.1896298 -1.0256337 0.08374951 0.5386683 -1.923489
-0.8175932 -0.10405813 -0.8687648 1.381488 1.1773018 0.62602067 1.5468229 -0.5995312
0.7039287 -0.41007012 -1.7242051 0.6626584 -0.6303707 -0.5553831 -0.5261441 0.15180044
0.6550683 1.0012311 0.11101744 -0.32766256 -1.23137 0.46513808 0.012961166 -0.05216464
0.24119678 -0.3753404 0.12412957 -1.5137806 0.5120494 -0.2679676 0.36289656 0.6449928
1.3490134 -2.8392472 0.4824673 -0.73953754 -1.281021 0.053128302 2.5538843 1.8105226
0.40151334 0.30872583 0.008536747 -1.5242103 1.6778522 0.13133901 -0.53699386 -0.7029787
0.4889003 -0.94442075 -1.1098468 -0.7003801 0.44940785 -0.1657776 -0.32807118 0.47410175
-0.791219 -0.8821027 1.1278489 -1.3979412 1.7698947 1.7227151 -0.3925321 -0.26406458
0.3978611 -1.2366307 -0.6266228 -1.7090172 0.47840962 -0.9646928 -0.121005945 -1.1461294
1.6553751 -0.6689862 -0.5201803 -0.37948743 -0.48765057 0.20098701 0.58876973 -0.6082989
0.5410779 1.7709637 1.3972152 -1.163972 -0.5167562 0.4986453 -0.25497088 0.16371019
-1.6826824 -1.4904534 -0.000846821 1.7101241 -0.17047068 1.2685134 -1.3282194 -0.99579245
-2.555693 0.23093267 -0.42781547 0.049186178 1.0329857 0.73045814 0.8614866 1.0922465
-1.0058378 -0.2343489 -1.1146247 -1.354491 -0.35185462 0.07606881 -0.8742484 0.17622022
1.5416894 0.69615245 1.2914375 -0.9499829 -0.5554124 1.1537039 -1.0112708 0.21197245
-2.3043907 -1.8370256 -0.09432132 0.87468225 1.1718851 -0.66589856 0.06845176 -0.21005262
0.5738336 1.1471032 1.5042341 0.9850739 0.9421498 1.1102393 0.030985858 0.257012
1.3446145 -0.025496688 0.90184414 1.2654825 1.7423469 -1.607582 -1.2726614 -0.13457145
0.1334247 0.4900088 -0.745903 -0.634764 1.3502375 0.69758356 0.8923984 0.18474248
1.1910653 0.9464916 1.1342884 0.12281289 0.15349576 0.595381 1.0863458 -1.9908509
-2.1879776 -2.0289347 -2.3240917 -0.7433375 -0.013554856 0.031846236 -0.62047374 0.15860818
0.01521384 -0.011724795 -1.1283714 0.75209147 -0.20223038 -0.37081093 0.9358933 0.023327988
-0.008803293 -0.53941095 0.043135658 -0.49585873 -2.3017225 0.61263484 0.5612776 -1.3549037
-0.6112282 -0.5567362 0.7318355 -0.569129 0.07872623 1.0756993 0.23290168 0.6484953
-0.16072698 0.18530674 1.2120327 -0.53988016 0.21021968 -0.74971044 -0.6706876 -0.67366374
0.4044968 0.6538357 -0.45916474 -0.452503 0.2677925 -0.16003472 -0.7419382 0.12257153
-0.3397766 -0.5008065 -1.0410093 -1.6864771 -0.72303754 0.4359317 1.3555955 1.1811281
-1.1232077 -1.5238196 0.28381225 0.18003386 -0.803109 -0.82046884 0.33343503 1.2480724
-0.02554906 -2.3306463 -1.755178 -0.3981419 0.53147656 1.299893 -0.007824871 -0.83192647
-0.10306276 0.13055538 0.43601993 0.7445615 0.47517124 2.5121708 1.2447107 0.25816768
00000000: 298e 7a3e 211c adbf 4800 95bd 5c7d 94be
00000010: 6c87 28bf 170e c83e 549f e7bf d79f db3e
00000020: 6677 ac3e 65e9 c7be d708 a0be 502e 423e
00000030: f747 83bf dd84 ab3d 2ae6 093f e334 f6bf
00000040: ca4d 51bf 6e1c d5bd 5f67 5ebf 99d4 b03f
00000050: d3b1 963f e442 203f 4bfe c53f e07a 19bf
00000060: ac34 343f b6f4 d1be c1b2 dcbf fba3 293f
00000070: f95f 21bf 962d 0ebf 61b1 06bf 9371 1b3e
00000080: 8eb2 273f 5728 803f 1d5d e33d 63c3 a7be
00000090: 889d 9dbf 9426 ee3e 125b 543c 97aa 55bd
000000a0: 4afc 763e 9e2c c0be a537 fe3d 90c3 c1bf
000000b0: ab15 033f 0d33 89be 94cd b93e 401e 253f
000000c0: 79ac ac3f 3ab6 35c0 f405 f73e 5552 3dbf
000000d0: 7ff8 a3bf 109d 593d d772 2340 34bf e73f
000000e0: 2893 cd3e 5011 9e3e b6dd 0b3c 5319 c3bf
000000f0: dcc3 d63f bc7d 063e 6e78 09bf 69f6 33bf
00000100: 2451 fa3e 8fc5 71bf 760f 8ebf 1c4c 33bf
00000110: c918 e63e 9ac1 29be f2f8 a7be 77bd f23e
00000120: 548d 4abf 7cd1 61bf 5a5d 903f bdef b2bf
00000130: e98b e23f ee81 dc3f f8f9 c8be 7933 87be
00000140: 73b4 cb3e ea49 9ebf 5a6a 20bf 13c1 dabf
00000150: 1bf2 f43e 1bf6 76bf f7d1 f7bd 5eb4 92bf
00000160: 55e3 d33f ae42 2bbf 892a 05bf 2d4c c2be
00000170: 56ad f9be 8acf 4d3e 9db9 163f 7ab9 1bbf
00000180: 1584 0a3f f0ae e23f f3d7 b23f 09fd 94bf
00000190: 224a 04bf 704e ff3e 8b8b 82be a5a3 273e
000001a0: 2362 d7bf 2dc7 bebf 32fd 5dba 59e5 da3f
000001b0: de8f 2ebe a65e a23f 1803 aabf 41ec 7ebf
000001c0: 7990 23c0 9d79 6c3e a10a dbbe 7277 493d
000001d0: e038 843f 4eff 3a3f 638a 5c3f bcce 8b3f
000001e0: 4bbf 80bf 28f9 6fbe 06ac 8ebf f65f adbf
000001f0: 4a26 b4be f7c9 9b3d bece 5fbf 1373 343e
00000200: 1456 c53f 0c37 323f d34d a53f 1432 73bf
00000210: 822f 0ebf 92ac 933f 5271 81bf 4e0f 593e
00000220: 237b 13c0 a823 ebbf 892b c1bd 2deb 5f3f
00000230: 5500 963f 5478 2abf 7030 8c3d 0918 57be
00000240: c2e6 123f 47d4 923f be8a c03f ce2d 7c3f
00000250: bb30 713f 521c 8e3f 0ed6 fd3c 1497 833e
00000260: 541c ac3f 6ede d0bc 42df 663f 55fb a13f
00000270: 3905 df3f 3fc5 cdbf 92e6 a2bf 19cd 09be
00000280: 7ca0 083e 6fe2 fa3e 80f3 3ebf e57f 22bf
00000290: 95d4 ac3f d694 323f 3974 643f 222d 3d3e
000002a0: d474 983f 464d 723f 5d30 913f 5385 fb3d
000002b0: fe2d 1d3e e46a 183f 610d 8b3f 34d4 febf
000002c0: d307 0cc0 11da 01c0 ebbd 14c0 5e4b 3ebf
000002d0: 3015 5ebc 3371 023d 5ed7 1ebf 2f6a 223e
000002e0: 7843 793c 5b19 40bc 796e 90bf 1189 403f
000002f0: 7b15 4fbe eeda bdbe b496 6f3f 561a bf3c
00000300: b03b 10bc d616 0abf 04af 303d 32e1 fdbe
00000310: 6c4f 13c0 a3d5 1c3f e4af 0f3f 7c6d adbf
00000320: 7479 1cbf 4386 0ebf 9259 3b3f 70b2 11bf
00000330: 383b a13d 84b0 893f c77d 6e3e ca03 263f
00000340: 9d95 24be 0dc1 3d3e e323 9b3f 9635 0abf
00000350: d443 573e 06ed 3fbf 2fb2 2bbf 3a75 2cbf
00000360: 341a cf3e c761 273f a417 ebbe 79ae e7be
00000370: 191c 893e 24e0 23be a9ef 3dbf c806 fb3d
00000380: 33f7 adbe db34 00bf cb3f 85bf 7bde d7bf
00000390: fd18 39bf 7132 df3e 2784 ad3f 352f 973f
000003a0: 45c5 8fbf 850c c3bf d74f 913e cc5a 383e
000003b0: 8d98 4dbf 3f0a 52bf ffb7 aa3e d6c0 9f3f
000003c0: 434c d1bc 4f29 15c0 aca9 e0bf 41d9 cbbe
000003d0: d90e 083f e562 a63f e333 00bc 22f9 54bf
000003e0: 9112 d3bd 4fb0 053e 013e df3e 959b 3e3f
000003f0: a549 f33e 68c7 2040 ae52 9f3f 8e2e 843e

conv2.1.kernel f4 [64, 1, 3, 3]
0.063046016 -1.0416768 0.8957796 0.46572882 0.98232985 0.14812258 0.054160926 0.5142589
0.45294598 -0.9046178 1.4420952 -0.19040248 -2.3068962 -0.05659564 0.17078611 1.3107396
-0.0920484 -2.3075652 1.2843151 0.4678023 -0.7823825 -0.9235655 0.055831645 -0.035755247
1.320967 1.6192858 1.6538213 1.9468751 -0.12238474 0.5844913 3.353914 -0.8626871
0.16088767 -1.1611104 3.186671 -1.6881967 -0.21458223 -1.6460149 -0.94999176 -2.9320302
-0.9450213 -0.6236471 -1.3629035 -2.0312335 -0.017726148 -0.8799576 0.1406342 0.6210097
-1.2520837 -1.4926627 -0.041141268 -0.5402604 -1.0279437 -0.48992786 -0.060649443 -1.0805935
-0.088905275 -0.70088154 0.63222665 -1.001095 -0.4448223 0.14533107 2.1256974 -0.24795958
-0.23231234 -0.8046511 -0.1798303 -1.9899215 -0.4870418 -1.3291467 0.18915139 0.33840072
0.012312905 -0.5614646 1.1474138 -1.081427 -0.31320786 0.827655 -1.1457313 -0.24180785
1.1288743 0.92712504 -0.19623199 1.0346897 1.2092452 -1.3478596 0.4571777 -0.39549485
-0.80465615 0.8041648 0.65679127 0.6461088 0.2015187 1.6343818 0.49835595 -0.7432046
0.30367896 0.773717 -0.29990533 -0.23088023 -0.30410776 -0.07134143 -0.8234522 -0.1901997
1.7968408 0.13306797 1.219947 -0.5282239 -1.1515628 -0.009150302 -0.11562605 -2.338043
-0.77306175 0.70216745 -0.17483617 -2.1397989 1.0150056 -0.969122 -0.8187113 1.963293
0.7300971 1.5124202 1.2841814 1.1957268 -0.88507026 0.06536951 1.1183057 -0.17887431
-0.99919516 0.8780842 0.56889045 -0.43203545 0.05115737 1.6882551 0.69423187 -0.7382202
1.6316882 0.7823211 -0.4521385 0.66356814 -1.206091 -1.3701656 -1.2008739 0.65674955
-0.33698 -1.0143796 -0.27153933 0.30077827 0.63212013 0.2658098 -0.51801664 -0.33273083
-0.3748056 1.3008834 -0.062184926 0.63568866 -0.5487779 -0.32668996 1.5528386 -0.41095448
-0.7879285 -1.8381103 0.8568034 -1.2866174 -0.2944772 1.3038394 0.47714362 2.2287343
0.15213777 -0.16087686 0.021319183 0.5592805 0.47919092 -2.0362685 -1.9834949 -0.6526047
-0.37559715 0.2161535 -0.64186424 0.33905554 1.5401021 0.6967803 0.66358125 -0.3643945
0.019044008 1.5367078 -0.17744067 -0.461982 -0.46757838 -1.3060635 0.5738541 -1.8037945
-1.0913901 0.40374163 -1.1465976 0.78073335 -0.9132507 -0.86327726 0.22955254 1.8127655
0.17371805 -0.5109672 -0.53532773 -0.76234305 -0.47744805 -1.0738602 -0.2948711 -0.9977147
-0.71377486 -1.2001903 -0.59786403 -1.5571978 -0.7415933 -0.33370653 0.261875 0.26138735
-1.6026564 0.33925247 0.60717463 0.76943445 -0.3531023 -1.5353613 0.054235257 -0.7000723
-0.2120807 1.1864011 -0.45236817 -0.55279446 -1.0253987 0.32182887 -1.2018135 0.6560901
-1.4762013 -0.61391485 -0.7434692 -0.2614418 0.9533571 0.78525025 -0.1952017 1.1756427
0.88960487 0.060221516 0.51831955 -1.4737587 0.5693698 -0.54556626 0.7596843 0.5568742
0.36173442 -0.037596367 -0.24581452 -1.7168523 -0.14708568 -0.6954073 -0.3452179 -1.0190042
00000000: 451e 813d aa55 85bf d051 653f 0274 ee3e
00000010: f879 7b3f 72ad 173e d9d7 5d3d 79a6 033f
00000020: 89e8 e73e 0895 67bf 9396 b83f def8 42be
00000030: 30a4 13c0 d4d0 67bd 8ee2 2e3e 51c6 a73f
00000040: df83 bcbd 26af 13c0 7064 a43f c883 ef3e
00000050: 384a 48bf ca6e 6cbf b9af 643d 1874 12bd
00000060: 7215 a93f c244 cf3f 6bb0 d33f 3433 f93f
00000070: daa4 fabd 39a1 153f 87a6 5640 10d9 5cbf
00000080: bdbf 243e 449f 94bf 6bf2 4b40 d416 d8bf
00000090: 72bb 5bbe 9eb0 d2bf a932 73bf 62a6 3bc0
000000a0: eaec 71bf 56a7 1fbf 9f73 aebf bbff 01c0
000000b0: 6d36 91bc e744 61bf 6902 103e 7efa 1e3f
000000c0: 4744 a0bf 920f bfbf bf83 28bd 814e 0abf
000000d0: a993 83bf d3d7 fabe 8d6b 78bd e350 8abf
000000e0: f813 b6bd f96c 33bf 9bd9 213f e223 80bf
000000f0: c0bf e3be abd1 143e 6d0b 0840 1ee9 7dbe
00000100: 49e3 6dbe 9dfd 4dbf 6f25 38be bfb5 febf
00000110: 8b5d f9be 7b21 aabf e7b0 413e dc42 ad3e
00000120: 11bc 493c 25bc 0fbf 75de 923f 336c 8abf
00000130: c85c a0be 33e1 533f 53a7 92bf 7a9c 77be
00000140: f47e 903f 1158 6d3f 0af1 48be b670 843f
00000150: 8cc8 9a3f aa86 acbf 3213 ea3e 4d7e cabe
00000160: f2fd 4dbf bfdd 4d3f 7923 283f 6367 253f
00000170: eb5a 4e3e 6c33 d13f 8328 ff3e a842 3ebf
00000180: cf7b 9b3e 5112 463f 318d 99be de6b 6cbe
00000190: 03b4 9bbe 751b 92bd c3cd 52bf b6c3 42be
000001a0: e1fe e53f f842 083e 3927 9c3f ae39 07bf
000001b0: 6966 93bf 26eb 15bc 5acd ecbd 7fa2 15c0
000001c0: 60e7 45bf 3fc1 333f 4108 33be 77f2 08c0
000001d0: b4eb 813f 6118 78bf 1097 51bf 2f4d fb3f
000001e0: a5e7 3a3f fc96 c13f 0e60 a43f 930d 993f
000001f0: f793 62bf 73e0 853d a424 8f3f d42a 37be
00000200: 41cb 7fbf 20ca 603f cea2 113f c033 ddbe
00000210: 648a 513d be18 d83f 2eb9 313f 00fc 3cbf
00000220: 29db d03f 3246 483f b37e e7be 9adf 293f
00000230: 3161 9abf 9661 afbf 3cb6 99bf bd20 283f
00000240: a488 acbe 31d7 81bf 3407 8bbe 9cff 993e
00000250: a0d2 213f 3918 883e bd9c 04bf b25b aabe
00000260: 85e6 bfbe 5983 a63f 9fb5 7ebd 7ebc 223f
00000270: b57c 0cbf e843 a7be 6ac3 c63f a068 d2be
00000280: afb5 49bf 3347 ebbf 7857 5b3f e1af a4bf
00000290: b7c5 96be 36e4 a63f 2b4c f43e 95a3 0e40
000002a0: 01ca 1b3e e7bc 24be 91a5 ae3c 022d 0f3f
000002b0: 8358 f53e 3952 02c0 29e3 fdbf 1a11 27bf
000002c0: 454e c0be 5857 5d3e 3751 24bf b098 ad3e
000002d0: 1122 c53f 3260 323f 76e0 293f ea91 babe
000002e0: 2e02 9c3c d7b2 c43f 02b3 35be e888 ecbe
000002f0: 6f66 efbe 172d a7bf 1ae8 123f bde2 e6bf
00000300: acb2 8bbf 39b7 ce3e b6c3 92bf 24de 473f
00000310: ccca 69bf bdff 5cbf d20f 6b3e b308 e83f
00000320: 25e3 313e bfce 02bf 3d0b 09bf ea28 43bf
00000330: 1274 f4be 4074 89bf 58f9 96be 3b6a 7fbf
00000340: f3b9 36bf d69f 99bf 9e0d 19bf 4252 c7bf
00000350: 0fd9 3dbf 95db aabe 7b14 863e 90d4 853e
00000360: d823 cdbf 80b2 ad3e cc6f 1b3f a8f9 443f
00000370: d3c9 b4be b886 c4bf ca25 5e3d f037 33bf
00000380: af2b 59be fedb 973f cd9c e7be f083 0dbf
00000390: 4440 83bf c1c6 a43e 06d5 99bf 85f5 273f
000003a0: 2af4 bcbf 8629 1dbf ff53 3ebf b3db 85be
000003b0: 360f 743f 2906 493f f4e2 47be 767b 963f
000003c0: 25bd 633f d6aa 763d 97b0 043f 20a4 bcbf
000003d0: 38c2 113f 3baa 0bbf ac7a 423f 4f8f 0e3f
000003e0: 4135 b93e a6fe 19bd cdb6 7bbe d1c1 dbbf
000003f0: a19d 16be 3606 32bf 67c0 b0be bb6e 82bf

conv2.2.kernel f4 [64, 1, 3, 3]
-0.7962878 0.60528356 -0.68996817 1.3678349 -0.34534043 1.9153022 0.1726845 -0.7780519
0.74795187 0.22720699 -0.098246 1.0549319 -0.07627777 0.4721251 -0.6147103 0.7405248
1.0983043 -0.14480898 -0.4900815 0.11541852 0.33739713 -0.45914492 -0.3972951 0.93469495
0.0004125767 -1.0741022 -0.11546721 1.3795362 -0.6084032 0.5818354 0.86349 -1.0125213
0.61283 -0.1863019 -0.86525774 -0.32842684 1.3336996 2.415396 0.4860176 0.3870448
-0.22950962 1.0532595 -1.7430868 1.1632332 -0.8999785 0.52950853 -2.1667302 1.2348701
-1.1761904 0.5905775 1.5435886 0.33544123 -0.0018404913 1.0751216 -0.67039305 -0.92037827
1.268609 -0.18189338 -0.53280306 0.41709623 -0.19507913 -0.5525087 0.58745974 -1.213806
0.74979323 0.6087267 1.3770165 0.11946906 0.18113962 2.0847085 0.47370136 0.18164685
0.52139604 0.9815637 0.64739126 0.26179478 0.49338913 0.7089845 -1.0507752 0.9647885
0.8264115 0.24166971 0.21429141 0.8050023 1.1174322 -1.1884567 -1.2771566 -0.256536
-0.45482618 0.60980415 -2.1398208 0.44706294 1.3728172 -0.53332335 -1.0126039 0.16921096
0.9147227 -0.8069473 1.2061492 1.5072064 0.49545816 -1.4291673 -0.9176473 0.29388687
-0.43895268 1.1817182 -0.02694763 2.25825 -0.011444189 -0.28867763 -0.42709294 0.59726405
0.35127762 -2.287731 -2.0466926 0.24621813 -0.6765184 1.0839412 1.2893995 0.92967325
-1.0180855 1.1852378 -0.6050252 0.48383784 -0.50729513 -0.028923526 0.030849505 -0.15053315
1.4823198 0.6402136 0.45857042 -0.33496585 -0.1049741 0.79339933 2.1529171 1.5983852
0.22768089 -1.0343612 -0.7379105 -0.21715622 -0.49884373 1.4028999 1.6517787 0.67066985
2.2032635 1.427091 -0.02820816 -2.8735554 0.41211084 -3.0202649 -0.25555918 0.739105
0.82347006 0.42243016 1.5444267 -0.76859736 0.72021073 -0.09463579 1.3786892 0.0030173182
0.028727902 2.486346 -0.6471972 -0.6554786 -0.52766895 0.24169096 0.088919446 1.7499629
0.7812087 -0.5356285 0.69524443 -1.5796989 1.0988163 -0.074323334 1.9052172 0.8754503
0.6686259 -1.1052326 -0.45075482 -0.14520769 -0.7395459 0.4557981 1.2496195 0.5968124
1.6812572 1.7781796 -0.8591867 -1.2033072 1.7008603 -1.1598929 -0.013286083 0.43995222
-1.30095 0.22537698 -0.15360294 -0.68657404 -0.85515594 -1.6395843 0.820959 -0.5035033
2.3462882 0.17485307 -0.1729607 -0.7118883 1.6323353 0.05274163 -0.06426133 -0.02368992
-0.6295279 -0.69463485 -0.0010811228 -0.14261197 -1.1454958 -0.3919528 0.10530567 -0.6016292
-2.0180697 -0.7710393 -0.4241603 -0.8206722 0.26764035 0.43983877 0.71428555 -2.0645344
-1.5574216 -1.4749672 -0.83235955 -1.7418981 -1.1130278 0.16826291 -0.05220222 -1.3093394
0.73291427 -0.889144 -1.2838831 0.14554176 0.1614334 -1.5707399 0.27683735 0.3887743
-0.22663447 -1.5851007 -1.3540161 0.17539991 1.4587189 -0.024810059 0.21190053 1.0908589
0.093554676 -0.32758462 -0.63635415 -0.5575562 -0.21173617 -0.9723625 -0.25484917 -0.9403974
00000000: 84d9 4bbf ddf3 1a3f c1a1 30bf 3715 af3f
00000010: 76d0 b0be 9f28 f53f 35d4 303e 692e 47bf
00000020: c679 3f3f f3a8 683e 3335 c9bd 0208 873f
00000030: 8537 9cbd 62ba f13e a75d 1dbf 0993 3d3f
00000040: 3c95 8c3f ce48 14be f6eb fabe 8c60 ec3d
00000050: 51bf ac3e 0b15 ebbe 436a cbbe 2b48 6f3f
00000060: 1b4f d839 2e7c 89bf 137a ecbd a494 b03f
00000070: 50c0 1bbf 2af3 143f ae0d 5d3f 4c9a 81bf
00000080: 6de2 1c3f edc5 3ebe 8881 5dbf 9027 a8be
00000090: abb6 aa3f d995 1a40 4dd7 f83e bc2a c63e
000000a0: 9204 6bbe 35d1 863f 781d dfbf d3e4 943f
000000b0: fe64 66bf df8d 073f b5ab 0ac0 3910 9e3f
000000c0: 688d 96bf 1630 173f 5094 c53f f4be ab3e
000000d0: a43c f1ba 969d 893f e19e 2bbf e99d 6bbf
000000e0: c861 a23f 4242 3abe c865 08bf a38d d53e
000000f0: d3c2 47be 3671 0dbf c363 163f ff5d 9bbf
00000100: 73f2 3f3f 83d5 1b3f 1442 b03f 32ac f43d
00000110: aa7c 393e dd6b 0540 fc88 f23e a201 3a3e
00000120: 367a 053f c247 7b3f 6fbb 253f f709 863e
00000130: 809d fc3e 0280 353f cd7f 86bf 61fc 763f
00000140: b48f 533f 4478 773e 356f 5b3e a114 4e3f
00000150: 0508 8f3f 591f 98bf de79 a3bf b058 83be
00000160: fade e8be 201c 1c3f d3f2 08c0 6fe5 e43e
00000170: 79b8 af3f e187 08bf 019d 81bf a345 2d3e
00000180: 442b 6a3f 1994 4ebf 1963 9a3f 24ec c03f
00000190: b1ac fd3e f4ee b6bf efea 6abf 5778 963e
000001a0: 68be e0be 8b42 973f 47c1 dcbc 2b87 1040
000001b0: 6880 3bbc 8ecd 93be edab dabe 4ce6 183f
000001c0: a9da b33e 2f6a 12c0 03fd 02c0 9b20 7c3e
000001d0: 4f30 2dbf 96be 8a3f 0b0b a53f 11ff 6d3f
000001e0: a050 82bf dfb5 973f eee2 1abf 98b9 f73e
000001f0: 18de 01bf 08f1 ecbc 1ab8 fc3c 5d25 1abe
00000200: a8bc bd3f 0ae5 233f bec9 ea3e a580 abbe
00000210: a9fc d6bd 381c 4b3f 65c9 0940 e397 cc3f
00000220: 2e25 693e f365 84bf b4e7 3cbf 335e 5ebe
00000230: 7268 ffbe 3992 b33f 7c6d d33f 05b1 2b3f
00000240: 4502 0d40 ebaa b63f cd14 e7bc 55e8 37c0
00000250: 3100 d33e 054c 41c0 a7d8 82be fc35 3d3f
00000260: efce 523f c448 d83e c6af c53f ccc2 44bf
00000270: bb5f 383f 69d0 c1bd e378 b03f 33be 453b
00000280: c756 eb3c 4b20 1f40 b7ae 25bf 72cd 27bf
00000290: 5015 07bf d67d 773e 661b b63d c9fe df3f
000002a0: 4bfd 473f f31e 09bf 8afb 313f 9333 cabf
000002b0: 03a6 8c3f d536 98bd 28de f33f 831d 603f
000002c0: 112b 2b3f 4378 8dbf 56c9 e6be 53b1 14be
000002d0: e152 3dbf 5e5e e93e 88f3 9f3f b3c8 183f
000002e0: 7033 d73f 649b e33f a9f3 5bbf f805 9abf
000002f0: cab5 d93f 5f77 94bf dfad 59bc 6b41 e13e
00000300: 8885 a6bf 39c9 663e 174a 1dbe 51c3 2fbf
00000310: 80eb 5abf e6dd d1bf 5e2a 523f 98e5 00bf
00000320: 9629 1640 af0c 333e 9c1c 31be 503e 36bf
00000330: 5df0 d03f 9b07 583d 729b 83bd 5d11 c2bc
00000340: be28 21bf 97d3 31bf 76b4 8dba df08 12be
00000350: 9b9f 92bf 0aae c8be 80aa d73d 5f04 1abf
00000360: 0e28 01c0 d562 45bf 8a2b d9be 9317 52bf
00000370: 2808 893e 8c32 e13e 6bdb 363f 5521 04c0
00000380: 9759 c7bf bacb bcbf 8415 55bf 84f6 debf
00000390: b277 8ebf 1d4d 2c3e ffd1 55bd 6f98 a7bf
000003a0: 45a0 3b3f f19e 63bf 4856 a4bf e608 153e
000003b0: cc4e 253e 010e c9bf a0bd 8d3e 6d0d c73e
000003c0: de12 68be 94e4 cabf 6650 adbf 099c 333e
000003d0: 4db7 ba3f 773e cbbc 74fc 583e 44a1 8b3f
000003e0: 9899 bf3d 2cb9 a7be 1be8 22bf 01bc 0ebf
000003f0: 5ed1 58be c0ec 78bf 977b 82be e2bd 70bf

conv2.3.kernel f4 [64, 1, 3, 3]
-0.2524164 -0.69079 -0.042426743 -0.8471668 0.22500348 1.0399655 -0.75161976 0.56487465
-0.09912767 0.33232066 0.100711204 0.7779845 1.6242898 0.6224973 0.26442912 0.20513706
1.731326 -1.282605 -0.30036643 1.2018145 1.6677107 0.6788642 -0.008268302 0.20896462
-0.058615044 -0.1287555 -0.7463259 0.09496798 -1.2704853 0.61308604 0.7049025 0.33803695
-0.4588279 0.5588401 0.7315646 0.37262982 -0.055251762 1.0583037 1.7882783 -0.7308628
-0.26294196 0.7429392 1.4161601 1.7293965 0.6428636 0.7234648 -0.5997156 -0.84182996
0.11194212 0.7208746 1.430841 0.6378035 -0.507949 0.40880007 -0.12673733 0.91267055
-1.532101 -0.7961705 -0.95574766 -0.117324576 0.9483777 -0.011256812 -1.3791325 -0.4285999
-0.7189191 2.3307328 -0.06371993 -0.9039208 -0.12174051 -1.2840544 -1.5159844 -1.1139942
-0.25101846 0.41518125 -0.4718635 -0.387759 -1.4043247 0.87063795 -1.0439698 0.43991938
0.9302438 0.346485 -1.6766167 0.39306882 0.9883993 -0.35422823 -0.26633427 0.49062204
-0.754113 -0.1615111 -1.9657793 2.301493 -1.079929 -1.3968707 0.99447376 0.15978271
1.5101502 1.6757141 -1.3400857 -1.3439376 -0.27129173 2.1966748 1.3155229 -0.82574534
1.3350185 -0.6292838 -0.06907747 0.55799884 -1.8586701 0.46216363 -1.1456361 -2.0954309
-0.22696991 1.2037917 -0.2965422 1.2907798 0.09115277 -1.6078583 0.16665824 1.2273043
0.5324633 0.30457562 0.9965695 -0.7070984 0.60695744 -0.5350729 -0.060217332 -0.02922116
1.7022591 -0.23067039 -1.9946088 0.5243455 0.78076226 -0.15955323 0.47524217 -0.11112387
0.7786863 -1.2501684 -1.2897123 0.85177016 -1.3881383 0.46304545 0.7406308 -0.81933224
-0.443475 1.6268303 -0.91925716 0.21852146 -0.93054086 -0.44103152 0.25546885 0.14837547
0.55648375 -1.2252469 -0.451451 -0.32817215 -0.7381451 1.4115045 0.043190874 -0.8108033
-0.8504655 -1.8344779 1.2742755 -1.7633786 0.6371652 -0.029622918 -1.1164465 1.1778661
0.00043922255 1.9096986 0.75586176 0.51207215 1.2030839 -0.15582599 0.8253206 -0.24017082
-0.4253544 0.8459234 0.6084762 1.2610502 0.0260379 0.3829674 -0.78369397 -1.5459201
-0.95382583 -0.27810782 -0.93299305 0.8679993 0.10451747 -0.24922189 -0.7539366 1.114155
-0.035960607 0.42798677 0.38112187 0.0134701785 -1.1259811 -0.68525255 1.239946 -0.40659764
-0.8146668 0.17541155 -1.2463201 0.28065765 -0.8791334 0.394063 0.50325805 1.0538567
2.8963914 -0.61344266 -1.3828925 0.39853856 2.3833663 -0.057045393 -0.9678197 -0.21787164
0.2727089 0.2585494 0.038068887 0.9789025 -0.30337554 1.3742639 0.5275404 1.768874
-0.54896 0.7640258 -0.109489545 -0.49344793 -0.758217 1.0399903 2.2739942 -1.4183409
-0.8191754 -1.3369797 2.0649748 -1.5184265 1.7049608 0.7059482 -0.35780728 0.33678952
-1.3049045 0.22282964 -0.32499847 0.5112097 0.4590576 0.25651848 0.45440158 -0.5669407
0.50575185 0.48093662 0.7927937 -0.4133133 -0.19557896 1.9977486 0.5754519 -0.90042436
00000000: b93c 81be 9dd7 30bf aac7 2dbd ecdf 58bf
00000010: 5067 663e 971d 853f 276a 40bf a09b 103f
00000020: 7303 cbbd ef25 aa3e ad41 ce3d fe29 473f
00000030: bae8 cf3f fc5b 1f3f 4163 873e 730f 523e
00000040: 179c dd3f 672c a4bf a1c9 99be 0fd5 993f
00000050: 8b77 d53f 0bca 2d3f c677 07bc d2fa 553e
00000060: 5416 70bd 7bd8 03be 370f 3fbf 937e c23d
00000070: 439f a2bf 35f3 1c3f 7e74 343f 2e13 ad3e
00000080: 7eeb eabe 2510 0f3f d147 3b3f 56c9 be3e
00000090: ac4f 62bd 7f76 873f 4ee6 e43f d319 3bbf
000000a0: 54a0 86be 4331 3e3f bc44 b53f dd5c dd3f
000000b0: b592 243f fd34 393f f686 19bf 2b82 57bf
000000c0: e941 e53d 3d8b 383f cc25 b73f 1747 233f
000000d0: f208 02bf 3e4e d13e 6ec7 01be c7a4 693f
000000e0: e31b c4bf d4d1 4bbf e1ab 74bf de47 f0bd
000000f0: e2c8 723f 7e6e 38bc 6a87 b0bf 7271 dbbe
00000100: 150b 38bf ba2a 1540 987f 82bd 5b67 67bf
00000110: 1753 f9bd e55b a4bf c70b c2bf 5d97 8ebf
00000120: 7e85 80be a392 d43e 1898 f1be 5988 c6be
00000130: e9c0 b3bf 21e2 5e3f cda0 85bf 1d3d e13e
00000140: 7524 6e3f 7b66 b13e 609b d6bf 5140 c93e
00000150: bd07 7d3f 675d b5be f75c 88be d032 fb3e
00000160: 8d0d 41bf 2a63 25be a89e fbbf a94b 1340
00000170: 1d3b 8abf a9cc b2bf d595 7e3f 149e 233e
00000180: 9a4c c13f cd7d d63f ee87 abbf 2606 acbf
00000190: c0e6 8abe 5296 0c40 0e63 a83f 0c64 53bf
000001a0: e3e1 aa3f be18 21bf 7d78 8dbd 03d9 0e3f
000001b0: e7e8 edbf b6a0 ec3e 34a4 92bf 8a1b 06c0
000001c0: cd6a 68be d915 9a3f 61d4 97be 4638 a53f
000001d0: 4eae ba3d 4dce cdbf 75a8 2a3e 4f18 9d3f
000001e0: 844f 083f 56f1 9b3e 2e1f 7f3f 6704 35bf
000001f0: 9061 1b3f 8afa 08bf 73a6 76bd 3761 efbc
00000200: a0e3 d93f dc34 6cbe 574f ffbf 823b 063f
00000210: 09e0 473f ec61 23be f152 f33e e994 e3bd
00000220: fc57 473f 8505 a0bf 4b15 a5bf 9c0d 5a3f
00000230: 84ae b1bf 4b14 ed3e fb99 3d3f c2bf 51bf
00000240: 280f e3be fa3b d03f 7054 6bbf 17c4 5f3e
00000250: ed37 6ebf e2ce e1be d0cc 823e bdef 173e
00000260: b875 0e3f e4d4 9cbf 9624 e7be 2e06 a8be
00000270: 14f7 3cbf 2eac b43f eae8 303d ce90 4fbf
00000280: 1bb8 59bf 2cd0 eabf 761b a33f 64b6 e1bf
00000290: 421d 233f c3ab f2bc b8e7 8ebf 51c4 963f
000002a0: 7447 e639 0171 f43f 2880 413f 2917 033f
000002b0: a7fe 993f d990 1fbe 3648 533f 57ef 75be
000002c0: 0dc8 d9be 708e 583f 19c5 1b3f 186a a13f
000002d0: 6f4d d53c 4e14 c43e 2ba0 48bf b6e0 c5bf
000002e0: ee2d 74bf 2664 8ebe a2d8 6ebf 3435 5e3f
000002f0: 410d d63d 0634 7fbe fd01 41bf a29c 8e3f
00000300: 6e4b 13bd 1521 db3e 6822 c33e 06b2 5c3c
00000310: 2620 90bf b66c 2fbf 8db6 9e3f 912d d0be
00000320: 018e 50bf 169f 333e 6b87 9fbf 5cb2 8f3e
00000330: e30e 61bf a0c2 c93e 85d5 003f c7e4 863f
00000340: 7a5e 3940 940a 1dbf 9f02 b1bf 3f0d cc3e
00000350: 1389 1840 6ea8 69bd 08c3 77bf be19 5fbe
00000360: 80a0 8b3e 9660 843e 1fee 1b3d 5b99 7a3f
00000370: 0a54 9bbe e1e7 af3f e30c 073f 776a e23f
00000380: a488 0cbf 3297 433f 0e3c e0bd 35a5 fcbe
00000390: 821a 42bf 671e 853f 1f89 1140 328c b5bf
000003a0: 7bb5 51bf 2722 abbf 8c28 0440 cd5b c2bf
000003b0: 283c da3f 05b9 343f 8432 b7be ad6f ac3e
000003c0: 1c07 a7bf 742d 643e 3366 a6be a4de 023f
000003d0: 9909 eb3e 6456 833e 53a7 e83e 0723 11bf
000003e0: f478 013f 533d f63e 87f4 4a3f cd9d d3be
000003f0: da45 48be 3ab6 ff3f d150 133f 3682 66bf

conv2.4.kernel f4 [64, 1, 3, 3]
-0.015039503 -0.92646563 0.7118505 -0.72637355 0.9785939 0.23851988 1.6133163 0.03540615
-0.5272159 -1.3126388 0.39164183 -1.3587241 -0.07995584 0.18134266 -0.13458632 1.7957777
-0.8282896 -1.1575307 -1.0454314 0.5424518 -0.21704906 -2.2041142 1.2357467 1.9708494
0.56596696 -0.14602438 -0.90256345 -0.5856266 0.33032915 -1.970486 0.055647265 1.116789
0.29652908 1.0517011 -0.82912445 0.09628195 1.8610523 1.3829222 -0.48804143 -0.03153306
-0.3375389 1.552362 -0.61461496 -0.6989189 1.6857512 2.7987123 1.0092857 -0.49804866
2.6712172 0.8367416 -2.4038725 -2.017122 -0.58857834 -0.3535016 -0.8889364 -0.89732546
-0.416943 -0.9813948 -0.22978562 -0.6034951 -0.026761336 1.5104656 0.95010895 -0.12286131
-1.2753955 -0.98041457 -1.5302402 1.4550891 -0.17635702 -0.68276733 -0.25114518 0.48065558
-0.53513587 0.92215335 -0.29319957 1.0429684 0.004725685 0.09191488 2.1632016 -0.14757882
0.6369516 -1.5440581 1.0892994 -0.750295 0.48905477 -1.8201447 0.34619775 -0.40985888
-0.48646277 0.9372567 0.415801 1.0548835 1.4260583 -0.52193046 0.39170477 0.78160393
-0.7984349 0.65863615 1.1618195 -1.0338517 -0.7257807 2.0212407 0.41749543 1.3937212
0.712769 1.7749912 -0.407715 -0.8058569 0.6662033 1.9781711 -0.28120992 0.4058521
-1.3056597 -0.2738508 0.114479005 0.07422702 1.4520667 -0.38746095 -2.3103507 0.4643929
-1.6046814 0.6123279 -2.1314716 -0.19152561 -1.0801932 0.4401906 1.134339 0.7745458
-0.60107106 0.5784147 0.046122707 -0.09533371 -0.87148184 -0.6346849 -0.049884982 1.5855305
1.3310373 -0.34283102 -1.2168809 -0.91012937 0.22970672 0.90801704 0.9350106 -2.0253036
0.121900976 1.546198 -0.9046622 1.545207 -1.2427967 0.6071159 1.0989872 -0.33966053
-0.9068714 -0.466879 -0.6123806 -0.10713751 -1.8944831 0.5248247 0.21603869 -0.35934192
-0.5964388 -0.23080122 -1.3296586 -2.231405 -0.23444837 0.63377136 0.55463475 0.27177027
-0.5511021 -0.25485256 -0.79607445 0.009660588 0.2157804 -0.44074038 0.23416509 -0.38577858
0.05537267 1.3638693 -1.8658733 -0.068197906 0.30668092 -1.2026652 0.9110041 -1.2030749
-2.3171341 -1.2236441 -0.53543955 0.13396987 0.20900626 -2.7542648 -1.9888823 0.35482123
-0.2813172 0.4440814 0.03907946 0.43103936 1.4609349 0.04557533 0.47594512 0.5246759
-2.5488572 -0.76900744 -0.072005905 0.26552266 1.2733479 1.6063762 -0.50030506 -0.2780302
2.887541 0.60799456 -0.3680902 -0.98534465 -0.21883811 0.034742672 2.5670967 -2.6029925
1.0313026 0.4540678 0.28702918 -0.33597997 0.13872041 -0.014879663 -1.9101124 -1.0647156
-0.38496968 0.36120528 0.7734133 -0.8856525 -0.8710117 0.23682962 0.5399077 1.2345215
1.4133598 0.5263193 -0.47844434 -1.2219179 1.8227417 -0.26330295 -1.7258128 0.2033566
0.034351416 0.5241883 -1.2510035 -0.8063948 -0.31382838 0.58402604 0.67862797 -1.9962775
-0.48904717 1.3403777 -0.18671694 0.11117006 -0.42634594 0.6546115 -0.18168107 -0.33008665
00000000: 3f68 76bc da2c 6dbf d63b 363f 9ef3 39bf
00000010: 2185 7a3f 8e3e 743e 2681 ce3f 0a06 113d
00000020: 9ff7 06bf 8c04 a8bf 4785 c83e acea adbf
00000030: e3bf a3bd e4b1 393e ffd0 09be 0bdc e53f
00000040: ca0a 54bf f729 94bf b2d0 85bf 1fde 0a3f
00000050: 1c42 5ebe 3510 0dc0 f32c 9e3f cb44 fc3f
00000060: 36e3 103f 6a87 15be 660e 67bf a0eb 15bf
00000070: e720 a93e e338 fcbf 63ee 633d f1f2 8e3f
00000080: a9d2 973e 249e 863f 8041 54bf 792f c53d
00000090: f636 ee3f 9803 b13f 91e0 f9be cf28 01bd
000000a0: e6d1 acbe ccb3 c63f 6857 1dbf 59ec 32bf
000000b0: b2c6 d73f 1a1e 3340 4630 813f 3c00 ffbe
000000c0: 39f5 2a40 b334 563f 0cd9 19c0 8718 01c0
000000d0: 12ad 16bf 29fe b4be 5691 63bf 1fb7 65bf
000000e0: 8e79 d5be b13c 7bbf ec4c 6bbe a87e 1abf
000000f0: 973a dbbc f056 c13f 573a 733f b69e fbbd
00000100: 2940 a3bf 73fc 7abf e9de c3bf 5c40 ba3f
00000110: ef96 34be d7c9 2ebf 1a96 80be 7d18 f63e
00000120: aafe 08bf 3e12 6c3f 411e 96be fd7f 853f
00000130: ebd9 9a3b de3d bc3d e571 0a40 e71e 17be
00000140: 430f 233f b2a3 c5bf 2a6e 8b3f 5513 40bf
00000150: 6365 fa3e 80fa e8bf d540 b13e 06d9 d1be
00000160: a611 f9be 0ef0 6f3f dee3 d43e 6c06 873f
00000170: 1489 b63f 3c9d 05bf 878d c83e 3217 483f
00000180: 3b66 4cbf 619c 283f 80b6 943f 4155 84bf
00000190: c4cc 39bf 025c 0140 f6c1 d53e 7565 b23f
000001a0: 0778 363f e932 e33f 05c0 d0be a34c 4ebf
000001b0: 4d8c 2a3f b634 fd3f bffa 8fbe d9cb cf3e
000001c0: db1f a7bf 2c36 8cbe f873 ea3d 5604 983d
000001d0: 52dd b93f 4861 c6be c9dc 13c0 e8c4 ed3e
000001e0: 3366 cdbf 85c1 1c3f 086a 08c0 4a1f 44be
000001f0: c543 8abf aa60 e13e 0532 913f a248 463f
00000200: cbdf 19bf fc12 143f 2aeb 3c3d 523e c3bd
00000210: 6f19 5fbf b67a 22bf 3254 4cbd aaf2 ca3f
00000220: 6e5f aa3f 8c87 afbe c1c2 9bbf 3dfe 68bf
00000230: 3d38 6b3e ce73 683f db5c 6f3f 939e 01c0
00000240: 38a7 f93d d1e9 c53f f197 67bf 58c9 c53f
00000250: f613 9fbf f36b 1b3f 9dab 8c3f fce7 adbe
00000260: b928 68bf c40a efbe fac4 1cbf e96a dbbd
00000270: 6c7e f2bf e95a 063f 3f39 5d3e aafb b7be
00000280: 37b0 18bf 2857 6cbe 4132 aabf 57cf 0ec0
00000290: 3c13 70be d73e 223f 8bfc 0d3f 7925 8b3e
000002a0: 0715 0dbf 097c 82be 89cb 4bbf 7147 1e3c
000002b0: 8af5 5c3e b9a8 e1be f9c8 6f3e c584 c5be
000002c0: 74ce 623d 4593 ae3f f0d4 eebf 58ab 8bbd
000002d0: 4805 9d3e eff0 99bf 9137 693f 5cfe 99bf
000002e0: ed4b 14c0 5fa0 9cbf 9112 09bf 662f 093e
000002f0: bd05 563e e045 30c0 b293 febf 21ab b53e
00000300: cf08 90be a35e e33e c911 203d 31b1 dc3e
00000310: eaff ba3f 32ad 3a3d 14af f33e 2951 063f
00000320: 7a20 23c0 acdd 44bf d577 93bd 96f2 873e
00000330: 10fd a23f bc9d cd3f fe13 00bf f959 8ebe
00000340: 79cd 3840 88a5 1b3f 5276 bcbe 8c3f 7cbf
00000350: 1917 60be 554e 0e3d 504b 2440 6e97 26c0
00000360: b901 843f 937b e83e 7df5 923e 9105 acbe
00000370: b90c 0e3e d4c9 73bc 907e f4bf 9a48 88bf
00000380: bf1a c5be e6ef b83e 6afe 453f 1fba 62bf
00000390: 9ffa 5ebf 7783 723e 6437 0a3f cd04 9e3f
000003a0: f9e8 b43f ddbc 063f a8f6 f4be ce67 9cbf
000003b0: 9a4f e93f a5cf 86be 6fe7 dcbf b63c 503e
000003c0: 12b4 0c3d 3431 063f e220 a0bf e46f 4ebf
000003d0: 1dae a0be bb82 153f 90ba 2d3f 0586 ffbf
000003e0: 6464 fabe 7f91 ab3f ba32 3fbe 21ad e33d
000003f0: 044a dabe 9f94 273f 9a0a 3abe 1e01 a9be

conv2.5.kernel f4 [64, 1, 3, 3]
0.808896 1.3034201 0.5772439 -0.022784067 -0.90618694 -0.8646497 1.8442602 -1.1664902
0.2530453 -1.1517245 -1.7461662 -0.93013006 -1.0285292 -0.48510435 0.40022498 -1.9228468
0.8648325 -0.17181936 -1.3353856 -0.8778634 0.95013845 -0.60465807 0.21799527 1.5829198
-0.13459122 1.4926976 -2.4578004 0.6126317 0.024936795 -0.14378004 -0.03133464 -0.5328048
0.14558947 0.32284376 -0.15568122 0.0151221575 -0.08956929 0.39925557 -2.5506537 1.3660979
0.18237436 -0.49822053 0.5499679 -1.6343046 1.7062302 -0.66714376 -0.30460453 -0.28494608
0.30101544 1.0689343 0.40882233 0.33581877 -0.46444452 -0.30627236 0.6745415 0.7504676
0.40837163 0.8420989 0.07329032 -0.9705752 0.65334785 0.6575867 0.007175364 0.24899386
-1.8166984 -0.868944 0.42310065 0.3826302 0.98405975 1.0137838 -0.15278055 -0.20714107
0.09709585 0.16997288 0.16672064 0.24762951 -1.1847812 0.97324866 -1.1020898 -0.12321987
1.6104399 -0.63683265 -0.17303637 -0.585648 -0.038906712 -0.35996962 0.2639105 0.6242539
1.4122244 0.4650356 0.8727674 0.007533414 -0.58732384 0.41890877 -0.268791 0.3848356
1.920465 0.21135175 -0.7144548 1.8603021 0.51185304 -1.0578551 -1.6621708 0.34014794
-0.9280518 -1.773819 -0.98536175 1.4536057 -0.9224709 0.5622765 0.11461766 0.04658978
1.5644534 -1.7083489 1.7635263 0.7747037 -1.2616342 0.39834765 -2.0700347 0.32730773
-0.8000403 0.8224696 0.70297366 0.04885097 2.1753669 -1.2573054 -0.8087224 -1.2036066
-0.60820085 -0.33444303 -1.402681 0.11643807 0.25711292 -1.7903888 -0.77762806 -0.6307093
0.3214865 -0.53802735 0.34921864 -1.6361686 0.74580127 0.5038757 -0.33585575 -0.47317052
-0.7462905 0.3761947 -0.17501765 0.27600312 1.1536798 -0.19600442 1.399297 0.34323
0.309233 -1.4374603 2.0086567 -1.1046733 1.2182044 0.07047352 -0.31748062 0.9339809
-0.45078608 -1.0184493 -1.0231019 0.11441044 -0.65270454 -0.05888967 -1.3472261 -0.5410761
-0.78311574 0.31296745 -0.09537962 0.5555231 0.024582287 -0.38646087 -0.07769349 -0.6516575
0.88459283 0.01705095 1.0104281 1.6329256 -0.7895304 -0.73686576 -0.68677515 1.348445
-0.70263153 -0.22766067 0.11155795 1.1476085 2.486156 -1.545941 -0.29314306 -0.30870757
1.6474222 1.2640053 -2.509026 0.12792295 -0.49959004 -0.20223995 0.029583458 1.3015891
-1.6103418 -1.6245298 1.7708718 0.91072595 -1.1725899 0.2775015 0.008118908 -0.9665119
-0.14868777 -0.48463532 0.9793644 -1.3343356 0.97981143 -0.20256224 1.4505346 -0.90022016
-2.0424867 0.7501956 -1.1269705 -1.4811591 -0.76937264 0.8444404 -0.34266493 0.8846465
0.22551541 1.2749639 -0.22497685 -0.73884106 0.74840695 0.5496022 -0.1331551 1.3808106
0.12419206 1.3913369 -1.2023227 1.0177356 -0.68031275 -0.043727625 -1.2662984 -2.054242
0.4824483 -0.6580076 -0.0408455 -0.36644992 -0.28655234 0.15591173 0.4250047 -0.44744772
-0.26318818 -1.4722141 -0.3627361 -1.2127707 -1.0503601 1.2420292 0.14374386 0.4791389
00000000: cf13 4f3f 78d6 a63f 42c6 133f a7a5 babc
00000010: defb 67bf af59 5dbf b810 ec3f 8d4f 95bf
00000020: 278f 813e b56b 93bf 6082 dfbf 011d 6ebf
00000030: d8a6 83bf 995f f8be 4aea cc3e d81f f6bf
00000040: aa65 5d3f 6af1 2fbe eaed aabf a8bb 60bf
00000050: 463c 733f dfca 1abf 273a 5f3e 1e9d ca3f
00000060: 48d2 09be b710 bf3f 9a4c 1dc0 6ed5 1c3f
00000070: 4048 cc3c 133b 13be c058 00bd e565 08bf
00000080: 6815 153e c74b a53e e66a 1fbe edc2 773c
00000090: 1b70 b7bd 3a6b cc3e e93d 23c0 4cdc ae3f
000000a0: 58c0 3a3e c316 ffbe b2ca 0c3f e530 d1bf
000000b0: c065 da3f efc9 2abf 20f5 9bbe 74e4 91be
000000c0: b21e 9a3e d7d2 883f 2951 d13e 70f0 ab3e
000000d0: accb edbe bbcf 9cbe c0ae 2c3f a51e 403f
000000e0: 1616 d13e cb93 573f 3c19 963d 9e77 78bf
000000f0: ce41 273f 9a57 283f 511f eb3b 3ff8 7e3e
00000100: 9389 e8bf 1d73 5ebf a6a0 d83e 1be8 c33e
00000110: 57eb 7b3f abc3 813f 8172 1cbe ca1c 54be
00000120: 30da c63d 5f0d 2e3e d1b8 2a3e 9792 7d3e
00000130: e9a6 97bf d326 793f 4711 8dbf b35a fcbd
00000140: e522 ce3f 7707 23bf 7230 31be 07ed 15bf
00000150: a55c 1fbd f04d b8be 471f 873e 1bcf 1f3f
00000160: c5c3 b43f 2519 ee3e af6d 5f3f dbda f63b
00000170: db5a 16bf 367b d63e f99e 89be 2c09 c53e
00000180: ccd1 f53f 986c 583e 83e6 36bf 611e ee3f
00000190: cd08 033f cc67 87bf 03c2 d4bf df27 ae3e
000001a0: ce94 6dbf 800c e3bf ab40 7cbf c00f ba3f
000001b0: 0e27 6cbf 5af1 0f3f aabc ea3d edd4 3e3d
000001c0: 0240 c83f 2dab dabf 3bbb e13f fb52 463f
000001d0: 3b7d a1bf 39f4 cb3e 737b 04c0 e194 a73e
000001e0: 71cf 4cbf 5e8d 523f 15f6 333f f417 483d
000001f0: 3639 0b40 62ef a0bf 6e08 4fbf c80f 9abf
00000200: 0db3 1bbf 1e3c abbe 0d8b b3bf 1577 ee3d
00000210: 4ea4 833e 762b e5bf a212 47bf 2a76 21bf
00000220: e199 a43e 29bc 09bf c9cc b23e f96d d1bf
00000230: d5ec 3e3f fffd 003f 49f5 abbe 6843 f2be
00000240: e50c 3fbf 979c c03e d437 33be 4850 8d3e
00000250: c8ab 933f 62b5 48be 2a1c b33f d8bb af3e
00000260: ca53 9e3e b3fe b7bf d58d 0040 ef65 8dbf
00000270: 1fee 9b3f 6c54 903d d28c a2be 5f19 6f3f
00000280: 6fcd e6be 8c5c 82bf 01f5 82bf 0550 ea3d
00000290: a517 27bf 4b36 71bd e871 acbf f783 0abf
000002a0: 467a 48bf 453d a03e 6456 c3bd c336 0e3f
000002b0: cb60 c93c 33de c5be c41d 9fbd 07d3 26bf
000002c0: ad74 623f 6fae 8b3c b555 813f b503 d13f
000002d0: aa1e 4abf 3ca3 3cbf 7fd0 2fbf d999 ac3f
000002e0: a9df 33bf e11f 69be 7f78 e43d d6e4 923f
000002f0: 2e1d 1f40 65e1 c5bf d916 96be eb0e 9ebe
00000300: bbde d23f edca a13f e293 20c0 3cfe 023e
00000310: 44ca ffbe fd17 4fbe 0259 f23c 799a a63f
00000320: ae1f cebf 98f0 cfbf edab e23f 5625 693f
00000330: 6d17 96bf ad14 8e3e 2b05 053c 536d 77bf
00000340: 9b41 18be 1f22 f8be a0b7 7a3f 82cb aabf
00000350: ecd4 7a3f 7a6c 4fbe 1eab b93f d474 66bf
00000360: 1ab8 02c0 d20c 403f 9240 90bf 9f96 bdbf
00000370: 9bf5 44bf 3f2d 583f c771 afbe 3178 623f
00000380: 83ed 663e 0432 a33f 5560 66be b024 3dbf
00000390: 9997 3f3f bbb2 0c3f cf59 08be 67be b03f
000003a0: 6858 fe3d 5417 b23f b6e5 99bf 2945 823f
000003b0: fa28 2ebf bd1b 33bd 1116 a2bf b378 03c0
000003c0: 7703 f73e 3073 28bf 9c4d 27bd 539f bbbe
000003d0: fdb6 92be 53a7 1f3e 379a d93e de17 e5be
000003e0: 9ac0 86be 8371 bcbf 8cb8 b9be 123c 9bbf
000003f0: 3372 86bf d0fa 9e3f 9731 133e b251 f53e

conv2.6.kernel f4 [64, 1, 3, 3]
-0.628838 0.045600515 2.3331304 0.15955986 1.2449461 -1.2592328 -2.1478786 -1.3402303
1.0020324 1.3802545 0.46149054 0.29498136 1.552388 0.32145748 0.37995252 0.528063
-0.26691043 0.35012564 -1.1727949 -0.75190556 0.881988 -1.3111302 0.637847 1.8815628
2.3811498 -0.70087856 1.3480887 1.001326 0.9138006 1.594067 -0.06084187 0.74685377
-0.07140421 -0.91278005 0.765427 -1.1835091 0.021214431 0.44328952 0.2577122 1.5791026
-0.8795408 0.5900271 0.037401903 0.008679373 -1.0692946 0.2797258 -1.546925 -0.95307344
0.20892057 0.29911014 -1.0658678 0.2344364 -0.500038 -0.34594938 -1.222056 0.8921396
-0.59742296 -0.20901093 -0.6941612 -0.429341 0.5568374 -1.5716838 1.0941294 -0.22051841
0.49605379 1.6385092 0.65039694 -1.9914947 -1.9733907 0.83838576 -0.13579555 -1.4285692
0.28855184 -0.24439956 -1.5749847 -1.9031308 -0.7300626 -0.16859932 1.3299786 0.70647925
-0.050289992 -0.5869672 -0.0867175 1.5793179 0.17396908 2.1764083 -0.78904617 -0.557399
-1.5567921 -0.5165263 0.14372754 -0.6926168 0.6984927 -0.6691851 -0.12356727 -2.0415704
2.0703785 -0.9058943 0.81701314 -1.157275 0.9533962 0.17899063 0.3674253 0.166182
0.7462181 -1.1240578 -0.9099257 0.513059 0.12098151 0.09085367 1.7520735 0.42049187
0.07170094 -1.714236 -0.89699876 0.510767 0.00010863088 0.4455674 -0.5438615 -0.19819753
0.6537445 -0.15169606 -0.40470278 -1.0140175 0.46509355 -0.6004094 0.70964783 0.9409839
0.29127815 -0.05102805 0.4804112 -1.8053595 0.7702449 1.2126337 -2.037752 0.7121385
0.583833 -1.5977699 -0.11327246 0.22559856 -0.1804662 0.49115628 -0.7066717 1.2148752
0.8086427 -0.5014861 -1.3879217 1.0987605 -0.0953171 0.21856377 2.0558927 -0.18395992
0.75427616 0.5565631 -0.41708 -0.18621862 -1.412771 -1.6020312 -0.51283306 0.6550343
-1.8668859 1.064992 -0.35693014 0.011824712 1.2849901 -0.013964622 -0.4434367 -2.4813635
-1.7055109 -0.84348106 0.51578313 0.8331154 -1.6050818 -0.5675774 0.93835914 0.31234434
0.3130339 0.12359132 1.3208874 0.14706486 -1.289411 -0.40589905 0.82309383 0.40265822
0.8044746 1.8720844 0.8777798 -0.5562232 -0.35068497 -0.14396636 2.508009 0.118744224
1.0073576 0.8829463 0.9414315 1.7657436 0.019544434 -1.3663799 -1.8625832 0.86315405
0.9941507 0.33308366 -0.5366961 -0.6731293 0.32549477 0.44493484 0.52856296 -1.2674464
2.342543 -0.4006227 1.2703716 -0.35326928 0.67265034 0.82751954 0.96250254 -0.41118613
-0.16519481 -0.0006001327 1.7943668 0.18172145 -2.102275 0.9373982 -1.1757736 -0.47241065
0.9366129 -0.06516935 0.9611021 -0.39919555 1.9133015 0.05818161 -0.29915592 0.17967105
1.5756915 0.046210926 0.5081557 -1.0061129 0.0050795446 0.06600598 -0.37433973 0.97476035
-0.1413052 1.1022966 -0.15629967 0.33769116 0.1425191 -1.703859 0.71717834 -0.11962557
1.5042492 0.09585424 0.78848416 -0.08207016 1.4259663 1.4863232 -0.32531524 1.6762832
00000000: 87fb 20bf 9bc7 3a3d 0252 1540 a963 233e
00000010: 655a 9f3f 8a2e a1bf d876 09c0 ab8c abbf
00000020: 9942 803f 2eac b03f 7d48 ec3e cc07 973e
00000030: a6b4 c63f 1396 a43e 2389 c23e 232f 073f
00000040: 7ca8 88be ab43 b33e 251e 96bf e27c 40bf
00000050: f7c9 613f 1dd3 a7bf f149 233f 0dd7 f03f
00000060: c264 1840 c76c 33bf 2c8e ac3f 732b 803f
00000070: d6ee 693f 630a cc3f 5335 79bd cf31 3f3f
00000080: 5f3c 92bd f4ab 69bf 06f3 433f 3a7d 97bf
00000090: e3c9 ad3c d8f6 e23e daf2 833e 0920 ca3f
000000a0: 9629 61bf 040c 173f bd32 193d ee33 0e3c
000000b0: a5de 88bf 3838 8f3e a301 c6bf 9ffc 73bf
000000c0: 46ef 553e f724 993e 5b6e 88bf 1810 703e
000000d0: 7e02 00bf 4720 b1be 556c 9cbf 4363 643f
000000e0: b6f0 18bf f606 56be 8cb4 31bf 95d2 dbbe
000000f0: e58c 0e3f ef2c c9bf 6f0c 8c3f 94cf 61be
00000100: c3fa fd3e abba d13f 6a80 263f 4ce9 febf
00000110: 1198 fcbf 73a0 563f fd0d 0bbe 5bdb b6bf
00000120: 11bd 933e e143 7abe 1999 c9bf ca99 f3bf
00000130: 62e5 3abf 4da5 2cbe bd3c aa3f d3db 343f
00000140: e1fc 4dbd 7b43 16bf f298 b1bd 1727 ca3f
00000150: f324 323e 464a 0b40 eefe 49bf b3b1 0ebf
00000160: f744 c7bf 113b 04bf 502d 133e 564f 31bf
00000170: 6bd0 323f b74f 2bbf d610 fdbd 17a9 02c0
00000180: 1581 0440 b0e8 67bf c627 513f 9621 94bf
00000190: c611 743f 5249 373e 2b1f bc3e 9d2b 2a3e
000001a0: 2608 3f3f 20e1 8fbf e4f0 68bf d657 033f
000001b0: 27c5 f73d 7d11 ba3d f243 e03f b64a d73e
000001c0: f1d7 923d 166c dbbf b6a1 65bf a0c1 023f
000001d0: c2d0 e338 6921 e43e 823a 0bbf 4bf4 4abe
000001e0: cd5b 273f 3656 1bbe 3435 cfbe 53cb 81bf
000001f0: be20 ee3e 6eb4 19bf 7bab 353f 52e4 703f
00000200: 6922 953e ca02 51bd 75f8 f53e 0516 e7bf
00000210: c52e 453f 9537 9b3f 876a 02c0 b54e 363f
00000220: 1476 153f b983 ccbf 64fb e7bd 4f03 673e
00000230: 22cc 38be d678 fb3e 70e8 34bf 0881 9b3f
00000240: 3503 4f3f 6561 00bf 6ba7 b1bf 2fa4 8c3f
00000250: 9d35 c3bd 2ecf 5f3e bf93 0340 fd5f 3cbe
00000260: 3e18 413f eb7a 0e3f 828b d5be 18b0 3ebe
00000270: aed5 b4bf 5c0f cdbf 0749 03bf 54b0 273f
00000280: 1ef6 eebf a851 883f 8cbf b6be 70bc 413c
00000290: 8e7a a43f dfcb 64bc 230a e3be a9ce 1ec0
000002a0: 2e4e dabf 60ee 57bf 5d0a 043f 0d47 553f
000002b0: 5273 cdbf c14c 11bf 4e38 703f 99eb 9f3e
000002c0: fb45 a03e 721d fd3d d712 a93f 2c98 163e
000002d0: 6b0b a5bf 00d2 cfbe 47b6 523f 3829 ce3e
000002e0: 0cf2 4d3f 76a0 ef3f 2db6 603f a564 0ebf
000002f0: fb8c b3be eb6b 13be 3883 2040 2c30 f33d
00000300: 18f1 803f c508 623f a801 713f e303 e23f
00000310: a61b a03c 89e5 aebf 2069 eebf aaf7 5c3f
00000320: a980 7e3f f189 aa3e ea64 09bf 3452 2cbf
00000330: 40a7 a63e 80ce e33e e74f 073f af3b a2bf
00000340: 39ec 1540 6b1e cdbe 899b a23f b6df b4be
00000350: d032 2c3f 52d8 533f 9166 763f fd86 d2be
00000360: d428 29be 3952 1dba d0ad e53f 3015 3a3e
00000370: ac8b 06c0 54f9 6f3f c07f 96bf cfdf f1be
00000380: ddc5 6f3f 8277 85bd ca0a 763f 5c63 ccbe
00000390: 10e7 f43f d74f 6e3d f72a 99be b0fb 373e
000003a0: 42b0 c93f ab47 3d3d 7e16 023f 4fc8 80bf
000003b0: 4f72 a63b 252e 873d 75a9 bfbe e589 793f
000003c0: 4fb2 10be 0e18 8d3f 050d 20be dbe5 ac3e
000003d0: 87f0 113e 0d18 dabf 0099 373f 40fe f4bd
000003e0: 3d8b c03f 3a4f c43d 19da 493f 6614 a8bd
000003f0: 1086 b63f d73f be3f b88f a6be 7390 d63f

conv2.7.kernel f4 [64, 1, 3, 3]
-1.7547846 0.6819302 -1.3955245 -0.6442948 -1.6691998 -2.0413826 0.7611733 0.36997697
0.85863113 -1.0202348 0.7957109 1.3979399 0.09186966 0.5300192 -0.5011937 0.085053444
-1.0355154 0.10412046 0.48123166 -1.4518102 1.0434455 -0.07961849 0.19145325 -0.79987085
0.5395302 -0.82876426 -0.6161475 -1.0399182 0.17143276 -0.62323916 0.9371528 -1.6883116
2.482378 1.2189562 0.11024554 -0.973708 -0.23378853 1.357039 -1.0648271 0.6231588
-0.33976108 -1.201161 0.81835914 -1.8198708 -1.0847648 1.4474683 2.2396007 -0.31235188
1.0319289 -0.09156088 -0.08716317 -0.11055546 -1.0516458 -0.31301066 -0.98918444 -0.64100844
1.2638744 -0.53947806 1.0798718 -0.5383354 0.77793306 -0.8321936 0.6469798 0.12459502
0.23738684 0.19097337 0.88568944 1.2222329 1.6128613 0.05904419 0.5809048 -0.22150649
0.1983706 -1.6190215 0.4611383 0.48588693 -0.8975369 -0.6652988 -1.6790094 0.93866223
0.15267411 -1.1218193 0.71674377 -2.1188805 1.0740188 -0.8041491 -1.6896552 -1.1432561
0.14367391 -1.0214276 -1.0509696 0.33018774 -0.91891766 0.42287484 0.6661194 -1.3793026
1.7346774 -0.6392407 1.7561995 1.2992065 0.038451318 -0.667445 -0.65955657 -2.6391702
-0.3653519 -0.74685246 -0.9479814 -1.4484832 0.4086635 0.01761737 1.5398636 -0.80674905
0.10822605 1.0841731 -1.2179807 -0.40325737 -0.46104348 -0.59708077 -0.32704628 0.0032805142
-0.63788223 -0.9590835 -0.07103557 -0.4847829 -0.13030389 -0.9398924 0.5445183 0.3790539
-0.2695118 0.54734385 -0.7731062 -0.19908509 1.1080922 0.6507372 1.1291746 -1.5736647
0.25180116 -0.73127717 0.6546092 0.49066082 0.1756696 0.36431766 0.7605326 1.3598874
-0.648626 -0.4520986 1.2724105 -0.6275003 1.342965 -1.5091884 -1.72571 -1.367274
0.7671231 0.1998183 2.5597782 0.17650895 -0.033805255 -0.39783055 -0.79893965 -1.4850972
-0.55480623 0.8879415 0.8095637 0.9300365 -0.07859295 0.44985887 -1.1324644 -1.7016796
-0.03453192 -0.040305328 1.2976665 -0.7559254 -0.31878313 0.03480375 -1.2756048 0.045716535
-0.3682659 0.54368085 -0.4313598 -0.274521 0.8065304 -0.36069974 -2.6273983 0.4962577
0.026020221 0.46781853 0.09882214 0.59017825 -1.6162379 -0.057032324 0.48651966 0.017189942
0.65322 0.100935124 2.301625 -0.31611678 1.9100962 0.3373318 -0.13622114 0.56390446
-0.28619945 2.239881 -0.73782635 -1.5458934 -0.100299515 0.0133758765 0.58687305 -0.47077832
-1.2018021 -0.7201581 -1.0310559 -0.3271029 0.4979449 0.731677 -0.6916125 0.366735
-0.5943262 -0.7052845 -0.65766346 0.2468835 -1.2517033 0.7018326 0.39726955 2.026557
-0.10150673 0.51196384 -0.9861202 1.1267475 -1.111997 -0.6192385 2.3505006 1.216459
-0.5600859 1.8002774 -0.9732184 1.2427417 1.5739065 0.9723834 0.48777264 1.5830468
-0.21829656 -1.0004342 -0.07692549 -0.020080352 1.5297991 -0.5203479 0.7554495 -0.33871716
0.9700265 -0.09428652 -1.5184257 1.1631435 0.61472696 0.6501028 2.984256 -1.03851
00000000: c89c e0bf fa92 2e3f 8ca0 b2bf 81f0 24bf
00000010: 57a8 d5bf 03a6 02c0 41dc 423f 9f6d bd3e
00000020: 40cf 5b3f 0e97 82bf b6b3 4b3f b2ef b23f
00000030: 2926 bc3d 57af 073f 3b4e 00bf 8030 ae3d
00000040: c58b 84bf 1c3d d53d ff63 f63e ebd4 b9bf
00000050: 9f8f 853f 050f a3bd 520c 443e 56c4 4cbf
00000060: a71e 0a3f e529 54bf d8bb 1dbf 0a1c 85bf
00000070: 128c 2f3e 9a8c 1fbf 3fe9 6f3f 981a d8bf
00000080: 48df 1e40 c206 9c3f 6ac8 e13d ed44 79bf
00000090: 4366 6fbe 74b3 ad3f 414c 88bf 5687 1f3f
000000a0: 2af5 adbe a5bf 99bf fc7f 513f 87f1 e8bf
000000b0: 93d9 8abf a446 b93f 9e55 0f40 96ec 9fbe
000000c0: 3f16 843f 4584 bbbd 9b82 b2bd e76a e2bd
000000d0: 549c 86bf ef42 a0be 313b 7dbf 2119 24bf
000000e0: a3c6 a13f 3c1b 0abf 3d39 8a3f 59d0 09bf
000000f0: 9f26 473f a40a 55bf 78a0 253f ad2b ff3d
00000100: 8915 733e 868e 433e 8bbc 623f 2172 9c3f
00000110: 3d72 ce3f 52d8 713d 2db6 143f 99d2 62be
00000120: aa21 4b3e 193c cfbf 521a ec3e 2cc6 f83e
00000130: fac4 65bf 0651 2abf c8e9 d6bf 2b4c 703f
00000140: 9a56 1c3e c697 8fbf 857c 373f bd9b 07c0
00000150: 7379 893f b7dc 4dbf 9f46 d8bf 3756 92bf
00000160: 411f 133e 24be 82bf 2c86 86bf 5e0e a93e
00000170: 303e 6bbf 0d83 d83e cd86 2a3f fd8c b0bf
00000180: e909 de3f 47a5 23bf 25cb e03f 664c a63f
00000190: 217f 1d3d addd 2abf b3d8 28bf 2ae8 28c0
000001a0: 670f bbbe b931 3fbf e9ae 72bf e667 b9bf
000001b0: 583c d13e 4d52 903c 401a c53f 1b87 4ebf
000001c0: 9fa5 dd3d 2fc6 8a3f cbe6 9bbf c077 cebe
000001d0: e40d ecbe 49da 18bf 9c72 a7be e5fd 563b
000001e0: 404c 23bf 7f86 75bf 197b 91bd 7735 f8be
000001f0: 626e 05be ca9c 70bf 8d65 0b3f 5a13 c23e
00000200: 73fd 89be ba1e 0c3f 4aea 45bf f6dc 4bbe
00000210: f7d5 8d3f b796 263f cb88 903f d86d c9bf
00000220: 15ec 803e fb34 3bbf 7894 273f e537 fb3e
00000230: bbe2 333e d887 ba3e 44b2 423f ca10 ae3f
00000240: 5b0c 26bf 7879 e7be 59de a23f dca3 20bf
00000250: 47e6 ab3f 162d c1bf 11e4 dcbf d602 afbf
00000260: 2e62 443f 2b9d 4c3e 68d3 2340 c3be 343e
00000270: 6177 0abd 72b0 cbbe 4f87 4cbf aa17 bebf
00000280: c807 0ebf 2250 633f 913f 4f3f df16 6e3f
00000290: 57f5 a0bd e753 e63e 98f4 90bf a3d0 d9bf
000002a0: 5871 0dbd 3317 25bd f019 a63f 5484 41bf
000002b0: 8b37 a3be 618e 0e3d 0547 a3bf 4341 3b3d
000002c0: 598d bcbe ab2e 0b3f 31db dcbe 048e 8cbe
000002d0: c778 4e3f a3ad b8be 4b27 28c0 7d15 fe3e
000002e0: 5c28 d53c e985 ef3e 4363 ca3d ec15 173f
000002f0: e2e0 cebf ba9a 69bd 1b19 f93e ecd1 8c3c
00000300: 6d39 273f 13b7 ce3d d34d 1340 0fda a1be
00000310: 087e f43f c1b6 ac3e 8e7d 0bbe 0b5c 103f
00000320: bc88 92be 365a 0f40 30e2 3cbf d6df c5bf
00000330: d569 cdbd 7e26 5b3c 503d 163f db09 f1be
00000340: a7d4 99bf 485c 38bf a4f9 83bf 087a a7be
00000350: a2f2 fe3e 2f4f 3b3f 840d 31bf b1c4 bb3e
00000360: c325 18bf 868d 34bf a25c 28bf 07cf 7c3e
00000370: d037 a0bf 4dab 333f ea66 cb3e 1cb3 0140
00000380: c3e2 cfbd 1010 033f 6072 7cbf 4339 903f
00000390: eb55 8ebf 6a86 1ebf 9a6e 1640 eeb4 9b3f
000003a0: ca61 0fbf 7d6f e63f d724 79bf 2912 9f3f
000003b0: c575 c93f 1eee 783f 56bd f93e 47a1 ca3f
000003c0: 2289 5fbe 3a0e 80bf 1c8b 9dbd 8d7f a4bc
000003d0: 75d0 c33f 8535 05bf 2365 413f 566c adbe
000003e0: a853 783f 4a19 c1bd c65b c2bf e3e1 943f
000003f0: bf5e 1d3f 236d 263f 0dfe 3e40 e5ed 84bf
