Train_result/TCSVT_Encoder_Base.model (torch, 54848 bytes, 10 tensors)

conv1.0.kernel f4 [64, 1, 3, 3]
000000 1e ed 72 be ec e3 51 3f f8 c2 52 bf 44 b8 97 3f
       -0.23723266 0.81988406 -0.8232875 1.1853108
000010 14 2d 38 3f 07 1e 73 3f 89 68 a0 3d 5f 7c 32 bf
       0.71943784 0.94967693 0.078324385 -0.69721025
000020 56 ff f7 bf 24 89 c2 be 44 cb 6a bf 16 19 84 bf
       -1.9374797 -0.37995255 -0.9171641 -1.0320156
000030 91 f5 98 be 7f d8 41 3e 72 34 cb 3f 65 b5 34 be
       -0.29874852 0.18930243 1.587538 -0.17647322
000040 9e e2 4c bf 23 f7 ef 3f 19 82 2a bf 1f 69 89 bf
       -0.8003329 1.8747295 -0.66604763 -1.0735205
000050 6b 11 d1 bf 54 2a 29 bf 56 c0 0e bf 4f 4d fb 3f
       -1.633344 -0.6608021 -0.5576223 1.9632968
000060 02 72 84 3f 14 ef 8b be c9 f0 eb 3f ec 80 75 3e
       1.0347292 -0.2733084 1.8432857 0.23974961
000070 98 90 b1 3e 6d 03 33 bd 0f c7 c4 be 6d ad 4a 3f
       0.3468063 -0.04370444 -0.3843312 0.79170877
000080 eb 69 af 3f 35 89 32 3f bb b2 ac be 44 36 b7 bf
       1.3704199 0.6974061 -0.3373011 -1.4313436
000090 79 55 61 3f 0f 45 a1 bf c1 56 85 be 57 41 d5 be
       0.88021046 -1.25992 -0.2604275 -0.41651413
0000a0 41 0d 9f 3f 69 28 c9 bf 41 84 c8 bf f2 00 b6 3f
       1.242592 -1.5715457 -1.5665361 1.4219038
0000b0 ee f4 d1 3f 9f 83 ca be ea a7 e2 bf 76 57 9d bf
       1.6402872 -0.39553544 -1.7707493 -1.2292316
0000c0 de 1f 09 3f a2 34 59 3e b8 53 bf bd a2 c1 2f 3f
       0.5356425 0.21211484 -0.0934214 0.68654835
0000d0 29 a4 eb 3f 4b 29 22 3e ca 79 ef 3e 1d e6 7e bf
       1.8409473 0.15836065 0.46772605 -0.99569875
0000e0 d8 dc 48 bd 2d 64 fd bf 40 c6 f4 3e 12 9f 23 3f
       -0.049038738 -1.9796196 0.47807503 0.639146
0000f0 38 79 18 3f 92 8f 63 bf 73 88 cc 3f a8 24 8c 3f
       0.59559965 -0.88890946 1.5979141 1.0948687
000100 2d 7c 26 40 d2 aa 50 bf 06 99 f3 3f 3a 94 2b bf
       2.601329 -0.8151065 1.9031074 -0.6702305
000110 16 a8 45 bf eb 9a 0f c0 1e 5d 1b bf f9 be a3 be
       -0.77209604 -2.2438304 -0.6068896 -0.31981638
000120 10 c3 4e 3e d0 56 48 3f 48 1a bd 3f 72 98 12 be
       0.20191598 0.78257465 1.4773645 -0.14315966
000130 fe 22 dd bf 49 d5 98 3d ec 20 82 3d 45 69 64 3f
       -1.7276304 0.07462556 0.063539356 0.8922313
000140 4d e5 da bf 5b 46 da be 90 11 cf be a2 55 88 3f
       -1.7101227 -0.42631802 -0.40443087 1.0651133
000150 00 a3 5b bd 9c b1 eb 3d 82 82 00 bf 7e 14 91 bf
       -0.053622246 0.11508486 -0.5019914 -1.1334379
000160 e3 4f 4b 3e 1b 1f b9 bf 57 78 b2 bc 6d eb 0d 40
       0.19854693 -1.4462618 -0.021785898 2.2174942
000170 73 f5 2d bf 1d ed 0c bf b1 a2 75 3f 2e 53 d0 bf
       -0.6795265 -0.55049306 0.9595137 -1.6275384
000180 51 02 06 bf 29 19 19 bd b7 94 3e be f2 0e a2 3f
       -0.52347285 -0.03737751 -0.18611418 1.2660811
000190 93 63 23 3f 96 a7 1e bf 2f 83 44 bd fd 13 8a 3f
       0.63823813 -0.61974466 -0.04797667 1.078735
0001a0 bc 71 cf bf d3 93 a2 3e 7b 11 99 be e3 90 26 bf
       -1.6206584 0.31753406 -0.2989615 -0.6506483
0001b0 48 77 89 3f 82 12 80 bf ec a5 96 bf 2a a6 90 3e
       1.0739527 -1.0005648 -1.1769385 0.28251773
0001c0 d4 ac f7 bd d5 23 2d 3f 81 c1 bd bf 3b a8 0a 40
       -0.12093511 0.676328 -1.4824678 2.166518
0001d0 af 96 4a bf 37 87 50 3f 3b 02 51 3f b1 ab e3 bf
       -0.79136175 0.8145632 0.8164403 -1.7786771
0001e0 b6 fe 56 3e 84 97 73 3f a1 1d 06 3e 50 7f 49 bf
       0.20995602 0.9515307 0.1309724 -0.7870989
0001f0 30 54 fc be 49 44 d6 3e 04 05 78 bd 74 2c 49 3e
       -0.4928298 0.41848972 -0.06055166 0.19645864
000200 07 d7 cd bf 85 39 54 3e e9 3e 0c 3e 2a 0e 0e bc
       -1.6081246 0.20725067 0.13695873 -0.008670369
000210 86 1b 7f 3f 7b b7 a9 be 15 1e e4 3e 61 84 e9 3f
       0.9965137 -0.33147797 0.445542 1.8243524
000220 0b ce 53 3e ca 92 64 3f 98 9d 1d bf 01 73 e5 3d
       0.20684068 0.8928648 -0.61568594 0.11203576
000230 e4 48 87 3d aa 48 8c bf 1d 40 90 bf 10 46 7e be
       0.066057 -1.0959675 -1.1269566 -0.24831414
000240 de 8e 15 c0 1e 54 8b 3f ad 44 83 bc 14 1a af be
       -2.336845 1.0885046 -0.016023958 -0.34199584
000250 36 c8 93 bf 1a 61 0e 40 84 34 51 bf 83 fa 06 be
       -1.1545475 2.2246766 -0.8172076 -0.131815
000260 5a 29 af 3f f7 05 f1 be 0c 46 bd 3d fd a5 a9 3f
       1.3684494 -0.47074863 0.09241876 1.3253781
000270 66 61 aa bd 8d a5 88 3f b4 4e 4c 3f fd 04 ce bf
       -0.083193585 1.0675522 0.7980759 -1.6095272
000280 a8 54 d7 3e 05 19 9e bf 59 6f 29 3e a2 3b 6c 3e
       0.42056775 -1.2351385 0.16546382 0.23069623
000290 4c e2 10 bf a4 f1 83 be e8 62 48 bf dc 34 1c bf
       -0.565953 -0.25770295 -0.7827592 -0.61018157
0002a0 18 fb 8e 3f 94 90 3a 3f 34 c5 02 be 02 60 6b 3f
       1.1170378 0.7287686 -0.1277054 0.9194337
0002b0 e4 cc 03 bf f9 09 a2 bf dc 8e 7a bf 36 0c b5 bf
       -0.51484513 -1.2659293 -0.97874236 -1.4144351
0002c0 41 e7 73 be 30 a9 19 3d c2 80 97 3f 57 15 ac 3f
       -0.23818685 0.037514865 1.1836169 1.3444012
0002d0 f5 26 71 3f a2 77 a0 bf b9 fc 17 c0 8e ed dc 3e
       0.9420007 -1.2536509 -2.3748 0.4314999
0002e0 fe 9d fe 3f 2f bb cc 3e 98 56 d7 be 25 7b 6f 3f
       1.9891965 0.3998656 -0.42058253 0.9354728
0002f0 66 72 12 bf 30 ee da 3f c4 dd fa bf f2 34 c8 3c
       -0.5720581 1.7103939 -1.9598927 0.024439309
000300 9d 4d 88 bf e9 80 c0 3f 1d 1c eb bf 3c c4 01 40
       -1.0648686 1.503934 -1.8367954 2.0276022
000310 42 28 03 3f dc ee 7a bf ca 34 8d bf d0 25 27 3e
       0.51233304 -0.9802072 -1.1031735 0.16323018
000320 b6 77 f8 3d 2d 58 66 bf 80 81 9c 3e 1b 47 7f 3f
       0.12132208 -0.89978296 0.3056755 0.99717873
000330 32 6d 7d bf db 07 5d 3f 38 31 0e 3f ad 28 1b bf
       -0.98994744 0.8634011 0.5554385 -0.6060894
000340 7d 0a 8d 3f b6 87 13 bf d3 09 93 bf 07 1a 50 be
       1.1018826 -0.57628953 -1.1487373 -0.20322429
000350 49 f7 94 3f 3c 6b 1d 3d 56 75 48 3f 96 64 04 bf
       1.1637965 0.038432345 0.7830404 -0.5171598
000360 c3 90 8c bf 1d ec 7a 3f 44 29 ac 3f 1e dc 32 3f
       -1.0981678 0.9801653 1.3450093 0.6986712
000370 a6 49 ab bf 8f 7f cc 3d 63 ca 9d bf ba bb 81 bf
       -1.3381851 0.09985267 -1.2327389 -1.0135415
000380 6e b0 b7 3f 7a cb 41 3f f1 d6 e0 3e 65 9d 61 3e
       1.4350717 0.75701106 0.43913987 0.22032697
000390 c2 4c 67 3f 07 92 ef bf bf cc cd be 58 3f b3 bf
       0.903515 -1.8716439 -0.4019527 -1.4003706
0003a0 fa fe 9b 3f e5 9e 2f 3f e9 23 17 3e 3c 94 37 c0
       1.2187188 0.6860183 0.14759792 -2.8684225
0003b0 08 b5 2e bf cf 6f fa be 73 04 22 be 6d a6 9e 3d
       -0.6824498 -0.48913428 -0.1582201 0.07746587
0003c0 f2 89 04 bd 2c 3e 69 3f 63 49 17 40 bb a1 2f bf
       -0.032358117 0.9111049 2.3638542 -0.68606156
0003d0 50 49 10 bf a2 9f ba bf 41 48 55 be c5 e3 89 3f
       -0.56361866 -1.4579966 -0.20828344 1.0772635
0003e0 09 71 f7 be ea 6d 84 3f 9a bb ba 3f d4 1c 2a 3e
       -0.48328426 1.0346043 1.4588501 0.1661256
0003f0 de 63 96 3e 67 e2 9e be 4a 0a f5 be 74 00 24 3f
       0.29373068 -0.31032106 -0.47859412 0.6406319

conv1.1.kernel f4 [64, 1, 3, 3]
000000 6a 49 05 3f df 5e 86 3f c9 45 11 3f 24 9f d7 be
       0.52065146 1.0497702 0.5674711 -0.42113602
000010 c8 bd e3 3e 1f f1 bf 3f ff fd da bd 52 3d d6 3f
       0.4448073 1.4995459 -0.10692977 1.6737463
000020 ca 50 19 be f9 cf 3d bf 5d 8c 31 bf f8 c5 72 be
       -0.14972225 -0.74145466 -0.693548 -0.23708332
000030 05 01 a7 bf 17 53 43 bf 11 f7 13 3f be dd 56 bf
       -1.3047186 -0.7629866 0.5779887 -0.839321
000040 b9 af e0 be 7d bb ab 3f b8 41 ad 3f 96 7e a3 bf
       -0.43884066 1.3416592 1.3535681 -1.2773006
000050 d4 92 8a 3f ec 74 d4 be 49 8a 06 3f d2 77 89 bf
       1.0826058 -0.41495454 0.52554756 -1.0739691
000060 fe 0f b9 bf ee c3 26 bf 7d a8 88 3f 1a 5f 54 3f
       -1.4458005 -0.65142715 1.0676419 0.82957613
000070 2a 50 94 3e 3b 4a 08 40 fc 7e fb 3e e3 5d 26 c0
       0.2896741 2.1295307 0.4912032 -2.5994804
000080 28 45 f0 bb fd eb 35 3e 10 df 6e 3f 80 e0 8b 3f
       -0.007332463 0.17765804 0.93309116 1.0927887
000090 84 f9 f2 be 12 db e9 3e 72 68 d0 bd ea 90 11 bf
       -0.4745599 0.4567495 -0.10176171 -0.56861746
0000a0 84 1a 8b 3e d2 c6 a1 3e 87 e4 e2 bd 88 1b f0 bf
       0.27168667 0.31597 -0.110787444 -1.8758402
0000b0 35 5d ac be 00 fe ae bf 3f 28 0d c0 2f a2 8f be
       -0.3366486 -1.3671265 -2.2055814 -0.28053424
0000c0 52 78 c7 be 16 cb 89 bd 08 8e 01 bd b6 ba e2 3f
       -0.38958985 -0.06728189 -0.031629592 1.771323
0000d0 dc 5b f4 3f d4 97 54 bf 14 9a 49 c0 e3 34 cb bd
       1.9090533 -0.8304417 -3.1500292 -0.09922197
0000e0 84 cb b0 bf a1 6f b1 3f 95 41 18 3f 44 84 98 bf
       -1.3812108 1.3862191 0.5947507 -1.1915364
0000f0 ce 43 95 bf 19 e4 8c 3f 74 7b bc 3e d9 18 f5 3e
       -1.1661317 1.100711 0.36812937 0.4787052
000100 1c f1 ad 3f db 6b 59 3f a8 4b 42 3e 8c 86 bb 3f
       1.3589206 0.849302 0.18974173 1.4650435
000110 21 14 9f be aa 83 b6 3f 02 b9 2a 3f d4 60 42 3f
       -0.31070045 1.4258931 0.6668855 0.75929
000120 65 cc c8 bf 90 26 29 bf 41 e2 a5 3c 1a d0 20 be
       -1.5687376 -0.66074467 0.020249488 -0.15704384
000130 f3 72 ff 3f 14 f3 b0 bd d7 64 56 bf f6 88 c4 be
       1.9956955 -0.086401135 -0.8374762 -0.38385743
000140 f7 21 a2 3f f7 d4 ab bf e0 4e 30 c0 70 7d 9c bf
       1.2666615 -1.3424367 -2.7548141 -1.222578
000150 00 ae 17 bf 17 5b e2 be d6 c4 d9 3e 46 8d d8 be
       -0.5924988 -0.4421012 0.42532986 -0.42295283
000160 f1 cb 72 bf 5d 3e 9e bd c7 a3 b7 3f 0d 7f 1e 3e
       -0.9484244 -0.077267386 1.4346856 0.15478154
000170 de 5f 5e 3e 31 3f 8c 3f 2c 2f f4 3f 79 d8 aa bd
       0.21716258 1.0956784 1.9076896 -0.0834207
000180 7a 19 19 40 60 de d3 3f 06 2b 2a 3f 52 2e 2a 3f
       2.39218 1.6552238 0.664719 0.6647693
000190 a6 a1 32 be 73 34 e6 3e 30 5e 40 bf b0 d7 13 c0
       -0.17444476 0.4496189 -0.7514372 -2.3100395
0001a0 fa a4 a1 3f 85 16 81 be c4 2c d6 bd 88 fc b6 3e
       1.2628472 -0.25212494 -0.10457757 0.3573954
0001b0 8c bb 96 be 59 7a fa 3e f9 a6 7b 3b b3 6a 9f bc
       -0.29439962 0.4892147 0.0038399084 -0.019460058
0001c0 d4 12 13 3e c3 67 ef bd 10 50 06 3f 54 76 02 3f
       0.14362651 -0.11689713 0.52465916 0.50961804
0001d0 73 5d c0 3e 98 ec 00 40 58 02 f5 be 73 17 2c be
       0.37571296 2.0144405 -0.4785335 -0.1680582
0001e0 cc a0 29 bf d6 ed 15 40 12 20 4f 3f 78 8b 28 3f
       -0.6626098 2.3426414 0.8090831 0.6583781
0001f0 d4 ec 9e bf c5 a6 e4 bf b2 ba 96 3e 96 0d 00 40
       -1.2416024 -1.7863394 0.29439312 2.0008292
000200 78 6c 12 bf 26 ea 8d bf 51 dc 98 be ed a5 a8 bf
       -0.5719676 -1.1087081 -0.29855588 -1.3175637
000210 ce f5 64 bf f4 d8 db 3f 71 db ea bf b1 4a 2c 3e
       -0.8943757 1.7175584 -1.8348218 0.16825368
000220 a0 46 ea bf 27 b0 28 bf 86 e8 0d be 46 b8 0e 3f
       -1.8302803 -0.6589379 -0.13858232 0.5574993
000230 2e 3a 98 be f8 65 2c bf ed 14 79 3f a9 d2 b4 bf
       -0.29731888 -0.6734309 0.97297555 -1.4126788
000240 a0 69 8f 3f 61 e0 8d be 4a 95 85 bf fb 36 d1 3e
       1.1204109 -0.2771025 -1.0436184 0.4086226
000250 80 a4 ef be 76 1c 1d bd b0 ce d2 3e 90 dc ce 3e
       -0.4680519 -0.03835722 0.41173315 0.4040265
000260 76 6f bc 3f 7c 09 86 3f e3 22 85 be 1e 97 d3 3e
       1.4721515 1.0471644 -0.2600318 0.4132623
000270 d8 a5 0f be ee e4 c6 3f b4 c8 59 bf 3f 8c 0f c0
       -0.14028108 1.5538614 -0.85071874 -2.242935
000280 fa 8e 8c 3f b9 1c 21 be cf 12 64 bf 5d b6 e9 be
       1.0981133 -0.15733613 -0.890912 -0.45646945
000290 d1 51 02 bf 5e 9a 81 3f 7c 4e 76 3f 4a a0 e1 bf
       -0.5090609 1.0125234 0.9621351 -1.7627041
0002a0 09 4a b8 bc b1 ea 0d 3f 86 8c a6 bf f9 bc 3b 3f
       -0.02249624 0.55436236 -1.3011634 0.73335224
0002b0 1c 8c 40 3f 76 50 f9 3f ee ed 57 3e 25 28 f7 3f
       0.7521379 1.947768 0.21086857 1.9309126
0002c0 e6 19 c0 3f 86 b4 cd 3c d9 1c b0 3f 49 84 a3 be
       1.5007904 0.025110494 1.3758804 -0.31936863
0002d0 42 25 2b bd dd 29 19 3d 65 e1 b1 3f 84 7e 5f bf
       -0.04178358 0.03739344 1.389691 -0.8730242
0002e0 a4 f6 25 3d 6d 01 1c bf e7 e7 91 3f 12 a4 54 bf
       0.040518418 -0.60939676 1.1398896 -0.8306285
0002f0 71 4a 80 3f a1 46 1f 3f 81 ec 4c 3f 89 0b dd 3c
       1.0022718 0.62217146 0.80048376 0.02698304
000300 ae 21 6b 3f 81 97 34 3f b9 30 b1 3f fe 51 8f 3f
       0.91848266 0.70543677 1.3842994 1.1196897
000310 ea 64 7d 3f 5e 74 2e 3f ca 13 9d 3f 5a ff 86 3f
       0.9898211 0.6814631 1.2271664 1.0546677
000320 5a 2c fa 3e 3b 44 38 bf cc 1b 20 c0 43 0d 57 bf
       0.48861963 -0.7197911 -2.5016966 -0.8400461
000330 54 43 de 3f de 85 b6 bf f9 3e d8 3f 26 3b 9b 3f
       1.7364297 -1.4259603 1.6894218 1.2127426
000340 59 e5 87 3d b1 5f 24 be a0 0b 49 3e bd 6b 58 3f
       0.066355415 -0.16052128 0.19633341 0.84539396
000350 b0 54 b8 3f 5c 94 d4 3f c0 58 d2 bf d3 c8 95 3f
       1.4400845 1.6607776 -1.6433334 1.1701912
000360 1c ee aa 3e 8b bf a1 bf 14 a4 28 3e 4c 55 82 3e
       0.33384788 -1.2636579 0.16468841 0.254557
000370 5f 2d 80 3e 0a b4 c8 bf 38 ea a1 3f 42 55 55 be
       0.25034615 -1.5679944 1.2649603 -0.20833305
000380 21 ba a2 3f 58 7e d4 3e c9 52 3d 3d 1e c5 8b 3f
       1.2713052 0.41502643 0.04622153 1.091953
000390 0a 10 7d 3f 1d 42 25 bf 90 4c 82 be 02 31 e4 be
       0.988526 -0.64554006 -0.25449038 -0.4456864
0003a0 ad f0 9e 3f 04 67 fa be e4 91 5b bf a0 dd 43 bf
       1.2417198 -0.4890672 -0.85769486 -0.7651005
0003b0 d8 69 09 bf d2 e6 95 bf d5 ca 21 3f 0f 61 18 3d
       -0.5367713 -1.1711066 0.6320012 0.037201937
0003c0 b9 17 af 3e 3d 0c d1 be 89 dc 6d 3d a6 f9 5c 3f
       0.34197786 -0.4082965 0.058071647 0.86318433
0003d0 87 93 42 3d 4d f1 2c 3f 50 98 bd 3e 87 ed 3e bf
       0.047503974 0.67555696 0.37030268 -0.7458119
0003e0 1f d7 55 bf 38 74 da 3f c0 93 8c 3e 2a 75 b7 3f
       -0.83531374 1.7066717 0.27456474 1.4332631
0003f0 ad 2c 57 3f ca 17 3c 3d b4 a7 4f bf 89 9e 22 3e
       0.84052545 0.045921125 -0.8111527 0.15880789

conv1.2.kernel f4 [64, 1, 3, 3]
000000 b5 e1 bb bf e9 82 16 bf b4 ed 4e 3f 35 ba ce 3e
       -1.4678255 -0.58793503 0.80831456 0.4037644
000010 b8 10 39 bf 2f 4f 9b bf 87 0d 91 bf d9 5e df 3f
       -0.72291136 -1.213354 -1.1332253 1.745082
000020 5c 21 5c bf c9 50 21 bf 88 0b 89 3d 63 96 cb bf
       -0.859884 -0.63013893 0.066916525 -1.5905269
000030 d8 10 1a 3f 7c 10 d6 be 7a f5 39 3f 37 25 5b bf
       0.6018195 -0.41809452 0.7264019 -0.8560366
000040 de aa 4a be db 6c 98 bd 0c 67 12 bf ff 28 c5 bd
       -0.19791743 -0.074426375 -0.5718849 -0.0962696
000050 52 95 24 bf 79 12 2e 3f 31 76 42 3f 89 b4 24 bf
       -0.64290345 0.6799694 0.75961596 -0.64337975
000060 bb 83 59 bf 0b 70 5e bf 80 cc 19 3f 9c af 79 3f
       -0.8496663 -0.86889714 0.6007767 0.97533584
000070 4e 43 83 bf 2a 25 13 bf c5 d3 54 3e f0 53 c9 be
       -1.0254915 -0.5747858 0.20783909 -0.39321852
000080 35 af 2f bf 87 61 34 bf 4f 74 ab bf 85 87 a5 bd
       -0.6862672 -0.70461315 -1.339487 -0.08082489
000090 6f 1a 18 3f 8b e9 92 3d 89 2b e7 3e 8f fd 0d 3f
       0.59415334 0.07173451 0.45150402 0.55465025
0000a0 c3 16 1b 3e 08 da c9 3f 0e 06 49 3e 78 c2 cd bf
       0.15145402 1.5769663 0.19631216 -1.6074972
0000b0 36 6b 47 be c3 16 18 3e 98 9c 2a 3f fc e6 aa 3f
       -0.19474491 0.14852433 0.66645193 1.3351741
0000c0 d6 6f 4a be 80 eb 14 3e e7 44 06 3f c9 56 4c 3f
       -0.19769225 0.14542961 0.52448887 0.79819924
0000d0 5c 47 59 3f 98 86 98 3e f9 88 83 bf 3f 3b b6 be
       0.8487451 0.29790187 -1.0276176 -0.35592076
0000e0 16 cf dc 3f a6 c4 cb 3d 8d 9b 16 3f cd 51 05 3f
       1.7250698 0.09949617 0.588311 0.52077943
0000f0 cf 4f 61 3f 80 ec 8e 3d 2c 73 7d 3e a8 99 58 bd
       0.88012403 0.069787025 0.24750966 -0.052880913
000100 80 9b 93 be 3f ee 04 40 27 bf 71 3f 9e 20 8a bd
       -0.28829575 2.0770414 0.944323 -0.067445025
000110 53 b0 4f be e6 3e 8d 3f 99 ac 24 be 6a a6 60 3f
       -0.20282106 1.103482 -0.16081466 0.8775393
000120 3f b5 89 3f b8 e1 f1 bf 0e 9d 4b bf d9 fa f2 3d
       1.0758437 -1.8897009 -0.7953652 0.11864252
000130 40 7b ab bd dc 8b ae 3f 11 3e 57 bf cc 75 2a 40
       -0.083731174 1.3636432 -0.8407908 2.6634398
000140 88 b7 c9 bf ae 94 6c bf da 42 9d bf ba 3b a2 3f
       -1.5759134 -0.9241437 -1.2286026 1.2674477
000150 57 4b ca be f3 dc ce 3e 07 32 04 bf 18 36 43 3f
       -0.39510605 0.40402946 -0.51638836 0.76254416
000160 53 51 64 3f 23 fc 0c 3f 4c 28 e6 3f f7 48 c0 3e
       0.8918659 0.5507223 1.7981048 0.37555668
000170 1e 34 ab 3f a8 c4 12 3e 81 92 c4 3e ad da ec be
       1.337528 0.14332831 0.38393024 -0.46260586
000180 13 ff 75 bf fa 53 81 3f 93 24 a1 3f b0 61 59 c0
       -0.9609234 1.0103753 1.2589287 -3.3965874
000190 27 35 ec 3e c6 a1 92 bf d8 b8 05 3e df f8 47 bf
       0.46134302 -1.1455619 0.13058794 -0.7811412
0001a0 01 14 b4 bf 01 b9 11 be 46 ad 18 bf 4f 6b d4 bf
       -1.4068605 -0.1423073 -0.59639394 -1.6595248
0001b0 05 4f 05 be 5f c6 c4 bf f4 f9 f1 3e b5 39 e7 3d
       -0.13018425 -1.5373038 0.47261012 0.112903036
0001c0 d1 5d 70 3f b5 74 ee 3e dc 78 19 3e e5 0e 4c 3f
       0.9389315 0.46573415 0.1498751 0.7971023
0001d0 7c 86 21 3f 8b 24 7b be 7c 46 91 bf e6 b0 05 40
       0.6309583 -0.24525659 -1.1349635 2.088922
0001e0 95 c8 a1 bf 61 ed 66 bf 41 10 7c 3e 22 24 d5 3e
       -1.2639338 -0.9020596 0.24615575 0.4162913
0001f0 49 8e 35 3f 6e bf f4 bf cd 84 b2 bf f9 40 4e bf
       0.70920235 -1.912092 -1.3946778 -0.8056789
000200 87 15 ab 3e 39 33 04 3f a5 e9 90 bf 16 97 55 bf
       0.33414862 0.5164066 -1.1321303 -0.83433664
000210 1d 77 02 c0 bb 4a 7e 3f 89 05 0e c0 3f 12 69 3f
       -2.03852 0.9933278 -2.2190878 0.91043466
000220 28 3b 4e 3f 3a 18 80 3f e4 7f 28 bf 96 fb 8e 3f
       0.80559015 1.0007393 -0.65820146 1.1170528
000230 af f0 5f 3f 06 59 7f 3f 80 8b 1c bf 38 82 47 bf
       0.8747663 0.99745214 -0.6115036 -0.77933073
000240 bc e3 49 3f a5 d8 97 bd 2e 57 04 3f f1 9e 3f 3e
       0.7886312 -0.074143685 0.51695526 0.18712975
000250 95 9e 02 bf a8 aa b0 3f 9b 37 e9 3c ed 67 45 3f
       -0.51023227 1.380208 0.028468898 0.77111703
000260 2a 4b a1 bf c7 88 d2 3e d9 60 8d 3c be c3 83 3d
       -1.2601063 0.41119978 0.017258095 0.06433819
000270 68 73 95 3e b0 60 d3 be 9c 29 c3 3f ba 92 66 bf
       0.2918961 -0.41284704 1.5247073 -0.90067637
000280 0f 56 b7 be 57 d3 7b 3f 72 e7 80 3e 89 86 fb 3e
       -0.35807845 0.98369354 0.2517658 0.4912608
000290 60 cb 8d 3f f7 9a c1 3f 9f 6d 12 40 e0 b1 45 3f
       1.107769 1.5125417 2.2879407 0.7722454
0002a0 44 19 8c 3f c1 84 7e 3f 42 39 21 3f a7 0c 4c bf
       1.094521 0.99421316 0.62977993 -0.79706806
0002b0 57 23 53 bf e4 ff 99 bf 37 78 e1 3e db ee 50 3c
       -0.824758 -1.2031217 0.4403703 0.01275226
0002c0 7f ea 7b 3e b6 70 d9 be 5a fa 70 3f a3 80 13 c0
       0.24601172 -0.42468804 0.94132006 -2.3047264
0002d0 3f dc 9f 3f 24 46 61 bf 9c 23 51 be d0 1f 82 3f
       1.2489089 -0.8799765 -0.2042374 1.0165958
0002e0 34 74 0d 40 d7 c6 47 3e c8 c0 12 3f 55 e1 ee bf
       2.2102175 0.19509445 0.5732541 -1.8662516
0002f0 3e ad dc 3e dc 80 fe 3d 3c a1 7b bf 4f 62 98 bf
       0.43100923 0.12426922 -0.982929 -1.1905001
000300 67 71 87 3e ee 28 d5 3e b9 e0 14 3f 68 df 08 3f
       0.26453707 0.4163279 0.581554 0.5346589
000310 f6 6f 11 bf b2 d9 55 bd 45 5c 80 bf 63 a9 32 bf
       -0.56811464 -0.052209564 -1.0028158 -0.69789714
000320 2a f2 f1 bf 08 82 af 3f 02 e5 a5 3f ba 59 2e 3e
       -1.8902028 1.3711557 1.2960513 0.17026415
000330 f9 4c fb bf 60 a8 0d c0 a9 fa eb 3d a1 15 5b bf
       -1.9632865 -2.2134018 0.11522419 -0.8557988
000340 ce 89 2e bf 08 73 2b bf 0e 12 ba 3f c5 f8 a2 bf
       -0.68179023 -0.669724 1.453676 -1.2732168
000350 95 c3 43 3d 2f 43 f6 bf b3 2d c7 3c 2b 64 8d 3f
       0.047793943 -1.9239253 0.024313783 1.1046194
000360 33 40 7d 3f ec 90 0f be 2e 6f 87 3f 50 5f 92 be
       0.98926085 -0.14020127 1.0580804 -0.28588343
000370 bf f3 fb 3f 2c 79 59 3d 55 5e b1 bf 50 6d af 3f
       1.968376 0.053094074 -1.3856913 1.3705235
000380 f2 29 be 3f f4 dd b7 be 37 e9 04 bf a6 a3 33 bf
       1.4856551 -0.35911524 -0.5191836 -0.7017158
000390 bb 7f 54 3f 87 ae 47 bf 33 6f c9 3e 2e 34 21 3f
       0.830074 -0.7800068 0.3934265 0.62970245
0003a0 78 f5 90 3c 9d 28 0a bf 5b ea 9a 3f 67 7b 4d 3e
       0.017695174 -0.5396822 1.210277 0.20066606
0003b0 17 2f a7 3f b9 c5 29 3f 16 6a ac 3e 68 30 2d bf
       1.3061246 0.66317326 0.33674687 -0.6765199
0003c0 4c 57 3e bf 8c f8 8a 3e ae 5a 21 3f 16 56 73 bf
       -0.74351954 0.2714275 0.6302899 -0.9505323
0003d0 9e f8 53 bc aa bf a6 bd ea 6f cd be b2 9a 3d 3f
       -0.012937693 -0.08142026 -0.40124446 0.7406417
0003e0 a2 98 2d c0 0d fc ce 3d 0a 9f 3b bd 77 57 de be
       -2.712441 0.101066686 -0.04580597 -0.43426105
0003f0 8d 5e b8 3e 54 85 96 be c6 e5 81 bf 3e 1f f7 be
       0.36009637 -0.29398596 -1.0148246 -0.48266023

conv1.3.kernel f4 [64, 1, 3, 3]
000000 d4 56 c4 bf dd 16 57 3f de f1 b1 3d 14 72 97 bf
       -1.5338998 0.8401926 0.08688711 -1.1831689
000010 78 d9 be be b6 eb d7 bf b9 e0 06 be ae 78 c4 3e
       -0.3727529 -1.6868808 -0.13171662 0.3837332
000020 10 27 c0 bf 24 a8 aa bf b8 ed e0 3e 7c e0 c1 bf
       -1.5011921 -1.3332562 0.43931365 -1.5146632
000030 33 36 b2 bf 32 67 48 3f 8b 6a 01 3f 7a 6f ee bf
       -1.392279 0.78282464 0.50553197 -1.862777
000040 21 bc 20 bc a3 63 2d 3b 57 61 83 3e 1e aa ea 3f
       -0.009810478 0.0026457093 0.25660202 1.8333166
000050 63 7b 2e bf e9 33 fb be 99 d8 9c 3f 42 57 e3 3f
       -0.68157023 -0.49063042 1.22536 1.7761004
000060 47 9e df 3f f3 a4 05 40 65 ca d6 be 6f f8 e6 3f
       1.7470177 2.0881927 -0.4195129 1.8044566
000070 2e df 18 3e e3 db 34 bf d8 a1 8c bf db 1c 88 3e
       0.14928886 -0.7064802 -1.0986891 0.26584515
000080 a9 d2 05 bf 81 80 52 be 54 48 44 3f 75 0b b5 be
       -0.52274567 -0.20556833 0.76672864 -0.35360304
000090 47 9d 40 bf ee f5 6f bf 0b d1 1a 40 a9 bd f7 3f
       -0.75239986 -0.93734634 2.419009 1.9354755
0000a0 c9 b4 d9 be 64 45 76 bf 69 5a 8d bf 05 1c 6d bf
       -0.4252074 -0.9619963 -1.1043216 -0.9262088
0000b0 fb 49 65 3f 6f 8a 2b be 26 9d 98 bf b5 53 8c bf
       0.8956601 -0.16752027 -1.1922958 -1.0963045
0000c0 e6 de da 3d 09 66 f7 3d 65 a3 86 3e af 02 cf bf
       0.10687046 0.120800085 0.26296535 -1.6172694
0000d0 f0 c3 03 3f 13 c3 8c bf ed e6 41 bf 77 a5 7b 3d
       0.5147085 -1.0997032 -0.7574299 0.061437096
0000e0 26 80 fb bf b9 3d 64 bf 49 c6 b4 3e 7d 3d 03 3f
       -1.9648483 -0.8915668 0.3530753 0.512657
0000f0 3e 64 73 bf 4b 07 39 3f b2 41 6d bf b4 df 9b be
       -0.9507483 0.72276753 -0.9267837 -0.3044411
000100 38 9c 51 3f e2 90 1d 40 a6 d4 70 3e 3c 8e 9f 3f
       0.81878996 2.461968 0.23518619 1.2465281
000110 88 25 09 bf 80 6f 08 3f 8c e6 27 bf f2 b0 bf 3f
       -0.53572893 0.53295135 -0.6558616 1.4975874
000120 ab cf ac 3f 8b e6 d3 be 32 6e 53 3f 31 97 9c bf
       1.3500875 -0.41386828 0.8259002 -1.223364
000130 13 4b 06 bf 08 62 4b 3f 61 96 48 bf 56 dd af bf
       -0.52458304 0.7944646 -0.7835446 -1.3739421
000140 8c e7 35 bf 42 04 9c bd e2 b7 d3 be b5 16 19 3f
       -0.7105644 -0.076179996 -0.4135123 0.59800273
000150 3e 3c 15 3f 50 79 f2 3e 83 03 b8 3e e9 46 4a be
       0.5829505 0.4735818 0.3594018 -0.19753613
000160 00 37 49 bf f7 d9 9f 3f 36 04 9c 3f 4c f7 05 bd
       -0.7859955 1.2488393 1.2188785 -0.032706544
000170 75 7d a7 3f b7 1f 58 bf e6 5c 35 3f 4b 4c d1 3e
       1.3085161 -0.84423393 0.70844877 0.4087852
000180 ce 6b 60 be a2 30 67 3f 33 2d 82 3f 3f d2 3f bf
       -0.21916124 0.9030858 1.0170044 -0.74930185
000190 14 5b 98 bf f5 c9 c4 bf d5 06 4c 3f d9 2b 0e 3f
       -1.1902795 -1.5374132 0.79697925 0.55535656
0001a0 a7 3f 70 3f a6 e4 58 3e 85 1e 05 c0 41 05 7d bf
       0.93847126 0.21180972 -2.0799878 -0.9883614
0001b0 e4 cb 55 3e 46 6f af 3c 84 7c e1 be b6 25 20 3e
       0.2087856 0.021415364 -0.4404031 0.15639386
0001c0 99 11 71 bf 63 0d 45 3e 89 9b 8a 3f 94 1c c4 3f
       -0.94167477 0.19243388 1.0828716 1.5321221
0001d0 75 ce 3d 3f f7 71 13 3f 10 b9 2b bf 2a fe d5 3e
       0.74143153 0.5759577 -0.6707926 0.41795474
0001e0 ab 6e eb 3f 20 1e 49 bf 1a e4 b5 be 60 4d f9 be
       1.8393148 -0.7856159 -0.3552559 -0.48691845
0001f0 99 ad 37 bf 66 76 7a bf 4f db a3 3d 06 c4 32 3e
       -0.71749264 -0.9783691 0.08000814 0.1745759
000200 6f d3 12 3f cb 97 76 3f ee 1d a1 3f d0 3d ef 3d
       0.5735387 0.9632537 1.2587259 0.11681712
000210 a2 dd 82 3f ae 07 a6 3d 45 3c f7 3f 31 79 58 3d
       1.0223887 0.081069335 1.9315268 0.052849952
000220 96 71 f8 3e b9 8f 4c 3f c2 e3 01 bf 77 80 0a bf
       0.4852416 0.79906803 -0.50738156 -0.5410227
000230 da 46 3f 3f 0a eb 8f 3d 61 45 91 bf f8 25 cb 3f
       0.74717486 0.07027252 -1.1349298 1.5870962
000240 fe 8b f3 be 13 a6 e1 3e d5 ec 20 3f f3 b6 1c 3e
       -0.47567743 0.44072017 0.62861377 0.15304165
000250 df 68 3b bf 49 3c a3 bf 47 30 9a be e5 5c 4d 3f
       -0.73206896 -1.2752773 -0.30114958 0.8021987
000260 1d 34 65 3d 96 70 42 be 3e 9b 03 3f 88 63 a5 bf
       0.055957902 -0.1898826 0.51408756 -1.2921
000270 55 d6 6a bf a4 7d d3 be 91 41 c5 be a4 d8 c1 bd
       -0.91733295 -0.41306794 -0.38526586 -0.09465149
000280 cf 27 c9 3e d1 8a 25 3e 85 8b 46 be 63 ca 69 3f
       0.39288184 0.16166236 -0.1938916 0.9132444
000290 a1 46 98 bf ab 93 12 3e 39 43 8a 3e 08 95 bd 3e
       -1.1896554 0.14314143 0.27004412 0.37027764
0002a0 0d 34 ac 3e fc 09 97 3f f8 81 7c bf 5a 04 07 bf
       0.33633462 1.1799922 -0.98635817 -0.52741015
0002b0 5e a6 54 bf fc 3f cb bf f1 89 40 3f da e0 03 c0
       -0.83066356 -1.5878901 0.7521048 -2.0605989
0002c0 87 6c d5 3f 88 a2 ec bf 05 4b 31 3f 05 0c aa bf
       1.6673745 -1.8487101 0.69255096 -1.3284918
0002d0 ab 65 b8 3e 6e f0 59 3f b8 24 fb 3d 6e 8e aa be
       0.36015067 0.8513249 0.12262863 -0.3331179
0002e0 9f 29 b3 bc b0 7e d6 3e 92 a1 29 c0 52 8c b4 3f
       -0.021870432 0.4189353 -2.6504865 1.4105322
0002f0 63 a9 21 3f bb 08 9b 3f 55 c0 c2 bf 9f d8 ea bf
       0.6314909 1.2112039 -1.5214945 -1.8347358
000300 73 4a 5b be 8f 49 05 3f 4f e9 59 3e 50 80 ac bf
       -0.21415119 0.52065367 0.21280406 -1.3476658
000310 8a 45 e1 be 6f 5a 70 3e 4e 4c bb 3f d5 b8 27 3f
       -0.43998367 0.23471998 1.4632661 0.65516406
000320 a0 84 2a bf 6e e2 e2 bf 63 f0 a4 3f 72 f3 20 be
       -0.6660862 -1.7725351 1.288586 -0.15717867
000330 37 d9 04 3f a4 12 a0 bf 2e 8e 4e be 8d 79 e9 3f
       0.51893944 -1.2505689 -0.20171425 1.8240219
000340 31 a4 69 bf e3 cc 9b 3d 90 71 1c 3f 3b 6b 5f 3f
       -0.9126616 0.076074384 0.6111078 0.87272996
000350 f7 82 2d 3f 9a 87 45 40 58 7a 2a 3f 35 21 e5 3f
       0.6777796 3.0864015 0.6659293 1.7900759
000360 fc 16 dd bf 77 7a 27 3e 14 98 64 bf f0 0f db bf
       -1.7272639 0.1635531 -0.8929455 -1.7114239
000370 53 e3 0d bf d4 c6 90 be b0 77 9f bf c4 0b 5e be
       -0.55424994 -0.28276694 -1.2458401 -0.21684176
000380 8e e4 d1 3d 1c 4c af be 42 63 28 3f b8 29 be 3f
       0.102486715 -0.34237754 0.65776455 1.4856482
000390 4d 8f 16 3e 72 a0 9b 3f 63 6d ab 3f 88 57 3f bf
       0.14703102 1.2158339 1.3392757 -0.7474294
0003a0 e4 83 a2 3e f7 62 23 3e f2 a1 90 bf 18 97 a8 3f
       0.3174125 0.15955721 -1.1299422 1.317111
0003b0 31 ed 93 bf d6 71 ca bf 5a 30 3e bf 20 d2 ae 3d
       -1.155676 -1.581599 -0.7429253 0.08536172
0003c0 37 45 0f bf f7 5f 0c 3e 2d fd d7 be d3 6b 9c be
       -0.5596499 0.13708483 -0.42185345 -0.30551013
0003d0 73 dd 6a be 91 d5 78 3e 45 2d c3 bf 9b ac bc 3e
       -0.22936039 0.24300219 -1.524819 0.36850438
0003e0 9d d3 01 c0 c3 0b f9 be 34 41 92 bf 3e 3f 36 3f
       -2.0285408 -0.48641786 -1.1426148 0.7119025
0003f0 16 53 4b bf 65 97 a4 bf 74 a9 8c 3e 0e e7 e5 be
       -0.79423654 -1.2858702 0.27473032 -0.44902843

conv1.4.kernel f4 [64, 1, 3, 3]
000000 06 39 4e c0 83 05 8b 3f 63 98 35 3f 49 9f c4 bf
       -3.2222304 1.0861057 0.7093565 -1.536111
000010 45 dc 8a be 80 ca 11 bf 1a 00 07 3f 00 12 c7 3f
       -0.27121177 -0.56949615 0.5273453 1.5552368
000020 a3 f2 fe be 99 e7 09 3e 7f d9 52 3f d6 22 52 3c
       -0.49794492 0.13467254 0.8236312 0.012825688
000030 ed 13 13 3f 82 01 cf bc 62 c6 fe be 0f 9e 69 bf
       0.5745228 -0.025269274 -0.4976073 -0.91256803
000040 a6 6d be be 7e 90 9a bf 50 a0 a8 3f d2 c7 3d 3d
       -0.3719303 -1.2075346 1.3173923 0.04633314
000050 06 cc 82 bf 16 f0 ce bd 45 b7 8f 3f e8 69 ce bf
       -1.0218513 -0.101043865 1.1227804 -1.612607
000060 1b af 5b be 18 fd 7c be 1a b9 59 3e e4 c9 b4 bf
       -0.21453516 -0.24705923 0.21262017 -1.4124112
000070 76 5b a1 bf 76 da 9b 3e 63 5d 14 40 7d c2 70 3f
       -1.2606037 0.3044011 2.3181999 0.94046766
000080 18 e9 06 bf a3 b8 90 bf 9b 76 db 3e af 94 3f bf
       -0.5269942 -1.1306347 0.42863926 -0.7483625
000090 9e 0e 0e c0 10 1c 8f 3f ee 20 33 bf d1 57 63 3f
       -2.2196422 1.1180439 -0.6997212 0.8880587
0000a0 25 9b 05 be 2e 54 bd be 09 91 a3 bf ad 59 3f bf
       -0.13047464 -0.36978287 -1.2778636 -0.7474621
0000b0 3d 18 d3 3e 5c d6 cf bf 8b 2f 1f 3e 94 88 65 bf
       0.4122943 -1.6237292 0.1554548 -0.89661527
0000c0 a2 6d c1 3f 92 22 f9 3f 73 e3 20 3f ea d5 20 40
       1.5111582 1.9463675 0.6284706 2.5130563
0000d0 5d e6 75 be c7 87 a1 3f 3a 4b bb bf d5 ab c6 3f
       -0.24013658 1.2619561 -1.4632332 1.5521189
0000e0 1b 63 7e 3e 26 4f 8c bf c0 b5 05 bf bf af 1b bf
       0.24842493 -1.0961654 -0.52230453 -0.6081504
0000f0 92 11 9e 3f 55 59 dd 3f 29 80 e1 3f 2b 42 d4 bf
       1.2349112 1.7292887 1.7617236 -1.6582693
000100 75 d3 c0 bf 03 6f bf 3f 5f d0 78 be a9 79 19 3f
       -1.5064532 1.4955753 -0.24298237 0.59951264
000110 48 5e 17 bf 36 17 f5 be 89 1b 1b 40 d4 f5 06 be
       -0.59128237 -0.4786927 2.4235556 -0.13179713
000120 7f fd 0f bf 26 3d 85 3f 61 68 8e 3f 83 5f 33 3f
       -0.5624618 1.0409286 1.1125604 0.70067614
000130 46 b0 bd 3f 59 27 f6 be 40 9a 20 bf 6e cc b2 3d
       1.4819419 -0.48076895 -0.62735367 0.08730398
000140 64 b0 f1 be c5 a5 4e bf 75 d9 51 3e 34 b4 2c 40
       -0.47204888 -0.80721694 0.2049311 2.6984987
000150 4b ca 6b 3f 33 dd 1e bf 1f ae a1 3f e1 46 0a bf
       0.9210555 -0.62056273 1.2631263 -0.540144
000160 e4 c5 72 be 40 0c b1 3e 74 9f e6 3e f9 75 0a 3d
       -0.23708302 0.34579659 0.45043528 0.033803914
000170 3f bd dc be 09 62 2c bd 6e 35 9f 3e 9d 0c 60 3f
       -0.43113133 -0.04208568 0.3109545 0.87519246
000180 50 f6 a6 be 07 c0 09 3c 80 9c e5 3f 6c c4 75 3f
       -0.32609797 0.008407599 1.7938385 0.9600284
000190 c2 36 a6 bf 43 91 17 bf 63 9f d1 bd f2 9b dd be
       -1.2985461 -0.59206027 -0.10235479 -0.4328304
0001a0 bb f8 90 bf c8 92 55 3e 95 42 42 3f 3d a0 3e bf
       -1.1325907 0.20856774 0.75882846 -0.74463254
0001b0 46 41 92 bf a7 02 8d 3f 96 90 da 3e 7a 2b 57 3f
       -1.142617 1.1016434 0.42688435 0.84050715
0001c0 87 43 14 3e 53 bb b1 3f 02 cf 44 3f bb 0d 2e 40
       0.14478885 1.3885292 0.7687837 2.719588
0001d0 fa 3c f8 3d 19 af 09 bf 4c 80 36 3f 67 91 7c 3e
       0.12121005 -0.537828 0.71289515 0.24664842
0001e0 6d 19 a2 bd b9 0f ad 3f ec 04 43 be 80 e4 92 bf
       -0.07915006 1.3520423 -0.19044846 -1.1475983
0001f0 40 10 b7 3e 38 9a 27 3e 9c 57 d2 3f e1 71 d8 3f
       0.35754585 0.16367424 1.6432986 1.6909753
000200 a1 b1 20 be 7f e9 d6 3f 5b 99 a3 3e aa 88 d2 bf
       -0.1569276 1.6790007 0.31952938 -1.6447957
000210 09 f3 77 bf f6 1e c6 bf a7 41 87 3f 8b 34 04 40
       -0.9685522 -1.5478199 1.056691 2.065707
000220 69 d5 5e be d2 74 65 3d 9c 11 70 bf 68 c6 26 bf
       -0.21761097 0.05601961 -0.9377687 -0.65146494
000230 2a f5 9f 3e 04 75 95 3f c4 e9 1d be 07 c8 79 bf
       0.31241733 1.1676335 -0.15421206 -0.9757084
000240 8d e8 ae bd aa a8 0f 3f c3 93 3f 3f a7 80 14 bf
       -0.08540449 0.56116736 0.7483484 -0.5800881
000250 fa c4 fa be 2c 78 23 c0 bf b6 b5 3f e2 9f f7 bd
       -0.48978406 -2.5542097 1.4196395 -0.12091042
000260 dc 50 50 be 87 2a 98 be bb 46 f8 bd 64 e2 ed be
       -0.20343345 -0.29719946 -0.12122866 -0.46461785
000270 8a a3 97 3e 50 00 7d bf 7c 76 63 3f 65 ff b8 3e
       0.29616958 -0.988286 0.8885267 0.3613235
000280 15 93 e6 3e fd 22 98 3e a0 69 48 3f c8 b0 bb 3e
       0.4503409 0.29714194 0.7828617 0.3665831
000290 b2 e0 2c bf 74 60 3a bf 02 15 a1 3f e2 2b ef 3d
       -0.6753036 -0.72803426 1.2584536 0.11678292
0002a0 ac 64 9f bf e8 af 43 3f 21 5e ad 3f 02 f0 cb 3f
       -1.2452598 0.76440287 1.3544351 1.593262
0002b0 28 42 d6 3d 2c 49 ff be 68 fb 18 c0 74 c5 8a 3f
       0.10461837 -0.49860513 -2.3903446 1.0841508
0002c0 50 24 53 3d bb 72 23 3f eb 80 c9 3d 48 d9 50 bf
       0.051548302 0.6384694 0.09839042 -0.81581545
0002d0 e6 27 80 bf 30 10 8c bf c3 cb 57 3f 10 54 f2 3f
       -1.0012176 -1.094244 0.8429529 1.8931904
0002e0 0a 62 eb be 63 bf 15 bd 8f aa 37 bf ce 71 85 bf
       -0.45973235 -0.036559474 -0.71744627 -1.0425355
0002f0 05 2b 46 40 ba d6 1e bf 27 c2 ea be 36 ce bf bf
       3.0963757 -0.62046397 -0.4585125 -1.4984806
000300 f0 a3 96 3f 92 44 df 3f c2 56 0d 3f c3 d1 a1 3e
       1.176878 1.7442801 0.55210507 0.31605348
000310 1e b3 33 3f 50 fb 05 bf e2 62 e0 bd 17 32 08 bf
       0.70195186 -0.523366 -0.109563604 -0.5320143
000320 38 a2 d5 be 1e d2 c9 3f 77 75 85 bf be bf 02 3f
       -0.41725326 1.5767248 -1.0426472 0.51073825
000330 e5 64 f7 3f f2 78 98 3e 8f 15 df bf 9d fc af bd
       1.9327666 0.29779774 -1.7428454 -0.08593104
000340 70 c9 a4 bf 96 81 0e bf 71 3e 64 3e c3 c5 02 c0
       -1.2873974 -0.5566648 0.22289445 -2.0433204
000350 ca ab 25 3d 92 b1 b4 3f b8 3a 02 bf a4 63 a6 bd
       0.040447034 1.411669 -0.5087085 -0.08124474
000360 a7 9d 05 bf 4e 88 f5 bd 57 2d 8f 3f 04 53 43 bf
       -0.52193683 -0.11988889 1.1185712 -0.76298547
000370 5c 44 d3 bd ea a1 57 3f f8 61 00 3f 84 dc a1 3f
       -0.10315773 0.84231436 0.5014949 1.2645421
000380 89 ef d4 bf 5c c5 5f 3f 85 6f 18 bf 47 e0 13 3f
       -1.66356 0.8741052 -0.59545165 0.57764095
000390 fa cd 4e be e3 8b d1 bf 78 de 90 bf 6d bc 71 3d
       -0.20195761 -1.6370815 -1.1317892 0.059017587
0003a0 ae ad b3 be ca 32 b8 bd af 4b ea be 53 d9 1d 3d
       -0.35093445 -0.08994062 -0.45760867 0.038537335
0003b0 a5 f8 c2 3e 1c 15 d9 3f a2 68 ad bd f3 3a 94 bd
       0.38080326 1.6959567 -0.08467223 -0.07237806
0003c0 d0 bc 63 be 67 71 32 3f bb 36 9f be 58 56 a1 3f
       -0.22239995 0.6970429 -0.31096444 1.2604475
0003d0 18 0e 9b bf 31 d9 ec 3f d3 83 b1 be 12 a6 61 3f
       -1.2113676 1.8503782 -0.34670886 0.8814403
0003e0 e8 e1 6c 3f da 80 11 3f 44 cf 18 3f d3 9c 69 bf
       0.92532206 0.56837237 0.5969126 -0.9125492
0003f0 46 a0 a5 bf 00 48 83 3f b1 1e b4 bf 75 47 87 3f
       -1.2939537 1.0256348 -1.4071866 1.0568682

conv1.5.kernel f4 [64, 1, 3, 3]
000000 8d 7a fe 3f 6e f1 8a bf 05 97 31 be 30 9a e7 bd
       1.988115 -1.0854928 -0.17342766 -0.11308706
000010 bb 3e 8a 3d 13 db 7d 3f 16 24 94 3f 4d 9f cd bf
       0.06750246 0.99162406 1.1573513 -1.606424
000020 1a ee 7f bf 48 a0 2b 40 a0 95 a1 bd 95 3c c5 3f
       -0.9997269 2.6816578 -0.07889867 1.5409113
000030 cb 68 86 3f 3a 64 26 3c ab 43 89 bf 65 b4 b7 3d
       1.050073 0.010155732 -1.0723776 0.089699544
000040 cb 28 45 3f db a1 22 bf 2f 0b af bf 13 e8 c7 3f
       0.7701537 -0.6352822 -1.3675288 1.5617698
000050 85 63 51 be 0b 5c 80 3e 12 a5 28 be 35 cd 54 3f
       -0.2044812 0.25070223 -0.1646922 0.8312562
000060 e0 71 a7 be 2d 56 36 3e da e1 5b bf c6 47 c7 bf
       -0.32704067 0.17806311 -0.858915 -1.5568779
000070 e7 9c 2d 40 62 ea 38 bf 86 22 af bf 61 6f 87 bf
       2.7127016 -0.7223264 -1.3682411 -1.0580865
000080 76 81 be be d8 4c a5 3e 10 3c 36 3e 21 2d 8b bf
       -0.37208146 0.3228519 0.1779635 -1.0873147
000090 23 e5 ec be 7e 2b fb 3e 27 e4 38 be fd 8e bb 3e
       -0.46268567 0.4905662 -0.18055783 0.3663253
0000a0 bf 73 5b be fd 71 f2 be 3d 5f a2 3f f7 ba 00 bf
       -0.21430872 -0.4735259 1.2685314 -0.50285286
0000b0 e0 39 6d 3f af 36 26 3e 23 ad 62 bf dd b4 9d 3e
       0.92666435 0.16231798 -0.88545436 0.3080205
0000c0 f3 e7 a0 be af be dd 3c 84 eb 85 bf 41 8d 0d bf
       -0.31426963 0.027068464 -1.0462499 -0.5529366
0000d0 b7 95 9c bc b8 0f 66 3d 5c 9b e1 be 1f cc 7e 3e
       -0.019114358 0.056167334 -0.44063842 0.24882554
0000e0 9f 01 f9 be fc e8 3d bf cb 47 90 3c 94 fe 96 be
       -0.4863405 -0.7418363 0.017612359 -0.29491103
0000f0 a9 da 6d 3e fd 1c a5 bf b8 ac a9 bd c3 fd 9d 3f
       0.23227943 -1.2899472 -0.082848966 1.2343067
000100 8b d1 cb 3f 31 ce e9 3e de e7 ec 3d a1 16 3d bf
       1.5923322 0.45665124 0.11567663 -0.73862654
000110 7b 55 42 3e 39 58 80 3f 50 5e 06 bc e4 15 8e bd
       0.1897792 1.0026923 -0.008201197 -0.06937769
000120 6f 7a 8b 3e d1 7e b0 3d cd 56 99 3f 37 4a 3d bf
       0.27241847 0.08617938 1.1979614 -0.7394137
000130 6a 29 79 be 88 ae 5c bf 4c 54 5d 3e 4a a3 f3 3f
       -0.24332204 -0.86203814 0.21614188 1.9034207
000140 1c e5 57 3f 11 26 e8 be a8 b2 05 bf b6 79 08 bf
       0.8433397 -0.45341542 -0.5222573 -0.53310716
000150 ac c8 7c bf 1b aa de 3f 41 ab 83 be 38 bf 90 3f
       -0.987437 1.7395662 -0.25716594 1.1308355
000160 a1 3f 61 3f 83 a2 9e 3f ae 00 5d 3d 5a fd 91 3f
       0.87987715 1.2393345 0.053955726 1.1405442
000170 70 9c 28 bf 17 08 e2 3e dc 0b 63 be 29 53 a0 bf
       -0.65863705 0.44146797 -0.22172493 -1.2525378
000180 22 93 c2 bf 70 eb 87 3e 5f 9f be 3f 73 b3 c1 be
       -1.5201151 0.26546812 1.4892386 -0.3783222
000190 e5 88 24 3f cf 9d b5 be a8 a7 b9 be a5 f5 80 bf
       0.64271384 -0.3547196 -0.36260724 -1.0074965
0001a0 95 a4 5c 3e 06 86 c5 3e b9 10 96 bd 9e 84 83 3f
       0.21547158 0.38578814 -0.07327408 1.0274847
0001b0 12 3c c1 bf b2 f3 c5 bf 73 be 9c bf 3b 94 a6 3f
       -1.5096457 -1.5464995 -1.224562 1.3013986
0001c0 28 bc 8a be 27 e3 b7 3f 41 69 34 3f 21 1d 46 3f
       -0.27096677 1.4366196 0.70473105 0.773882
0001d0 a0 cb 3e be 00 ae 27 c0 fd be fd be 77 24 e1 3f
       -0.18632364 -2.619995 -0.49559775 1.7589253
0001e0 51 bf 21 3f fd 51 f9 3f e4 1f db bf de 30 46 bf
       0.6318255 1.9478146 -1.7119107 -0.77418315
0001f0 d6 d7 45 bf e2 40 ac be 07 0c 82 3f 40 b6 a7 be
       -0.77282465 -0.33643252 1.015992 -0.32756233
000200 09 ee a9 bd 02 0b db be 9b 27 9a bf 38 c2 a8 be
       -0.08297355 -0.42781836 -1.2043337 -0.32960677
000210 79 ed 2e 3f f2 d8 39 3d dd a4 24 3f 0f ed 60 bf
       0.68331105 0.04537291 0.6431406 -0.8786172
000220 40 11 17 bd de 8d 43 3f d6 1b 02 c0 e9 54 3e 3f
       -0.036881685 0.7638835 -2.032949 0.7434831
000230 69 6e 46 3f 23 db 80 bc a3 c3 cf bd 9d 39 e3 3f
       0.7751222 -0.015729493 -0.101447366 1.7751957
000240 bf 55 9a bf 96 f1 5a 3e 36 93 f9 3f 08 05 45 3f
       -1.2057418 0.2138122 1.949805 0.769608
000250 97 93 23 3f a4 99 b7 bf 57 62 28 bf a1 45 96 be
       0.6389708 -1.4343762 -0.65775055 -0.29349998
000260 2f 9f bf bc 57 e9 b6 bf 1f e7 ef be f4 90 d5 bd
       -0.023391334 -1.428996 -0.4685602 -0.10428038
000270 32 a8 a1 bf 24 1c 05 bf 08 da d5 bf db bb 13 bf
       -1.2629454 -0.51996064 -1.6707163 -0.5770852
000280 89 44 75 bf a1 cf 85 bf 56 ae 5e 3e ce 0c 8d bf
       -0.958077 -1.0453988 0.21746191 -1.1019533
000290 54 23 35 3e 79 ee 81 bf ac 60 e0 bf c4 f2 6d 3f
       0.17689258 -1.0150901 -1.7529502 0.92948556
0002a0 37 a7 28 c0 66 da 86 bf 86 bc d9 3e 25 0b 2a 3e
       -2.635206 -1.05354 0.42526644 0.16605814
0002b0 3e bb 1f 3f 44 8e a2 3f 9b 7b 85 3e b5 3d a8 3f
       0.62395084 1.2699666 0.26070866 1.3143831
0002c0 e6 48 9a 3c 23 76 56 bb f9 3d 03 bf 66 b5 0a 3f
       0.018833589 -0.0032724224 -0.5126644 0.5418304
0002d0 87 c5 1d be 83 02 a9 bf cd bd d8 be 7f f6 67 bc
       -0.15407382 -1.3203892 -0.42332307 -0.01415789
0002e0 41 03 cb 3f 1f 70 ac be 46 ee 20 bf 42 29 aa bf
       1.5860368 -0.33679292 -0.62863576 -1.3293841
0002f0 4d d4 f1 be 69 91 83 bf 68 66 50 bf cc d9 32 be
       -0.47232285 -1.0278751 -0.8140626 -0.17465895
000300 c2 9f 11 40 55 aa 5e bf 96 51 65 be 6c 88 88 3f
       2.2753758 -0.86978656 -0.22394404 1.0666633
000310 a2 d7 09 3f 97 46 43 3f e5 6b 3e bf fd b6 d3 be
       0.53844655 0.76279587 -0.74383384 -0.41350546
000320 11 9a d4 3f 97 03 8d 3c 4e db 4a be c3 2e bd be
       1.6609517 0.017213626 -0.1981022 -0.3694974
000330 64 5a 20 bf b1 fc e4 be ed 70 b0 bf 45 6b 3a 3c
       -0.62637925 -0.44724038 -1.3784462 0.011378114
000340 93 35 fe 3e 26 de 80 3e 87 e6 3c 3f 1d 60 82 be
       0.4965025 0.25169486 0.73789257 -0.25463954
000350 6a 78 4e 3f aa dc c7 be 5b 19 0a 3f b5 73 ac be
       0.8065249 -0.3903554 0.5394494 -0.33682027
000360 91 76 d1 3f 47 56 0a 3f cf 02 d5 be 2e 0f 17 3f
       1.6364309 0.540379 -0.41603705 0.5900754
000370 3b 9a 49 3e 57 9d d6 3f f2 0b ec 3f 23 e5 9b bd
       0.1968774 1.6766766 1.8441145 -0.07612064
000380 3c 16 e9 3f 05 47 5e 3f 1a b7 31 3e e6 33 e8 3f
       1.820991 0.8682712 0.17355004 1.8140838
000390 2a 1e 8d bf 95 f8 23 bf c8 ba 85 3f 05 fa 39 40
       -1.102483 -0.6405118 1.0447626 2.905885
0003a0 eb 79 a2 3d 71 bf e2 3e ad 06 f2 bc fe ff 28 bd
       0.0793341 0.44286683 -0.029544199 -0.04125976
0003b0 a6 a5 a3 be cc 4a 85 be 74 52 9f 3f 13 00 14 3e
       -0.31962317 -0.26033628 1.2447038 0.14453153
0003c0 a7 ea 89 3f d8 93 e1 bf 34 0f eb be 6a 9d 2e bf
       1.0774735 -1.7623243 -0.45910037 -0.68208945
0003d0 7e a2 1e c0 20 2b c3 3f 8a 02 82 3e 6c 2b 26 be
       -2.4786677 1.5247536 0.25392562 -0.16227502
0003e0 2f a4 06 c0 76 e3 0f bf 14 6e 5c bf 74 07 91 be
       -2.103771 -0.5620645 -0.86105466 -0.28326
0003f0 dc ce 8d bf 39 28 b1 3f f3 f9 1c 40 31 35 41 3e
       -1.1078753 1.38404 2.4527557 0.18867947

conv1.6.kernel f4 [64, 1, 3, 3]
000000 39 a2 3b bf 54 8d 38 bf 44 09 8c bf 28 5b b0 3e
       -0.7329441 -0.7209065 -1.0940328 0.34444547
000010 64 78 7c 3d 77 6c 52 b8 06 fd 02 be ea 3f 05 c0
       0.06163825 -5.0168917e-05 -0.12791833 -2.082026
000020 23 25 1d bf 06 2a 7c 3f a5 29 4f bf 18 18 96 bf
       -0.6138479 0.9850162 -0.8092292 -1.1726103
000030 2c f9 26 c0 ab 02 27 3f cd 95 24 bf c5 56 9e bf
       -2.6089582 0.65238446 -0.6429108 -1.237023
000040 d2 4b 5b 3f 24 c6 7d 3f b2 bb 86 3d fe 00 56 3e
       0.8566257 0.99130464 0.06578769 0.20898816
000050 a7 bd 3b bf 59 a5 61 3e 36 79 d9 be c6 46 ef bc
       -0.7333626 0.22035731 -0.4247529 -0.029208552
000060 44 01 a4 3f f8 81 ea bf 9a 55 12 be 51 1b 2b be
       1.2812886 -1.8320913 -0.14290467 -0.16709639
000070 eb dd fb bd 35 3e c2 3f 9d cd 15 bf d8 a8 89 3f
       -0.12298187 1.5175234 -0.58516866 1.0754652
000080 ed c9 44 bc 3e 00 40 be 05 8b 83 3f 7d 71 63 be
       -0.0120110335 -0.18750092 1.02768 -0.22211261
000090 16 7f d8 3b e8 3c 78 3e 48 ae 39 3e 84 2e 13 40
       0.0066069467 0.24241984 0.1813289 2.299714
0000a0 2d 3c 3b 3f fd c0 d0 be cf 99 03 bd 33 a1 99 be
       0.73138696 -0.40772238 -0.032129105 -0.30005798
0000b0 7a 16 ef 3e 69 71 3f 3e c0 c6 08 40 4c cc 5c bf
       0.46696836 0.18695606 2.1371307 -0.8624923
0000c0 3b 62 40 3f 8f 2e ce 3e bb e8 60 3f 05 70 62 bf
       0.7514989 0.40269896 0.8785512 -0.8845218
0000d0 26 4f a4 bf c9 bd 87 bd 72 bd 85 bf 85 3b b3 3f
       -1.2836654 -0.066279955 -1.0448439 1.4002539
0000e0 74 31 3f bf 86 3a e2 3f 54 f7 d1 3f 06 e4 45 3f
       -0.74684834 1.767411 1.6403604 0.7730106
0000f0 6f 10 74 bf 9b f5 08 be 70 03 46 bd 28 0b 21 bf
       -0.95337576 -0.13374941 -0.048343122 -0.6290765
000100 70 38 ed be 87 81 be 3e 5a 04 0d bd f7 13 3b 3f
       -0.4633212 0.37208197 -0.034427978 0.7307734
000110 ae c8 de 3d ad 49 a3 bf eb 3d 5a 3f 07 ee 11 3f
       0.1087812 -1.2756859 0.8525073 0.57003826
000120 5b ec 62 bd ed a5 97 bd 6d f4 fd 3e cf ef 63 3f
       -0.055401187 -0.07404695 0.49600545 0.89037794
000130 27 78 d1 bd 18 5a b8 3f a5 b5 e0 be cc fc 77 3f
       -0.10227995 1.4402494 -0.43888584 0.9687011
000140 ad 1e 5d 3f 69 cd 02 bf cc c5 92 bf 22 02 55 be
       0.8637493 -0.5109468 -1.1466613 -0.20801595
000150 94 1a f2 3f b1 20 ee be e3 b1 8a 3e 7f 1a cc be
       1.8914361 -0.46509317 0.27088842 -0.39863965
000160 c4 4e e3 bf 6b 51 03 bf 91 1f 04 3f f4 55 e5 bd
       -1.7758412 -0.5129611 0.51610667 -0.11198035
000170 93 16 86 bf 3a d7 12 bf 06 d3 fe bd bf c3 0c bf
       -1.0475639 -0.5735966 -0.12442593 -0.54986185
000180 50 d3 bb be 2e f0 05 bf 0a 91 2f 3f 01 9d 07 3f
       -0.36684656 -0.5231961 0.6858069 0.52973944
000190 a8 b6 75 bf 59 c2 b5 bf 98 1c 6c bc 58 47 bc bf
       -0.95981836 -1.4199935 -0.014411114 -1.4709272
0001a0 61 54 2e 3f 78 b9 e4 be 7b dc 89 3f 4e c3 a1 3f
       0.680975 -0.4467275 1.077041 1.2637727
0001b0 66 88 c2 bf 86 3e d0 be 11 bb 2f 40 b0 51 bb be
       -1.5197875 -0.40672702 2.7457926 -0.3658576
0001c0 2e c8 f0 be 32 16 1a 3f ad ae a1 bf f2 e3 8a 3d
       -0.47027725 0.6019012 -1.2631432 0.06781758
0001d0 bf 9f ef 3f b2 4d d7 bf fa 2b ab bd 7a 5d 66 bf
       1.8720626 -1.6820586 -0.08357997 -0.89986384
0001e0 d7 86 5f be c8 28 24 bf 2d cb 75 3e af 64 86 bd
       -0.21828781 -0.6412473 0.24003287 -0.065621726
0001f0 61 95 50 3f a9 f4 aa 3e af ad 76 3f 9e e4 e7 3e
       0.81477934 0.33389786 0.9635877 0.4529161
000200 6d 8a 58 3e a2 1d d3 3f 05 a0 98 bc 3b bd 58 3f
       0.21146555 1.6493418 -0.01863099 0.8466374
000210 0b 70 5b be 88 30 43 bf b4 bf be be 66 22 e0 bf
       -0.2142946 -0.7624593 -0.37255633 -1.7510498
000220 84 2f 25 bf 01 f1 e7 3e 83 e8 8d 3f e6 e6 63 3f
       -0.6452563 0.4530106 1.1086582 0.890242
000230 8c 7f b6 bf c7 26 e6 3f 4e a2 26 bf 53 72 d5 3f
       -1.4257674 1.7980584 -0.6509141 1.6675514
000240 d7 9e e9 3a 70 88 5c 3f d4 4c a9 3d 93 fd 0c c0
       0.0017823827 0.8614569 0.08266607 -2.202977
000250 58 a5 79 be 7c 7d 1d 3f 74 dc 9c 3f cf f6 33 be
       -0.2437948 0.615196 1.2254777 -0.17574619
000260 b8 f6 1b c0 81 c5 ac bd 35 3a 69 3f 17 1a df 3d
       -2.4369335 -0.084361084 0.9110444 0.10893648
000270 ad 45 32 3c 02 7f 2f bf 5f de 40 3e cf 62 8d be
       0.01088087 -0.68553174 0.18834828 -0.27614447
000280 cf a7 96 bf f6 e0 81 be aa b9 08 3e 6e 6e 01 3f
       -1.1769961 -0.25366944 0.13352075 0.5055913
000290 f2 ae c8 bf fd f6 a4 3e fe bb 92 3f 9b e8 a9 bd
       -1.5678389 0.32219687 1.1463621 -0.08296319
0002a0 2a 0d bb 3f 2c 69 93 3f d2 5b 5c 3f 46 ca cd bf
       1.4613392 1.1516471 0.86077607 -1.6077354
0002b0 85 1c d5 3f 92 2c a6 bf 2b 31 90 bf f8 74 4f 3f
       1.6649328 -1.2982352 -1.1265005 0.81037855
0002c0 24 70 d8 3f a8 59 95 3f 2e ab cb bf a4 b4 8d bf
       1.6909223 1.1667986 -1.5911615 -1.1070752
0002d0 cc 76 9e be 71 c8 0c bf d5 55 88 3e 1e 52 da 3f
       -0.3095001 -0.5499335 0.26627985 1.705631
0002e0 64 b0 a7 3f c2 be 62 3e 08 26 b0 3c f2 84 5d bf
       1.3100705 0.22143081 0.02150251 -0.86530983
0002f0 f0 81 f0 bb 48 9b 38 be c8 23 a1 bf 17 32 12 be
       -0.0073397085 -0.18027985 -1.2589045 -0.1427692
000300 a8 1b 0b c0 52 c7 0e 3f 13 93 15 bf df 1f 15 bf
       -2.173563 0.5577289 -0.5842754 -0.58251756
000310 2a a2 b0 3e 5a 30 79 3f bf 37 2d 3e d5 d6 2e be
       0.3449872 0.97339404 0.16915797 -0.1707414
000320 7c 55 8f bf 15 d9 c3 be 98 2c 26 3f 32 ff f1 bf
       -1.1197963 -0.38251558 0.64911795 -1.8906004
000330 cf ae c1 be 0a 71 06 c0 2b e1 f1 3e 33 ad 49 3f
       -0.3782868 -2.1006494 0.47242102 0.78779906
000340 1b 99 0f bf 5b 10 97 bf cd fd fe be b0 8f 44 bf
       -0.56092995 -1.1801866 -0.4980301 -0.7678175
000350 c4 ad 16 be a5 76 92 bf b3 d0 c0 be 9c 34 0d 3d
       -0.14714724 -1.1442457 -0.37659225 0.034474
000360 cb 85 7a 3e 6a 91 a7 bd 0d e0 99 bf 5a 9e 02 bf
       0.244651 -0.081820324 -1.20215 -0.51022875
000370 55 b9 d7 bf 10 d4 2c 3f 59 2a 23 3f 2e 48 1d 3f
       -1.6853434 0.6751108 0.6373649 0.6143826
000380 90 91 58 bf 6e bb 68 3f 46 a6 00 bf ea 10 fe bd
       -0.8459711 0.90910995 -0.50253713 -0.1240557
000390 1e 82 e8 be 6e 94 22 3f 14 9d c7 3d e7 34 dc be
       -0.45411772 0.63507736 0.09746757 -0.4300911
0003a0 b5 2a 17 3f 0e ad 87 3e ec 14 28 bf 7d 15 d6 3e
       0.5904954 0.26499218 -0.65656924 0.4181327
0003b0 81 a8 94 3f 59 7f 8b 3e 4c af 83 be 9c bd e2 3f
       1.1613923 0.27245596 -0.25719678 1.7714114
0003c0 8e 7a cd bf 17 c5 83 3f c6 ba f5 3e 98 22 05 3f
       -1.6053026 1.0294522 0.4799406 0.5200591
0003d0 6b d5 96 3f 08 1d 08 bf a9 6c a2 3f 02 6e 90 bf
       1.178388 -0.531693 1.268941 -1.1283572
0003e0 11 a7 82 bf 34 61 dd be e1 5e 08 bf c8 e3 48 3e
       -1.0207235 -0.43238223 -0.53269774 0.19618142
0003f0 b7 e0 2c bf 56 b7 3d 3f 6b 11 cf be b2 89 dc 3e
       -0.6753039 0.74107873 -0.40442976 0.43073803
