Train_result/TCSVT_1Encoder_Medium.model (torch, 55036 bytes, 10 tensors)

conv2.0.kernel f4 [64, 1, 3, 3]
0	0xbfe4c58f	-1.787279
1	0xbf45df7a	-0.77294123
2	0xbf0f1364	-0.5588896
3	0xbf16c59b	-0.5889527
4	0x3e43f39f	0.19135903
5	0xbe9e5616	-0.30925053
6	0x3ec3dbf9	0.38253763
7	0x3f950431	1.1641904
8	0x40004736	2.0043464
9	0x3f9bae01	1.2162477
10	0xbf1e0e9a	-0.6174103
11	0x3ec7275e	0.38897222
12	0xbf6a9a67	-0.9164185
13	0x3eab7622	0.33488566
14	0xbfe9f55d	-1.8278004
15	0x4039f8ab	2.9058025
16	0xbff343b0	-1.9005032
17	0xbe968944	-0.294016
18	0x3f728636	0.9473604
19	0x3e66930e	0.22517034
20	0xbee7d286	-0.45277804
21	0xbfca21c3	-1.5791553
22	0xbef56185	-0.47925964
23	0xbf15f30d	-0.5857399
24	0xbfc748a8	-1.5569048
25	0x402090fe	2.5088496
26	0xbf516a3a	-0.81802714
27	0xbf8eabbf	-1.1146163
28	0x400515cc	2.0794554
29	0x400e64d7	2.2249048
30	0xbe9de7ea	-0.30841
31	0x3f2590ec	0.6467426
32	0xbf653c76	-0.8954538
33	0xbee3215f	-0.44361398
34	0x3f8ab1a1	1.0835458
35	0x3f361aa5	0.71134406
36	0x3f12534e	0.5715836
37	0x3fb7e3cc	1.4366393
38	0xbf769be3	-0.96331614
39	0xbf8d758b	-1.1051496
40	0xbed8dd90	-0.4235654
41	0xbed01ed7	-0.4064853
42	0x3feb54e1	1.8385278
43	0x4008f538	2.139967
44	0x3fd1d8fc	1.6394343
45	0x3fee9d9b	1.8641847
46	0xbf977b32	-1.1834471
47	0x3fbc041d	1.4688755
48	0x3f467092	0.7751552
49	0x3f2f5bdf	0.6849956
50	0xbd73606a	-0.05941812
51	0xbf10ade1	-0.5651532
52	0xbfaca902	-1.3489077
53	0xbf968be1	-1.1761438
54	0xbf1f44c7	-0.6221432
55	0xbee5f475	-0.44913068
56	0x3f58f6bb	0.8475148
57	0xbf1ce31d	-0.6128405
58	0xbf649eef	-0.89305013
59	0x3d143726	0.036185406
60	0x3da47c5a	0.08031531
61	0x3f0d1ecc	0.5512512
62	0x3f406f05	0.751694
63	0x3eb5e826	0.35528678
64	0x3f663413	0.8992321
65	0x3f55996a	0.83437216
66	0xbee10ffc	-0.43957508
67	0x3ecd3a08	0.40083337
68	0x3f2807d9	0.65636975
69	0xbe2351af	-0.15949129
70	0xbf240072	-0.6406318
71	0xbf67b541	-0.90510947
72	0x3f8d9423	1.1060833
73	0xbd98206c	-0.07428059
74	0x3be8203a	0.00708392
75	0xbf8bca6e	-1.0921152
76	0xbf17809a	-0.59180605
77	0xbfbdd8a0	-1.4831734
78	0xbe7501c9	-0.23926462
79	0xbbcd1b1b	-0.0062593347
80	0x3f912fcd	1.1342713
81	0x3f6f6af8	0.93522596
82	0x3fd8bdd5	1.6932932
83	0xbf1dbdb2	-0.6161758
84	0xbe4988c0	-0.19681072
85	0xbf70da92	-0.9408351
86	0x3f26ac66	0.6510681
87	0xbf9303d8	-1.1485548
88	0x4035967a	2.8373094
89	0x3e4ca154	0.19983417
90	0x3fd132ac	1.6343589
91	0x3f851c67	1.0399293
92	0xbf0be014	-0.5463879
93	0x3e4eed9a	0.20207825
94	0x3f07d63b	0.53061265
95	0xbe034278	-0.12818325
96	0xbcfe97d0	-0.03107825
97	0xbfc2eb96	-1.5228145
98	0xbf579b18	-0.8422103
99	0x3d48f5de	0.049062602
100	0x3fc46175	1.5342242
101	0x3e79ad87	0.24382602
102	0x3f081e5c	0.53171325
103	0xbf80e6df	-1.0070456
104	0x3fe18a8c	1.7620406
105	0x3c80b3d8	0.015710756
106	0xbf1e7537	-0.61897606
107	0xbf15b56d	-0.5847996
108	0x3f4a6bcc	0.79070735
109	0x3fa8b871	1.3181287
110	0xbe858ac6	-0.26082438
111	0x3ff9d4a8	1.9518023
112	0xc01103d7	-2.2658594
113	0x3f9a3752	1.2048132
114	0x3f86d19d	1.0532719
115	0xbf7c5d29	-0.9857965
116	0xbf30fb1b	-0.69133157
117	0x3f6129af	0.8795423
118	0x3f933330	1.1499996
119	0x3fc8a897	1.567645
120	0xbe0ef388	-0.13960087
121	0x3e11f536	0.14253697
122	0xbf911280	-1.1333771
123	0x3f0c80b7	0.54883903
124	0x3e9460bd	0.28980055
125	0x3ee52cba	0.44760686
126	0x3ecb920e	0.39759868
127	0xbfa95011	-1.3227559
128	0x3ff663d5	1.9249216
129	0x3f6f66f0	0.93516445
130	0x3f048bca	0.517758
131	0x3e6f02bf	0.23340891
132	0xbfba08f9	-1.4533988
133	0xbd042c44	-0.032268777
134	0xbfa0577a	-1.2526696
135	0x3f8effb0	1.117178
136	0xbe03d951	-0.12875868
137	0xbf6cfda1	-0.92574507
138	0x3fe527b1	1.7902738
139	0x3f00c796	0.50304544
140	0xbe34ccc3	-0.17656235
141	0x3fa081eb	1.2539648
142	0xbdb834e7	-0.08994465
143	0xbf011586	-0.5042347
144	0xbdd922e6	-0.106023595
145	0xbfb5bf9e	-1.4199102
146	0x3eb0c641	0.34526256
147	0xbf91fdaa	-1.1405537
148	0x3e366e26	0.17815456
149	0xbf28d8f7	-0.6595606
150	0x3f7e37b4	0.99303746
151	0xbfd0463e	-1.6271436
152	0xbf88a8a8	-1.067647
153	0xbe01b842	-0.12667945
154	0xbf354742	-0.70811856
155	0xbfbe4431	-1.486456
156	0x3f45f955	0.77333575
157	0x3f1b73b5	0.6072343
158	0x3eb95d42	0.36203963
159	0x3e8975b4	0.26847613
160	0xbf2a878a	-0.66613066
161	0xbf8a6751	-1.081278
162	0x3f92a352	1.1456091
163	0xbf111997	-0.5667967
164	0x3f6efa98	0.93351126
165	0x3d9a4ce4	0.07534197
166	0xbe3be711	-0.18349864
167	0x3ca2535c	0.01981514
168	0x3fae21f4	1.3604112
169	0xbf478e8b	-0.7795188
170	0x3f1bab48	0.6080823
171	0x4050d90d	3.2632477
172	0xbe876a88	-0.26448464
173	0x3fdf3d28	1.7440538
174	0x3cea9459	0.02863519
175	0x4005bc45	2.089616
176	0xc010460f	-2.254276
177	0x3fcbeed3	1.5932258
178	0x3f4f3efd	0.8095549
179	0xbe2e6d8b	-0.17033975
180	0x3f62fac5	0.88663894
181	0x3cd72d09	0.026266592
182	0xbe74eb66	-0.23917922
183	0x3f7c48bd	0.9854849
184	0xbf2993ec	-0.66241336
185	0xbf4795b5	-0.7796281
186	0x3e501385	0.20319946
187	0x3daeeb1a	0.08540936
188	0xbed831d6	-0.42225522
189	0xbfbdf207	-1.4839486
190	0xbf445c5e	-0.7670344
191	0x3f8375c4	1.0270314
192	0xbff1b1ac	-1.8882346
193	0xbfa1323c	-1.2593455
194	0x3efdc7de	0.4956655
195	0x3e2012bb	0.15632145
196	0x3fc6f7c4	1.5544362
197	0xbfab198c	-1.3367171
198	0xbf8c5d7c	-1.0966029
199	0x3fffedf6	1.9994495
200	0x3e31ffe9	0.17382778
201	0x3f540d21	0.82832533
202	0x3f13090c	0.5743568
203	0xbed88766	-0.422908
204	0xbea907c5	-0.3301374
205	0x3dcca86e	0.09993063
206	0x3f00e956	0.5035604
207	0xbd9d1448	-0.07669884
208	0xbf3cece5	-0.7379897
209	0x3e9bce44	0.30430806
210	0x3f1145e4	0.5674727
211	0x3f4f338d	0.80938035
212	0x3f47cc97	0.78046554
213	0x3f2eb5fa	0.68246424
214	0x400f08fb	2.2349231
215	0xbe63bb74	-0.22239476
216	0x3fd531a8	1.6655779
217	0xbeec3179	-0.46131495
218	0x3ebb18b1	0.36542276
219	0x3e49d14e	0.1970875
220	0x3f143a81	0.5790177
221	0xbde56c02	-0.112022415
222	0x3fa4b233	1.2866882
223	0xbca43f66	-0.020049762
224	0xbf48ca0c	-0.784333
225	0x3f0e415d	0.55568486
226	0x3f3aef1e	0.73021114
227	0x3fc5f194	1.5464349
228	0xbf52be6b	-0.82321805
229	0xbfa89df7	-1.3173207
230	0x3eaec1ab	0.34132132
231	0x3dd418c4	0.10356286
232	0xbf849a68	-1.0359621
233	0x3f9052b5	1.127524
234	0xbf5dd25b	-0.866491
235	0x3f4283d5	0.7598241
236	0x3f540525	0.8282035
237	0x3f94928c	1.1607223
238	0xbe42e918	-0.1903423
239	0x3f4635b6	0.77425706
240	0x3f9b9523	1.2154888
241	0x3f5a5ae2	0.85294926
242	0x3e38eb4d	0.1805851
243	0x3e635c4f	0.22203182
244	0xbde8881c	-0.11354086
245	0xbfa1291f	-1.2590674
246	0x3efc3289	0.49257305
247	0x3f76ec8a	0.9645468
248	0x3f977f42	1.1835711
249	0x3fea8262	1.832104
250	0x3fab1c4a	1.3368008
251	0xbf085c60	-0.53265953
252	0xbfdd35fe	-1.7282102
253	0xbf5c23d8	-0.85992193
254	0x3f72a20a	0.947785
255	0xbe46f325	-0.1942869

conv2.1.kernel f4 [64, 1, 3, 3]
0	0x3fa7d9ce	1.3113344
1	0x3f35e109	0.710465
2	0x3f2eadd4	0.6823399
3	0x3fdbafc3	1.7163013
4	0x3f619f14	0.8813336
5	0xbe5c3a12	-0.21506527
6	0x3ee131b7	0.43983242
7	0xbe6748cb	-0.22586362
8	0xbd84fede	-0.064939246
9	0x3ee35182	0.44398123
10	0xbfd91644	-1.695992
11	0xbe85d29c	-0.26137245
12	0xbfd49953	-1.6609291
13	0x3db4fb74	0.088370234
14	0xbf8f2838	-1.1184149
15	0xbe5e7d7f	-0.2172756
16	0x3f6e5e1d	0.93112355
17	0xbf91d9df	-1.1394614
18	0xbfac7a25	-1.3474776
19	0xbf170ccb	-0.59003896
20	0x3f55cef9	0.8351894
21	0x3e5193bd	0.20466514
22	0xbf701726	-0.9378532
23	0x3fb9db85	1.4520117
24	0x3f815171	1.0102979
25	0x3e31d6b3	0.17367058
26	0xbf6e2615	-0.9302686
27	0xbe6951a9	-0.22785057
28	0x3fd3ae63	1.6537594
29	0x3cfe602d	0.03105172
30	0xbe4244c2	-0.18971542
31	0x3e1c8208	0.15283978
32	0xbfaa198c	-1.3289046
33	0xbfd867bf	-1.6906661
34	0xbe942d55	-0.28940836
35	0xbe974c56	-0.29550427
36	0x4019bceb	2.4021556
37	0xbe120f57	-0.14263664
38	0xbf124033	-0.5712921
39	0xbf78b654	-0.9715321
40	0x3f33391d	0.7000902
41	0x3f162e0f	0.5866403
42	0xbf1ba85c	-0.6080377
43	0x3f6cb2cb	0.92460316
44	0x3fac7f46	1.3476341
45	0xbf97b9cc	-1.1853576
46	0xbbceafb2	-0.0063075656
47	0xbe96fc5a	-0.29489404
48	0x3ff0f38f	1.8824328
49	0x3f33bc6f	0.702094
50	0xbe5a507e	-0.21319768
51	0xbe965533	-0.29361877
52	0x3f98cb8d	1.1937119
53	0xbebda822	-0.37042338
54	0xbf8dd1ff	-1.1079711
55	0x3f2813eb	0.6565539
56	0xbe8f4010	-0.27978563
57	0x400153e8	2.0207462
58	0xbf28a1e9	-0.65872055
59	0xbec2e5a3	-0.38065824
60	0x3f1a34f3	0.60237044
61	0x3f881a3f	1.063301
62	0x403867ab	2.8813274
63	0x3e99d04f	0.3004174
64	0x3ffd2e01	1.9779664
65	0x3f265d21	0.64985853
66	0xbe4db960	-0.20090246
67	0xbf1cbbb8	-0.61223936
68	0x3ed076e6	0.40715712
69	0x3f20ecd5	0.62861377
70	0x3fd68df4	1.6762071
71	0x3f3a2f96	0.7272886
72	0xbf68e77e	-0.9097823
73	0xbc40e3fd	-0.011773107
74	0xbec899d0	-0.3917985
75	0xbeb8448a	-0.3598979
76	0xbf4678ef	-0.7752828
77	0x3f40695c	0.75160766
78	0xbd39e118	-0.04538068
79	0xbeb9c4ff	-0.3628311
80	0xbefcc3ff	-0.49368283
81	0x4016c78a	2.355929
82	0xbfe2a496	-1.7706478
83	0xbf0581eb	-0.52151364
84	0xbea8b435	-0.32949987
85	0x3faccb2d	1.3499504
86	0x3fd0d9de	1.6316488
87	0xbf774b6b	-0.96599454
88	0x3fb012d8	1.3755751
89	0x3f30ac29	0.69012696
90	0xbd8cbee4	-0.06872347
91	0xbe67f23b	-0.22650997
92	0xbf4dc66a	-0.8038088
93	0x3fbd8d3e	1.4808729
94	0xbf868763	-1.0510067
95	0x3ebb3c88	0.3656962
96	0x3faf7145	1.3706442
97	0x3cbba24b	0.022904536
98	0x3e04182c	0.12899846
99	0x3f3d2875	0.7388986
100	0x3f35dc9f	0.71039766
101	0x3e883b88	0.2660792
102	0x3f267ccb	0.6503417
103	0x4030605c	2.7558813
104	0x3efe6ac2	0.49690825
105	0xbfa6c70d	-1.3029495
106	0x3faf78ce	1.3708742
107	0x3f3fa0b7	0.74854606
108	0x3dd75ecd	0.10516129
109	0x3eacf772	0.33782536
110	0xbec7435c	-0.3891858
111	0xbf2e25df	-0.68026537
112	0xbf4fd7ce	-0.81188667
113	0x3f485ee6	0.78269804
114	0xbf1ce49b	-0.61286324
115	0x3f860ca6	1.047261
116	0x3f5244bc	0.8213613
117	0xbf376a0e	-0.716462
118	0xbf2ccdef	-0.6750173
119	0x3ea5e748	0.32403016
120	0xbf2f49a5	-0.6847175
121	0xbf700572	-0.9375831
122	0xbc2a76fb	-0.010404344
123	0x3f4270bf	0.75953287
124	0x3facad0e	1.3490312
125	0xbf7f32ac	-0.99686694
126	0xbe6c31bd	-0.23065849
127	0x3fedadd0	1.8568668
128	0xbf049b38	-0.51799345
129	0xbf34ae97	-0.705789
130	0xbec6152a	-0.38688022
131	0x3e3e804c	0.18603629
132	0x3e81eb33	0.25374755
133	0x3f278b3b	0.65446824
134	0x3e9188b9	0.28424624
135	0x3f3b96a1	0.73276716
136	0x3ff84c1f	1.939823
137	0x3f2a21da	0.66457903
138	0xbf0cb6d5	-0.5496648
139	0x3f7d329d	0.98905355
140	0xbfeabe84	-1.8339391
141	0x3f918b9c	1.137073
142	0xbef8b66f	-0.48576686
143	0xc00b0d13	-2.172673
144	0xbfc272c2	-1.5191271
145	0x3ec4261c	0.38310325
146	0xc01074cf	-2.2571294
147	0xbf5844f1	-0.84480196
148	0xbf70fa51	-0.9413195
149	0x3f056e54	0.5212147
150	0x3ea4a5d4	0.32157767
151	0xbf14123c	-0.57840323
152	0xbf2de0c5	-0.67921096
153	0x3eff3e1b	0.4985207
154	0x3f464bc1	0.7745934
155	0x3e348ad6	0.17631087
156	0xbf9f3f83	-1.2441257
157	0x3e8120d2	0.25220352
158	0xbed472c7	-0.41493818
159	0x3f3281eb	0.6972949
160	0x3f208bba	0.62713206
161	0x4000d9af	2.0132864
162	0xbeef015d	-0.46680728
163	0xbf136066	-0.5756897
164	0xbfcaed9f	-1.5853766
165	0x3f8f03cc	1.1173034
166	0x3e2057ee	0.15658543
167	0x3f5a6708	0.85313463
168	0x3f53a166	0.8266815
169	0x3f3675a2	0.71273243
170	0x3f398716	0.7247175
171	0xbf136814	-0.57580686
172	0xbfaafdbe	-1.3358686
173	0xbfdc4f8d	-1.7211777
174	0xbffba09d	-1.965839
175	0xbed2bf46	-0.41161555
176	0x3ea34df3	0.31895408
177	0xbf725258	-0.94656897
178	0x3f545d8a	0.8295523
179	0xbfabff89	-1.3437358
180	0x3fe55c42	1.791878
181	0x3e7605d4	0.24025661
182	0x3c71a9bf	0.014749943
183	0xbf00cf2b	-0.50316113
184	0x3f693d79	0.91109425
185	0x3fcb219b	1.586963
186	0xbf870aa2	-1.055012
187	0x3dafe1fa	0.085880235
188	0x3edb3367	0.42812654
189	0xbf5b73ef	-0.85723776
190	0x3fb1bf67	1.3886536
191	0xbfe0eb7d	-1.7571865
192	0x3f7da383	0.99077624
193	0xbf9dda0b	-1.2332166
194	0xbfde3cdd	-1.7362324
195	0xbfe4e2f5	-1.7881762
196	0x3fca714a	1.5815823
197	0x3e24ded6	0.1610063
198	0xbf339000	-0.701416
199	0xbf0b7e60	-0.5448971
200	0xbf1d60bf	-0.6147575
201	0xbf462ecd	-0.7741516
202	0xbf4c1be6	-0.7973007
203	0xbe2ba1b5	-0.16760905
204	0xbfe0a2fe	-1.7549741
205	0x3f23061b	0.6368119
206	0xbe9b5947	-0.3034155
207	0xbf9ea6b5	-1.2394625
208	0xbf8600f3	-1.046904
209	0xc00cf6ce	-2.2025638
210	0x3e42b706	0.1901513
211	0xbf0dcec4	-0.55393624
212	0xbfd1a155	-1.637736
213	0x3f1914a7	0.5979714
214	0x3f088bf0	0.5333853
215	0xbf6e6735	-0.9312623
216	0xbf27b464	-0.6550963
217	0xbf396b3b	-0.72429246
218	0xbee1a8ac	-0.44074
219	0xbfa348d6	-1.2756603
220	0xbed6fd57	-0.41990158
221	0x3ea0955d	0.31363955
222	0xbf75cbed	-0.9601429
223	0x3f4529b1	0.7701674
224	0x3e8ea36f	0.27859065
225	0x3f12163c	0.57065177
226	0x3eada067	0.3391144
227	0xbf0984c7	-0.5371823
228	0x3ecb718e	0.39735073
229	0xbf4f51ab	-0.8098399
230	0xbf33ebfe	-0.7028197
231	0xbe1c03f3	-0.15235882
232	0xbf353503	-0.70784014
233	0xbfa8105a	-1.312999
234	0x3f330d1c	0.6994188
235	0xbfacaa8d	-1.3489548
236	0x40217366	2.5226684
237	0xbe9051b4	-0.28187335
238	0xbc1156f4	-0.008870829
239	0x3f54c703	0.8311617
240	0x3f0a1714	0.53941464
241	0xbf338bce	-0.701352
242	0xbf157291	-0.5837794
243	0x3e61a45e	0.22035357
244	0xbf42483b	-0.75891465
245	0xbe6174eb	-0.22017257
246	0xbe3daea5	-0.18523653
247	0x3df268b4	0.11836377
248	0x3edd6e1a	0.43248063
249	0x3efd6181	0.49488452
250	0x3f1ef48b	0.6209189
251	0xbf07ff06	-0.5312351
252	0x4010874d	2.258258
253	0xbf905823	-1.1276897
254	0xbf07794b	-0.52919453
255	0xbf3ae240	-0.7300148

conv2.2.kernel f4 [64, 1, 3, 3]
0	0x3ed6881c	0.41900718
1	0x403141ec	2.7696486
2	0xc0136f9e	-2.3036876
3	0xbf967973	-1.1755813
4	0xbff64ae9	-1.9241611
5	0x3e644fc3	0.22296052
6	0xc050908b	-3.2588222
7	0x3f872ee9	1.0561191
8	0xbf41ffb6	-0.7578081
9	0x3f31f9c4	0.6952174
10	0x3f7f0a39	0.99624974
11	0x3e32499a	0.1741089
12	0x3f258837	0.6466097
13	0xbf8ff8c3	-1.1247791
14	0xbe377254	-0.17914706
15	0x3ef07eb8	0.4697168
16	0xbe68daa0	-0.22739649
17	0xbf26224d	-0.6489609
18	0xbf61dbfc	-0.88226295
19	0x3f1468c2	0.5797235
20	0x400a19a2	2.1578145
21	0xbf0aa2d7	-0.54154724
22	0xbf931051	-1.1489354
23	0xbfa04ec0	-1.2524033
24	0x3f8b1a42	1.0867388
25	0x3ed81adc	0.42207992
26	0x3f263eb8	0.6493945
27	0xbfb63801	-1.4235841
28	0x3f5f3b1d	0.87199575
29	0x3f7b20c2	0.9809686
30	0xbef27438	-0.47354293
31	0xbfcd962d	-1.6061455
32	0x3f9c6358	1.2217817
33	0x3eecfc99	0.46286467
34	0xbe25d06f	-0.16192792
35	0x3fa06b2a	1.2532704
36	0x3f95a44b	1.1690763
37	0xbf01e432	-0.50738823
38	0xbe08a9e9	-0.13346066
39	0x3d5a7036	0.05332967
40	0x3d688fea	0.056777872
41	0xc0020c18	-2.0319881
42	0xbfb57b2c	-1.4178214
43	0x3f8dff85	1.1093603
44	0xbf6082e6	-0.87699735
45	0x3f7c15a3	0.98470515
46	0x3fefb72b	1.8727773
47	0xbe6ee7e7	-0.23330651
48	0xbf8bdb79	-1.0926353
49	0x3e13701f	0.1439824
50	0x3ef2b628	0.474046
51	0xbf0be192	-0.5464107
52	0x3f8c4304	1.0957952
53	0x3fafe3fb	1.3741449
54	0x3fb3f4c9	1.4059078
55	0xbf0ca5ee	-0.5494069
56	0x3ed3c6cc	0.41362607
57	0x3c633106	0.013866669
58	0xbf559c2b	-0.8344142
59	0x3ef55ab0	0.47920752
60	0x3fdc750b	1.7223219
61	0xbeb06504	-0.3445207
62	0x3f7a36cd	0.9773987
63	0xc014650e	-2.318668
64	0x3ed30075	0.41211286
65	0x3f9c1af8	1.219573
66	0x3eaed44c	0.34146345
67	0xbf0c76c5	-0.5486873
68	0x3fd7e0a4	1.686543
69	0x3f51854d	0.81844026
70	0x3f992b81	1.1966401
71	0xbe71705d	-0.2357802
72	0xbf97c00e	-1.1855485
73	0xbef5f268	-0.48036504
74	0x3ff5ad42	1.9193499
75	0x3f38168a	0.7190939
76	0xbed41bdb	-0.41427502
77	0x3edfe2f2	0.43727833
78	0xbe6bdbea	-0.2303311
79	0xbe2a7949	-0.16647829
80	0x3ee2415a	0.44190484
81	0xbeb9d564	-0.36295617
82	0x3e19a723	0.15005164
83	0x3f7ec185	0.9951404
84	0x3fac10b7	1.3442601
85	0x3fa0454c	1.2521148
86	0xbf09680a	-0.53674376
87	0xbe84f845	-0.25970665
88	0x3f027912	0.5096599
89	0x3dd858f1	0.10563839
90	0xbec2eec4	-0.3807279
91	0xbeeefed0	-0.46678782
92	0x3e86ca1d	0.26326075
93	0x3eeed292	0.46645027
94	0x3f1ad651	0.6048327
95	0xbe911cc3	-0.28342256
96	0x3de090a2	0.109650865
97	0x3f435217	0.76297134
98	0x3efffd1f	0.49997804
99	0xbf03116a	-0.51198447
100	0x3fa35f20	1.2763405
101	0x3fd2dd38	1.6473761
102	0xbe1e76e4	-0.1547504
103	0xbe7c4906	-0.24637231
104	0x3f8d0890	1.1018238
105	0x3fa2ca19	1.2717925
106	0x3f3a7e0c	0.7284858
107	0x3f2b5751	0.6693011
108	0x3fbc493f	1.4709853
109	0x3edb907e	0.42883676
110	0x4014fd27	2.3279512
111	0xbe3aca7e	-0.18241307
112	0x3ee04af5	0.43807188
113	0xbf444412	-0.7666637
114	0xbfa3f214	-1.2808251
115	0x3fc5af11	1.5444051
116	0x3f19fa05	0.60147125
117	0x3e9d25a1	0.3069277
118	0x3eb91ca4	0.36154664
119	0x3df75238	0.12076229
120	0xbf0182e2	-0.50590336
121	0x3df923fa	0.12165065
122	0x3edc2533	0.4299713
123	0xbf231f01	-0.63719183
124	0x3fab9a1b	1.3406404
125	0x3f4e806a	0.80664694
126	0x3f6b325a	0.91873705
127	0x3eb9964e	0.36247486
128	0xbea51f66	-0.32250518
129	0xbefa6559	-0.48905447
130	0x3f5f10ad	0.8713482
131	0x3f93814e	1.1523836
132	0x3fd0c021	1.6308633
133	0x3ebaeadb	0.36507306
134	0x3fbae77f	1.4601897
135	0xbec4de6d	-0.38450947
136	0x3f30d1a5	0.6906989
137	0xbdbb9cd7	-0.09160774
138	0x400493b8	2.071516
139	0x3f45b336	0.7722658
140	0x3fcb5454	1.588511
141	0xc0149da8	-2.3221226
142	0x3f380dd0	0.71896076
143	0xbd4499d4	-0.047998264
144	0xbf35be4f	-0.7099351
145	0xbe9ca04c	-0.30591047
146	0x3f865641	1.0495073
147	0xbf0b2add	-0.5436228
148	0x3f996008	1.1982431
149	0xbe9fbad0	-0.31197214
150	0x3f28f95f	0.6600551
151	0xbf3b9d29	-0.7328668
152	0xbe9930bd	-0.29919997
153	0xbe50da10	-0.20395684
154	0x3f23e8bf	0.6402702
155	0xbfc38320	-1.5274391
156	0xbf05014a	-0.5195509
157	0x3e5c6ad9	0.21525134
158	0xbe50e9c7	-0.20401679
159	0xbf26e143	-0.6518747
160	0xbef0d56f	-0.47037837
161	0xbe27aaa1	-0.16373684
162	0x3edcddc9	0.4313796
163	0xbd9d37a5	-0.07676629
164	0x3eb4b8b2	0.3529716
165	0xbe82c3c7	-0.2553999
166	0x3d9e470d	0.077283956
167	0xbedc67e4	-0.43048012
168	0x3fa5661e	1.2921789
169	0x3fa5d324	1.295506
170	0x3e91438d	0.2837185
171	0xbfa0ec78	-1.2572165
172	0xbf92ecf5	-1.1478564
173	0xbcdab026	-0.026695322
174	0x3e51c99b	0.20487063
175	0x3d038d46	0.03211715
176	0xbe849a4c	-0.2589897
177	0x3d8e825b	0.06958457
178	0x3eab9536	0.33512276
179	0xbf4beb3a	-0.796558
180	0xbf2969ec	-0.6617725
181	0xbe53d4f7	-0.20686708
182	0x3f0fa3f2	0.56109536
183	0x3fde1635	1.7350527
184	0x3fa6a04f	1.3017672
185	0x3fdc65c7	1.721856
186	0xbebb36e1	-0.36565307
187	0x3ead2cb3	0.33823165
188	0x3ff530ea	1.9155552
189	0xbf8b27b5	-1.0871493
190	0xbeb3e265	-0.35133663
191	0xbf544d4f	-0.82930464
192	0x3f3618f1	0.7113181
193	0xbfc52d1d	-1.5404392
194	0xbf6c84df	-0.92390245
195	0xbf45b667	-0.7723145
196	0x3eb47277	0.3524358
197	0x3e223416	0.15840182
198	0xbedacc46	-0.42733973
199	0x3ec3b719	0.3822563
200	0xbfb04446	-1.3770835
201	0xbef7186d	-0.48260823
202	0x3e4a4800	0.19754028
203	0x3bff7454	0.00779585
204	0xbea9e276	-0.33180588
205	0xbecab226	-0.3958904
206	0xbf8ce047	-1.1005944
207	0xbfec2bf9	-1.8450919
208	0xbd70fad0	-0.058832943
209	0xbefdcfd2	-0.49572617
210	0x3f121a51	0.57071406
211	0x3f7633ea	0.96172965
212	0x3fcb6b57	1.5892133
213	0xbf3cebd7	-0.73797363
214	0x3f0758b4	0.52869725
215	0x3fa9d75d	1.3268849
216	0xbe4dea64	-0.20108944
217	0x3f61e001	0.8823243
218	0xbe966cdd	-0.2937993
219	0x3f79334d	0.97343904
220	0xbeac8ef9	-0.3370283
221	0xbfa0f69f	-1.2575263
222	0xbdf9e663	-0.12202146
223	0xbf8b231b	-1.0870088
224	0xbfd8ef8f	-1.6948107
225	0x3e9067a1	0.28204063
226	0x3f36f3b1	0.71465594
227	0x3f9f177a	1.242904
228	0x3e953107	0.29138967
229	0x400b1aed	2.1735184
230	0xbe102633	-0.14077072
231	0x3f0ee1c6	0.5581325
232	0x3f2cd096	0.67505777
233	0x3f4042f8	0.75102186
234	0xbf8d35e2	-1.1032069
235	0xbfa73641	-1.3063432
236	0xbf913d7e	-1.1346891
237	0x3e85f4b9	0.2616327
238	0x3f9c4578	1.22087
239	0x3ea6d5d2	0.32585007
240	0xbe3868c7	-0.1800872
241	0xbfc07720	-1.5036354
242	0x3f31ffa3	0.69530696
243	0xbe24c27a	-0.16089812
244	0xbfc64d6b	-1.5492376
245	0x3fa95a20	1.3230629
246	0xbf2413dd	-0.6409281
247	0x3f6c97e4	0.92419267
248	0x3e2f8b2a	0.1714293
249	0x3e29cf3a	0.16582957
250	0xbf016da4	-0.50557923
251	0xbe7bf1da	-0.24603978
252	0x3f893e96	1.0722225
253	0x3fa01e51	1.2509252
254	0xbf3b00ea	-0.7304827
255	0x3bbf0b95	0.005830238

conv2.3.kernel f4 [64, 1, 3, 3]
0	0x3eda3899	0.42621306
1	0xbec2bd9a	-0.3803528
2	0xbf9ee196	-1.2412593
3	0x3fada230	1.3565121
4	0xc00c2ef1	-2.190365
5	0x3fc83fe2	1.5644495
6	0xbf9381df	-1.1524009
7	0x3d8e3c4e	0.06945096
8	0x3f0fb795	0.561395
9	0xbfa8b956	-1.318156
10	0x402ef0e1	2.733452
11	0x3f927c79	1.1444236
12	0x3e480ea6	0.19536838
13	0x3ee719e9	0.45136955
14	0x3f7f9839	0.9984165
15	0xbf861a96	-1.0476863
16	0x3f94cd23	1.1625103
17	0x400586c2	2.08635
18	0x4005cc70	2.0906029
19	0x3ff4b586	1.9117897
20	0x3f3e2695	0.7427762
21	0xbf875ebb	-1.0575784
22	0x3f34d423	0.70636195
23	0x3df70103	0.1206074
24	0x3ce282d3	0.027650272
25	0xbf3773e6	-0.7166122
26	0xbf5e1d39	-0.8676334
27	0x3e9d9890	0.30780458
28	0xbe9734fd	-0.29532614
29	0xbfbc6ca9	-1.472066
30	0x3fd19445	1.6373373
31	0x3f210a5d	0.6290644
32	0xbe6ee3f8	-0.2332915
33	0x3ea89224	0.32923996
34	0xbfc9bc52	-1.5760596
35	0x3fa8f333	1.3199219
36	0xbf07b996	-0.53017557
37	0x3fc8afe7	1.5678681
38	0x3ea79762	0.32732683
39	0xbfa621ab	-1.2979025
40	0xbfee5eb3	-1.862265
41	0xbf8b2e95	-1.0873591
42	0xbf1817dc	-0.59411407
43	0xbd77600f	-0.060394343
44	0x3fdb5c6d	1.7137581
45	0xbf001956	-0.5003866
46	0x3e76470a	0.24050537
47	0x3f3449d9	0.7042518
48	0x3fe5e277	1.7959737
49	0xbe998c59	-0.2998989
50	0x3f1f00af	0.6211042
51	0x3ddfe1c7	0.109317355
52	0x3ec8d35a	0.39223748
53	0x3ebc65e1	0.36796477
54	0x40159350	2.3371162
55	0x3f40f61c	0.75375533
56	0xbff19ab2	-1.8875334
57	0x3f6c96a7	0.9241738
58	0xbf9d2ae9	-1.227872
59	0x3f1c0f5d	0.6096094
60	0x3fc75239	1.5571967
61	0xbec62589	-0.38700512
62	0xbfc7b744	-1.5602803
63	0x3f8224ea	1.0167515
64	0xbf8741ee	-1.0566995
65	0x3f0efbe0	0.5585308
66	0x3f10075e	0.5626124
67	0xbf95058b	-1.1642317
68	0xbee6596c	-0.44990098
69	0x3f07f3aa	0.53106177
70	0x3f1aaadd	0.60416967
71	0xbffddbbb	-1.9832681
72	0x3f22f2a9	0.6365152
73	0x3f0d21f3	0.5512993
74	0xbd946a70	-0.07246864
75	0xbafb27b9	-0.0019161619
76	0xbda570b8	-0.0807814
77	0xbe73f4fa	-0.2382392
78	0xbe9650ef	-0.29358622
79	0x3f462eb7	0.7741503
80	0xbf3b512c	-0.73170733
81	0xbe990731	-0.298883
82	0x3f3c48a4	0.7354834
83	0xc001ef2b	-2.0302227
84	0x3e99c091	0.3002973
85	0x3ec1bf6d	0.3784136
86	0xbd5245b7	-0.051336017
87	0x3f4663ae	0.7749585
88	0xbf9a78da	-1.2068131
89	0x3f996743	1.1984638
90	0x3f564c22	0.8370992
91	0x3e76d60c	0.2410509
92	0xbf7afdb0	-0.98043346
93	0xbfe3f404	-1.7808843
94	0x3f3003d3	0.68755835
95	0x3f14c87b	0.5811841
96	0x3e04e804	0.12979132
97	0xbe0c0c1d	-0.13676496
98	0x3f4e40da	0.80567706
99	0xbec34ce5	-0.38144603
100	0x3f9f0902	1.2424624
101	0xbda549be	-0.08070706
102	0xbf050401	-0.51959234
103	0x3f06da5b	0.52676934
104	0xbfa0204f	-1.250986
105	0xbe248b57	-0.16068779
106	0x3e96b7fa	0.29437238
107	0x3f199efd	0.6000822
108	0xbe8c5814	-0.27410948
109	0xbfab4ded	-1.3383156
110	0xbfb7539f	-1.4322394
111	0x3f1d3f68	0.61424875
112	0x3fd7c412	1.6856711
113	0xbf26e2a6	-0.6518959
114	0x3f99d8cc	1.2019286
115	0x3f70fad2	0.9413272
116	0xbf976763	-1.1828426
117	0xbe08457f	-0.1330776
118	0xbbfb100d	-0.0076618255
119	0x3d6e169c	0.05812703
120	0x3f53994d	0.82655793
121	0x3f31991e	0.69374263
122	0xbfb07f46	-1.3788841
123	0xbee2fbb6	-0.44332665
124	0x3e70766d	0.23482676
125	0xbf4b2a9a	-0.7936188
126	0xbee8576a	-0.45379192
127	0x40354c00	2.8327637
128	0xbe4a0256	-0.19727454
129	0xbfe33921	-1.7751809
130	0x3f4f1326	0.80888593
131	0x3f33d3be	0.7024497
132	0xbf5a12c1	-0.85184866
133	0xbf3e02bd	-0.7422293
134	0xbf089f2c	-0.53367877
135	0x3f727675	0.94712
136	0xbf8d5737	-1.1042241
137	0x3f10439e	0.56353176
138	0x3f21837b	0.6309125
139	0xbf335fab	-0.7006785
140	0xbe391ade	-0.18076655
141	0x3ed13cea	0.40866786
142	0x3f513b8d	0.8173149
143	0xbfa38ae3	-1.277676
144	0x3ee53b5b	0.44771847
145	0x3f3510cb	0.7072875
146	0xbfb48de6	-1.4105804
147	0x400e905b	2.2275608
148	0x3f4490fb	0.7678372
149	0xbe084e23	-0.13311057
150	0xbeb0a9b4	-0.34504473
151	0xc00516b5	-2.079511
152	0x3ee4b545	0.44669548
153	0xbff75fea	-1.9326146
154	0xbf1b1947	-0.60585445
155	0x3e659338	0.22419441
156	0x3d34932d	0.04408567
157	0x3ea24c8a	0.3169902
158	0xbb6084ba	-0.0034258799
159	0x3f36f015	0.71460086
160	0x3f743579	0.9539409
161	0x3e823316	0.254296
162	0xbefc82a2	-0.49318415
163	0xbf9c7110	-1.2222004
164	0xc01f572d	-2.4896958
165	0xbd720e5a	-0.059095718
166	0x3f8814f6	1.0631397
167	0xbe7a44da	-0.24440327
168	0xbdbb5924	-0.091478616
169	0xbe6bd3d2	-0.23030022
170	0x400e0618	2.219122
171	0xbe30831b	-0.17237513
172	0xbe284854	-0.16433841
173	0xbff7409b	-1.9316591
174	0xbf2a24ff	-0.664627
175	0x3e9e82de	0.3095922
176	0xbf0f209d	-0.5590914
177	0x3e5dc260	0.2165618
178	0x4028a5bc	2.6351156
179	0x3f44b0d0	0.76832294
180	0xbfe73fa1	-1.8066293
181	0xbe03c74d	-0.12868996
182	0x3fdb13bb	1.7115396
183	0x3f7cf8c2	0.98817074
184	0x3e81eca4	0.25375855
185	0x3fe54d4e	1.7914217
186	0xbf88f740	-1.0700455
187	0xbe963df5	-0.29344144
188	0xbf0b8ef5	-0.5451501
189	0xbe323d17	-0.17406116
190	0x3cef176e	0.029185977
191	0x3f52d3e0	0.82354546
192	0xbe4cced5	-0.20000775
193	0x3ef46ef6	0.47740906
194	0xc002e0a6	-2.0449615
195	0x3fa23075	1.2671038
196	0xbf095d3b	-0.53657883
197	0xbce21e7b	-0.027602425
198	0xbde0956a	-0.109659985
199	0x3ea40a68	0.3203919
200	0xbf990802	-1.1955569
201	0xbdf0bdc9	-0.11754949
202	0xbe62034b	-0.22071569
203	0xbf055664	-0.52084947
204	0x3e5a6bed	0.21330233
205	0x3ea34654	0.31889594
206	0x3fa51864	1.2898068
207	0xbf29c105	-0.6631015
208	0x3f71ed71	0.9450293
209	0xbf85ab87	-1.0442971
210	0xbfd784e3	-1.6837429
211	0xbf1eb631	-0.6199675
212	0x3f18e712	0.59727585
213	0xbf452c1a	-0.7702042
214	0x3f233553	0.6375324
215	0xbee41aa9	-0.4455159
216	0xbfa2de99	-1.2724181
217	0xbd2948da	-0.041329242
218	0xbe96021b	-0.2929848
219	0x3f256ee7	0.6462235
220	0xbf9d4d8d	-1.2289292
221	0x3f212df5	0.6296075
222	0xbf88b769	-1.0680972
223	0xbf6b91ec	-0.92019534
224	0x406b3af0	3.6754723
225	0xbf08f028	-0.5349145
226	0x3e817c13	0.25289974
227	0x3ecaad3f	0.395853
228	0x3fab5c94	1.3387628
229	0x3ede9b9d	0.434781
230	0x3f99cf87	1.2016457
231	0xbfa5244b	-1.2901701
232	0xbe00a9ae	-0.12564728
233	0xbf948690	-1.1603565
234	0x3daab53c	0.08335349
235	0xbe4e0565	-0.20119245
236	0x3dcee39c	0.10102007
237	0xbf7a62e5	-0.9780715
238	0x3fd0af42	1.6303484
239	0xbfcf33f8	-1.6187735
240	0xbec4d6b2	-0.3844505
241	0x3f34f2d0	0.70683
242	0x3e7356f3	0.23763637
243	0x3f182550	0.59431934
244	0x3f10b006	0.5651859
245	0xbf288d81	-0.6584092
246	0x3e4670b2	0.19378927
247	0x3f38ab6a	0.7213656
248	0xbf914556	-1.1349285
249	0x3e9be60f	0.30448958
250	0xbf81b530	-1.0133419
251	0x3ce75640	0.02823937
252	0x3fbcb50a	1.4742749
253	0xbf0e6885	-0.55628234
254	0x3ddf4753	0.10902276
255	0xbf529e19	-0.8227249

conv2.4.kernel f4 [64, 1, 3, 3]
0	0xbf2633f1	-0.64923006
1	0xbf7f6581	-0.9976426
2	0x3ef733ae	0.48281616
3	0x3e2d69f1	0.16934945
4	0x3fa0d67b	1.2565454
5	0xbf4b4ee8	-0.79417276
6	0xbf7c5e40	-0.98581314
7	0xbf5e0a3b	-0.8673436
8	0x3f3ed6fb	0.74546784
9	0x3eb9827e	0.3623237
10	0xbe00b40a	-0.1256868
11	0xbf21cc3a	-0.6320225
12	0xbfe20e83	-1.7660679
13	0xbfbb52bc	-1.4634624
14	0x3e2d66d5	0.16933759
15	0x3ebdcdd8	0.3707111
16	0x3fb40c39	1.406623
17	0xbf88c42e	-1.0684869
18	0x3fb062f1	1.3780195
19	0x3feb66c8	1.8390741
20	0x3d3c3e73	0.045957994
21	0x3f5bd4c5	0.85871536
22	0xbf5d6ba7	-0.8649239
23	0x3f119117	0.56862015
24	0x3f2533f0	0.64532375
25	0xbef6dd9e	-0.48215955
26	0x3fb9df4f	1.4521273
27	0xbfec9b70	-1.8484936
28	0xbc94808c	-0.018127702
29	0xbf0e490e	-0.5558022
30	0x3ee22a56	0.44172925
31	0x3f42aece	0.7604798
32	0xbff4d3a3	-1.9127086
33	0x3f072613	0.5279247
34	0x3f3ca526	0.73689497
35	0xc0276fae	-2.6161914
36	0x3ef3d8e8	0.47626424
37	0x3f02af02	0.5104829
38	0xbf1b47d6	-0.6065649
39	0x3f1a6199	0.6030517
40	0x3fd77fab	1.6835836
41	0x3f376faf	0.7165479
42	0x3e869cfe	0.2629165
43	0x3fb00148	1.3750391
44	0x3f421c97	0.75824875
45	0xbf831066	-1.023938
46	0x3f3f83fd	0.74810773
47	0x3f10a723	0.5650503
48	0xbfc2e6a0	-1.5226631
49	0x3f263881	0.6492997
50	0xbe65aca6	-0.22429141
51	0x3f416efa	0.7555996
52	0xbf7771ae	-0.96657836
53	0xbf6bd714	-0.9212506
54	0xbf7ed3d0	-0.9954195
55	0x3e379720	0.17928743
56	0xbf144229	-0.5791345
57	0xbe6d3679	-0.23165311
58	0x3fc63c4e	1.5487154
59	0xbf38f235	-0.7224458
60	0xbf82c2af	-1.0215663
61	0x3f144251	0.5791369
62	0xbf107e69	-0.56442887
63	0x3fd8bbbc	1.6932292
64	0x3f817d9a	1.0116456
65	0xbfc38171	-1.5273877
66	0x3f0aaaf3	0.541671
67	0x3eb3ae38	0.35093856
68	0x3f7f987e	0.9984206
69	0x3e88b821	0.2670298
70	0x3fe2ba9f	1.7713202
71	0x3f2821a9	0.6567636
72	0xbec35524	-0.38150895
73	0x3f9479a2	1.1599619
74	0x3f4d56be	0.80210483
75	0x3fbbcf46	1.467263
76	0xc0210432	-2.515881
77	0xbf0bb690	-0.54575443
78	0x3eb4ae54	0.35289252
79	0x3ea12532	0.3147369
80	0x3f073fc3	0.5283167
81	0x3f6ebcc1	0.93256766
82	0xbf4e5d3e	-0.80611026
83	0x3eacaf13	0.3372732
84	0x3fb5f835	1.4216372
85	0xbfda0993	-1.7034172
86	0x3db50ddc	0.08840534
87	0x3fb07163	1.3784603
88	0x3f1bf7ee	0.60925186
89	0x3fa9be78	1.3261251
90	0x3e4b0f5b	0.19830076
91	0x3fa18e63	1.2621578
92	0x3fb47583	1.4098362
93	0x3f1362df	0.5757274
94	0x3ed7f1d4	0.42176688
95	0x3fb1c50c	1.3888259
96	0xbf7d3043	-0.98901767
97	0x3fb6f614	1.4293847
98	0x3e86df4e	0.26342243
99	0x3f2986a4	0.6622107
100	0x3f058523	0.52156276
101	0xbe539826	-0.20663509
102	0x3f977e39	1.1835395
103	0xbf2f35ad	-0.6844128
104	0xbe408863	-0.18802027
105	0xbfe349cb	-1.7756895
106	0x3f9d561f	1.2291907
107	0xbf15191b	-0.5824143
108	0x3fb9975d	1.4499317
109	0xbf3d04ce	-0.73835456
110	0x3ea8563f	0.328783
111	0x3fd83463	1.6890987
112	0x3f1749a9	0.5909677
113	0xbe4e303d	-0.20135589
114	0xbf62f4d1	-0.8865481
115	0x3f36c46b	0.7139346
116	0x3f25c38f	0.64751524
117	0xbdf6ad17	-0.12044733
118	0x3db05243	0.0860944
119	0x3fdc4983	1.7209934
120	0xbf2539ae	-0.6454114
121	0xbe518b12	-0.20463207
122	0xbfaa079d	-1.3283573
123	0x3f9e29fd	1.2356564
124	0x3ee67f15	0.4501883
125	0xc0059e79	-2.0877974
126	0xc008f2cb	-2.139819
127	0x3fd65e34	1.6747499
128	0xbff0a664	-1.8800778
129	0xbec14932	-0.37751156
130	0x3f5ca78f	0.86193174
131	0x3ef95ca7	0.487035
132	0xbfafa80a	-1.3723156
133	0xbfcda702	-1.6066592
134	0x3f0c5a40	0.5482521
135	0x3f5c11a0	0.85964394
136	0xbf4f8e7b	-0.8107678
137	0xbfb1b698	-1.3883848
138	0x3dc51c48	0.09624535
139	0xbefb122a	-0.49037296
140	0x3d1450a8	0.036209732
141	0xbf97eb7d	-1.186874
142	0xbecac958	-0.39606738
143	0x3e8f9406	0.2804262
144	0xbf637a26	-0.8885826
145	0xbfa3b992	-1.2791007
146	0xbc3cac88	-0.011515744
147	0xbeb3eeb0	-0.35143042
148	0x3f921d62	1.1415217
149	0xbf7e6205	-0.99368316
150	0x3d8625ed	0.065502025
151	0xbf0cd259	-0.55008465
152	0xbfb442ce	-1.4082887
153	0xbf887d12	-1.0663168
154	0xbe294255	-0.1652921
155	0xbf0662a9	-0.52494293
156	0x3dc6c2e3	0.097051404
157	0x3ea75b6d	0.3268694
158	0x3f50654c	0.81404567
159	0xbfb4a968	-1.4114199
160	0x3f53faf2	0.8280479
161	0xbfb7d08a	-1.4360516
162	0x3e229b5a	0.15879574
163	0xbf3a769e	-0.72837245
164	0x3f290a67	0.660315
165	0xbf2d6301	-0.6772919
166	0x3f6841f3	0.9072563
167	0x3de1cd01	0.110254295
168	0xbf05916f	-0.5217504
169	0x3efd967a	0.49528867
170	0x3fb605a7	1.4220475
171	0x3f852edb	1.0404924
172	0x3fff8b5c	1.9964404
173	0xbf960e76	-1.1723163
174	0x3edfbae0	0.43697262
175	0x3ed93f02	0.42430884
176	0x3e6ab83e	0.22921845
177	0xbea7e281	-0.32789996
178	0xbe2d5373	-0.16926365
179	0x400bc5b1	2.1839411
180	0xbf1d7271	-0.6150275
181	0x3f875bb9	1.0574867
182	0xbec193d8	-0.37808108
183	0xbd9f13b5	-0.07767431
184	0xbf1ea9a9	-0.6197763
185	0x3ee79600	0.45231628
186	0x3c883f1b	0.016631654
187	0xbfbe52f2	-1.4869063
188	0x3f41d5b2	0.757167
189	0x3f9f491b	1.2444185
190	0x3dd3c8e3	0.103410505
191	0xbfe9552c	-1.8229117
192	0xbf31533c	-0.6926763
193	0xbf6a80e2	-0.9160291
194	0xbf60a7ac	-0.87755847
195	0xbd82cdd8	-0.06386918
196	0xc011b214	-2.276494
197	0xc0006d9f	-2.0066907
198	0x3ff69e64	1.9267087
199	0x3f96f31d	1.1792942
200	0xbdacfbd1	-0.08446468
201	0x3dc19c2c	0.094536155
202	0x3f802ed0	1.0014286
203	0x3ff603e0	1.9219933
204	0x3f7f6d46	0.99776113
205	0x3f9e24d1	1.2354985
206	0x3e614712	0.21999767
207	0x3dde6398	0.1085884
208	0xbeee645e	-0.4656095
209	0x3eac0312	0.33596092
210	0x3fa47b12	1.2850058
211	0x3dcfc041	0.101440914
212	0xbeb6729a	-0.3563431
213	0xbfa1e9ba	-1.2649453
214	0x3fba7d9d	1.4569584
215	0xbf0802d8	-0.5312934
216	0x3e3b14f9	0.18269719
217	0xbfa5f011	-1.2963887
218	0x3f33b8c5	0.7020381
219	0xbdb4dbaa	-0.0883096
220	0xbf2f0bfd	-0.6837767
221	0xbe8ef2c8	-0.27919602
222	0x3f182953	0.59438056
223	0xbe899a90	-0.26875734
224	0xbea14277	-0.3149602
225	0x3f9f69da	1.2454178
226	0x3fbe753f	1.4879531
227	0x3e84e3b3	0.2595497
228	0x3edfd36e	0.43715996
229	0x3ea04a71	0.31306794
230	0xbfc67759	-1.5505172
231	0x3f30eeca	0.69114363
232	0x3e1bef52	0.15228012
233	0x3fc70b5a	1.5550339
234	0x3edb0b75	0.4278218
235	0x3f946666	1.159375
236	0x3f03084b	0.5118453
237	0xbf651a9a	-0.89493716
238	0x3ec0594c	0.37568128
239	0xbefeee01	-0.49790958
240	0x3f201cdd	0.6254404
241	0x3fb301e2	1.398495
242	0xbd1abcac	-0.037777588
243	0xbf171d8c	-0.5902946
244	0xbfacc4cf	-1.3497561
245	0x3f2231cb	0.6335723
246	0x3dc1c66b	0.09461673
247	0x3fbd08dc	1.4768329
248	0xbef66d9b	-0.48130497
249	0xbed3b4d0	-0.41348886
250	0xbfa3d9bc	-1.2800822
251	0xbf336d3c	-0.70088553
252	0x3fac5e6a	1.3466313
253	0x3f7464d5	0.9546636
254	0xbf6f38cd	-0.93446046
255	0xbf3e5ce4	-0.7436049

conv2.5.kernel f4 [64, 1, 3, 3]
0	0x3ee1a253	0.44069156
1	0x401621d2	2.3458142
2	0xbed4c538	-0.41556716
3	0xbfc9110a	-1.5708325
4	0xc005695a	-2.0845551
5	0x3f694dc7	0.91134304
6	0x401f44ec	2.4885817
7	0xbde21b3b	-0.1104035
8	0x3e194a77	0.14969812
9	0xbed8dfaa	-0.42358142
10	0x3e95afec	0.2923578
11	0x3f8466d0	1.0343876
12	0xbf693bcf	-0.91106886
13	0x3e17f011	0.14837672
14	0xbf4721c7	-0.77785915
15	0x3e4be4b4	0.19911462
16	0xbfcf1589	-1.6178447
17	0x3f8a47e8	1.0803194
18	0xbecafce6	-0.3964607
19	0x3fcaab22	1.5833476
20	0x3effe5e1	0.4998007
21	0x3e231555	0.15926106
22	0xbf89cd2c	-1.0765738
23	0x3e23ba7e	0.1598911
24	0xbfdae929	-1.7102405
25	0xbd7dd21a	-0.061967947
26	0x3f07c1ca	0.53030074
27	0x3fc2bc1f	1.521366
28	0xbee207a1	-0.44146445
29	0x3f597c27	0.84955066
30	0x3ef8e9e3	0.4861594
31	0xc00eff43	-2.23433
32	0x3d90ba50	0.07066786
33	0xbf9fa0ce	-1.2470949
34	0xbd8525b9	-0.06501336
35	0xbf60db49	-0.878346
36	0xbdbf27e6	-0.09333782
37	0xbfb2edf7	-1.3978871
38	0x3f49a34d	0.787648
39	0xbfdb31d5	-1.7124583
40	0x3eb47cfe	0.3525161
41	0xbfcde007	-1.6083993
42	0xbec5023c	-0.38478267
43	0xbf8604a7	-1.047017
44	0xbf9b8de8	-1.2152681
45	0x3f8c7fb2	1.097647
46	0xbd892245	-0.066959895
47	0x3ea448c1	0.32086757
48	0x3edfa244	0.43678486
49	0x3bd5e407	0.006527427
50	0x3f7be10b	0.98390263
51	0xbd9bd9f2	-0.07609929
52	0xbf6c7197	-0.92360824
53	0x3ddd0b59	0.1079318
54	0x3f4a35b9	0.78988224
55	0x3ed8727c	0.42274845
56	0xbea16936	-0.31525582
57	0x3eedc22e	0.4643721
58	0x3f99bf6f	1.2011546
59	0xbf932d6f	-1.149824
60	0x3e82cdfc	0.2554778
61	0x3f8b08bc	1.086204
62	0x3f7dc91e	0.99135005
63	0xbfbeb871	-1.4900037
64	0x3daaba89	0.0833636
65	0x3f67dc3f	0.90570444
66	0x3f369d83	0.71334094
67	0xbf8a6eb3	-1.0815033
68	0x3f36ac83	0.7135698
69	0xbf864c22	-1.0491984
70	0x3f18501b	0.5949723
71	0x3f868acb	1.0511106
72	0x3f5b380a	0.85632384
73	0x3f3b8c57	0.73261017
74	0x402824e4	2.6272516
75	0x3ede6bda	0.4344166
76	0xbf5304c9	-0.82429177
77	0xbf45f423	-0.7732565
78	0xbf7cf49d	-0.9881075
79	0xbf657ce5	-0.896437
80	0x3f4b37a6	0.7938179
81	0xbf9a3fa5	-1.2050673
82	0x3f20e206	0.62844884
83	0xbecf0ccf	-0.4043946
84	0x3ea0b95c	0.31391418
85	0xbd8316a0	-0.064008
86	0xbed163ee	-0.40896553
87	0xbf0c4769	-0.54796463
88	0xbf357b23	-0.70891017
89	0x3ff9ef1f	1.9526099
90	0xc01cb810	-2.4487343
91	0xbf90b391	-1.1304799
92	0x3f3fda7b	0.7494275
93	0xbf6a3f78	-0.91503096
94	0xbeac66f9	-0.33672312
95	0xbf647eb5	-0.8925584
96	0xbd7c5c83	-0.061611664
97	0x3e7079c1	0.23483945
98	0x3f9e489f	1.2365912
99	0xbc9340e9	-0.017975288
100	0x3ee96739	0.45586565
101	0x3fa204a7	1.265767
102	0x3ecb5182	0.39710623
103	0xbf207527	-0.6267876
104	0x3f09e558	0.53865576
105	0xbf5169bb	-0.81801957
106	0xbe8ac075	-0.27099958
107	0xbdd96723	-0.10615375
108	0xbfdb26ef	-1.7121257
109	0x3f4d09a2	0.80092824
110	0xbe89bca6	-0.2690174
111	0x3e5533f2	0.20820597
112	0xbe8488a3	-0.25885496
113	0x3f8fe3a5	1.1241347
114	0x3f657851	0.89636713
115	0xbf4152eb	-0.7551715
116	0x3f0d1c89	0.55121666
117	0xbf52607c	-0.82178473
118	0x3f53fd3e	0.8280829
119	0x3fae7d73	1.3632034
120	0xbc70161e	-0.014653711
121	0xbe9f6703	-0.3113328
122	0x3e87fed4	0.26561606
123	0x3e142871	0.14468552
124	0x3f907d30	1.1288204
125	0x3e030c91	0.12797762
126	0xbf4c0ab4	-0.7970383
127	0x3f3c89ad	0.73647577
128	0xc0289d4b	-2.6346004
129	0xbf89719e	-1.0737798
130	0xbeab8756	-0.3350169
131	0x3f6f2e77	0.93430275
132	0x3e23d468	0.15998995
133	0xbf7259e5	-0.9466842
134	0xbdab18fc	-0.08354375
135	0x3fad6629	1.3546802
136	0x3d9d8a28	0.07692367
137	0x3d4748ee	0.048653536
138	0x3d157ee0	0.03649795
139	0xbeba128c	-0.36342275
140	0xbec465ca	-0.3835891
141	0xbea9b361	-0.33144668
142	0x3fb7286d	1.4309212
143	0x3f8fd888	1.1237955
144	0x3fef24a3	1.8683056
145	0x3f162936	0.5865663
146	0x3ebd5de3	0.36985692
147	0x3ef41a43	0.47676286
148	0x3eac1930	0.33612967
149	0xbd8b65ae	-0.06806503
150	0x3e27f4dd	0.16402002
151	0xbfa43a11	-1.283022
152	0x3f3eabc7	0.7448086
153	0x3fd17a6d	1.6365486
154	0x3efcbf7c	0.4936484
155	0x3ef00241	0.4687672
156	0x3f6d7cae	0.9276837
157	0xbea4eefe	-0.32213587
158	0xbf8365f2	-1.0265486
159	0x3f0d05e4	0.55087113
160	0xbea3296c	-0.3186754
161	0xbb088ef9	-0.0020837171
162	0x3f69257a	0.9107281
163	0xbea0aa91	-0.31380132
164	0xbe82b546	-0.25528926
165	0xbe8aa124	-0.27076066
166	0x3f9ae44a	1.2100918
167	0xbf535c3d	-0.8256262
168	0x3f2c364e	0.6727036
169	0xbfa05717	-1.2526578
170	0x3f65d8bc	0.89783835
171	0x3e16f4b0	0.14741778
172	0x3fa78fc3	1.3090748
173	0x40649e9f	3.5721815
174	0x3f9be556	1.2179363
175	0xbf8515de	-1.0397298
176	0x3f42aaa6	0.7604164
177	0x3e742889	0.23843588
178	0x3dbaa705	0.09113888
179	0xbfafe526	-1.3741806
180	0x3faf4ded	1.3695656
181	0x3f8deff9	1.1088859
182	0x3ddf611d	0.10907195
183	0xbf80f747	-1.0075463
184	0xbfc63917	-1.5486172
185	0x3e76381a	0.24044839
186	0x3fa7556f	1.3072947
187	0xbd115f8d	-0.035491515
188	0x3f11f9be	0.570217
189	0x3f21ba93	0.63175315
190	0x403e3b32	2.972363
191	0xbeb4360a	-0.3519748
192	0x3e26358b	0.16231363
193	0x3d5217e4	0.051292315
194	0x3fad5b10	1.3543415
195	0xbee75304	-0.45180523
196	0xc0069bf0	-2.1032677
197	0xbe39094b	-0.18069951
198	0xbe26c8ea	-0.1628758
199	0x3ed4c327	0.4155514
200	0x3edf6f93	0.43639812
201	0x4008b2b9	2.1359084
202	0x3f640977	0.8907694
203	0xbf128dd6	-0.57247674
204	0xbdba705c	-0.09103462
205	0xbf1078a4	-0.56434083
206	0xbf53a768	-0.82677317
207	0x3f6125d6	0.8794836
208	0xbf09a860	-0.53772545
209	0xbd4d75d5	-0.0501612
210	0xbf1ba893	-0.608041
211	0xbfe48466	-1.7852905
212	0xbf1fd890	-0.62439823
213	0x3ec00e22	0.37510782
214	0xbf2cc37a	-0.67485774
215	0x3f00f4b3	0.5037338
216	0x3fad271e	1.3527563
217	0x3fc501b1	1.5391141
218	0xbe92d5bd	-0.28678694
219	0x3de3b74f	0.11118948
220	0xbefdd37a	-0.49575406
221	0x3ed1d44b	0.4098228
222	0x3e048c06	0.1294404
223	0xbf87025b	-1.0547594
224	0xbcde9079	-0.0271685
225	0xbf7a85a3	-0.97860163
226	0x3ed670c0	0.41882896
227	0x3eeeb737	0.46624157
228	0xbfea9ec5	-1.8329703
229	0x3f655575	0.8958352
230	0xbeea90cc	-0.45813596
231	0xbf866210	-1.0498676
232	0xbf5ab767	-0.854361
233	0xbea63ff9	-0.32470682
234	0x3d9c63df	0.076362364
235	0xbda1ee88	-0.07906824
236	0x3eaf00f3	0.34180412
237	0xbfc55a10	-1.541811
238	0xbfda3e1f	-1.7050208
239	0x3c46ee23	0.012141737
240	0x3f4a7bdb	0.7909524
241	0xbf55be77	-0.8349375
242	0x3f3a2f07	0.7272801
243	0x3f090b45	0.5353282
244	0xbe3ec754	-0.18630725
245	0x3e1167db	0.14199774
246	0x3e9ac959	0.3023174
247	0xbdfd4bbb	-0.1236796
248	0x3fdbeb16	1.7181118
249	0x3ed7350e	0.42032665
250	0xbf86937a	-1.0513756
251	0x3f847859	1.0349227
252	0x3f4fdfb0	0.81200695
253	0x3dd612e0	0.10452819
254	0x3f951d70	1.1649609
255	0xbf3c5a81	-0.735756

conv2.6.kernel f4 [64, 1, 3, 3]
0	0xbeef197f	-0.4669914
1	0x3fcc29e5	1.5950285
2	0x3f2f4c88	0.6847615
3	0xbe1a7572	-0.15083864
4	0xbe988cc5	-0.297949
5	0xbe33748e	-0.17524931
6	0x3d154c4b	0.03644971
7	0xc0584af4	-3.3795748
8	0x3f8ada91	1.0847951
9	0x3f96109b	1.1723818
10	0xbf8ca6d8	-1.0988417
11	0x3dc100f1	0.09424008
12	0x3f8db29c	1.1070132
13	0x3f225893	0.63416404
14	0xbfaffb8b	-1.374864
15	0x3f54af79	0.8308025
16	0x3e4c2728	0.19936812
17	0xbe0e5a74	-0.13901693
18	0x3ec8c251	0.39210752
19	0x3ea5e520	0.3240137
20	0xbedbd3c0	-0.4293499
21	0x3fab2bf8	1.3372793
22	0xbf82c5ce	-1.0216615
23	0x3d58a236	0.05288907
24	0x3f480f85	0.7814868
25	0xbe92d3d2	-0.2867723
26	0xbe2268db	-0.15860312
27	0xbf53983a	-0.82654154
28	0x3f9d437e	1.2286222
29	0x3f3b4ff1	0.73168856
30	0xbf2f4b59	-0.68474346
31	0xbbb56f58	-0.005536955
32	0x401eaab7	2.4791696
33	0x3e8d9588	0.27653146
34	0xbe79d090	-0.24395967
35	0xbf3fcfe3	-0.74926585
36	0x3e163bce	0.14671251
37	0x3da5ca0a	0.080951765
38	0x3dd777c2	0.10520889
39	0x3f4ed0d1	0.8078738
40	0xbfef2c3f	-1.8685378
41	0x3e58496f	0.21121763
42	0xbec18a00	-0.37800598
43	0xbf131022	-0.5744649
44	0x3f4f210b	0.80909795
45	0x3b9e52e6	0.0048316596
46	0xbeef5fdb	-0.4675282
47	0x3fa31133	1.2739624
48	0x4001b250	2.0265083
49	0xbfaf0734	-1.3674073
50	0xbe89814c	-0.26856458
51	0xbf7bb36e	-0.9832066
52	0xbfa6681a	-1.3000519
53	0xbe7a8155	-0.24463399
54	0xbfc1f55b	-1.5153002
55	0x3f8bce6a	1.0922368
56	0x3f7de764	0.991812
57	0x3f3c1b61	0.73479277
58	0x3d387957	0.045037594
59	0x3e7efdcb	0.24901502
60	0x3fda441f	1.7052039
61	0x3eb6e39a	0.3572052
62	0x3ef3b4eb	0.47598967
63	0x3f27495e	0.65346324
64	0x3f866c6b	1.0501837
65	0xbe4935ad	-0.19649382
66	0x3e782495	0.24232705
67	0x3d932ad7	0.071859054
68	0xbe818f5b	-0.25304684
69	0xbf2a7141	-0.6657906
70	0xbfdd2dd1	-1.7279607
71	0x3ec9d78e	0.39422268
72	0xbf2d504d	-0.67700654
73	0xbfd416c9	-1.6569453
74	0x3dc3677b	0.09541222
75	0x3f2d5445	0.6770671
76	0x3ee099cf	0.43867347
77	0xbf1990e9	-0.5998674
78	0xbf4d6700	-0.8023529
79	0xbf49b89d	-0.7879732
80	0x3f41c7b1	0.7569533
81	0x3cd747af	0.026279299
82	0xbf9b151c	-1.2115817
83	0xbe9c0661	-0.30473617
84	0x3eee0672	0.46489292
85	0x3f61366d	0.8797367
86	0x3e899ecd	0.26878968
87	0x3ed1baed	0.40962926
88	0xbf732992	-0.94985306
89	0xbfa153aa	-1.2603657
90	0x3fd39e71	1.6532727
91	0x3f1b4c4e	0.60663307
92	0xbf973647	-1.1813439
93	0x3f88f184	1.0698705
94	0x3efc2aae	0.49251312
95	0xbfceced9	-1.6156875
96	0xbf874800	-1.0568848
97	0xbbd5d24f	-0.006525315
98	0xbf03ccb0	-0.51484203
99	0xbcdb114d	-0.026741648
100	0x3fa20f2a	1.2660878
101	0x3f477911	0.7791911
102	0x3ef386e5	0.47563854
103	0xbef78834	-0.48346102
104	0xbeaf4ba9	-0.34237412
105	0xbf8685a1	-1.050953
106	0x3fcb47c0	1.5881271
107	0x3fe5c04f	1.7949313
108	0x3f118e95	0.5685819
109	0xbf1c644a	-0.6109053
110	0xbf3e9c3c	-0.74457145
111	0x3e98875a	0.29790765
112	0x3e9dfe40	0.3085804
113	0xbf14b857	-0.5809378
114	0x3f2e19c6	0.6800808
115	0x3e8afc30	0.2714553
116	0xbf7974d0	-0.97443867
117	0xbf4579b5	-0.77138835
118	0xbd40cab9	-0.04706833
119	0xbe5d916d	-0.21637507
120	0x3f11d62d	0.5696743
121	0x3f207485	0.62677795
122	0xbfaa91ca	-1.3325741
123	0x3eeca084	0.46216214
124	0xbfa864b8	-1.3155737
125	0x3ea541c3	0.32276735
126	0xbe2d82fe	-0.16944501
127	0x3f321a95	0.6957181
128	0x3ff668d3	1.925074
129	0x3f9d78e4	1.2302518
130	0xbeb8c88d	-0.36090508
131	0xbf1ae0e0	-0.6049938
132	0xbe7414da	-0.23836079
133	0xbfa19a28	-1.262517
134	0x3ead9bb4	0.33907855
135	0x3f7355f6	0.9505304
136	0xbe747516	-0.2387279
137	0x3d498455	0.049198467
138	0xbf997aef	-1.1990641
139	0x401af233	2.4210327
140	0xbf59cb3d	-0.8507574
141	0x3efff703	0.49993142
142	0x3ea4399c	0.32075202
143	0x3fffab6d	1.997419
144	0xbfbd2078	-1.4775534
145	0xbfd3466f	-1.650587
146	0x3e9a7a8d	0.30171624
147	0xbeefb5d2	-0.46818405
148	0x3f9ecd67	1.2406434
149	0x3e81676f	0.25274226
150	0xbed7c1a2	-0.42139918
151	0xbf8b9d27	-1.0907334
152	0x400c5231	2.1925166
153	0x3f12a8b8	0.57288694
154	0x3e63870c	0.22219485
155	0x3e97a3b7	0.29617092
156	0xbf82f8b9	-1.0232154
157	0xbf1656b7	-0.58726066
158	0x3fe8b306	1.8179634
159	0x3fa976d6	1.3239391
160	0x3bb3981c	0.0054807793
161	0x3f4ec022	0.8076192
162	0x3d413c01	0.047176365
163	0x400386c4	2.0551004
164	0x3ecaa712	0.3958059
165	0xbde3cc41	-0.11122943
166	0x3ea0f591	0.31437352
167	0x3ffc6f59	1.9721481
168	0xbeea85f6	-0.4580533
169	0xbfaaa1a2	-1.3330576
170	0x3eef0f3e	0.46691316
171	0x3e1336d4	0.14376384
172	0xbf524ca0	-0.8214817
173	0x3f99c1aa	1.2012227
174	0x3efde9ba	0.49592382
175	0x3f52e8cc	0.8238647
176	0xbd87c359	-0.066290565
177	0xc015961e	-2.3372874
178	0xbf411bbe	-0.75432956
179	0xbff5c5ed	-1.9201027
180	0xbeee90b8	-0.46594787
181	0x3fe0d16c	1.756391
182	0x3e993e97	0.29930565
183	0x3fbab029	1.458501
184	0x3f55b6c4	0.83482003
185	0xbe4bdf81	-0.19909479
186	0xbd42a019	-0.047515962
187	0x3f25db08	0.6478734
188	0xbf5c22b5	-0.8599046
189	0xc00213dd	-2.0324624
190	0xbe59a6ee	-0.21255085
191	0x3e734aea	0.23759046
192	0xbfca9e81	-1.5829622
193	0x39bd91c1	0.00036157484
194	0xbfb717aa	-1.4304097
195	0x3ea06680	0.313282
196	0x3f6455de	0.8919352
197	0xbf2afac6	-0.667889
198	0xbd1a9be1	-0.037746314
199	0x3f04847e	0.5176467
200	0x3f1a77dc	0.6033914
201	0x3fc07b79	1.5037681
202	0x3f1bbae3	0.6083204
203	0xbdf58b53	-0.119894646
204	0xbe4902cd	-0.19629975
205	0xbad1417f	-0.0015964954
206	0xbed55963	-0.4166976
207	0xbfa18f32	-1.2621825
208	0xbfc3ee65	-1.5307127
209	0x3f0fb8a2	0.561411
210	0xbf43a531	-0.7642394
211	0x3e8a4a27	0.270097
212	0xbce74365	-0.028230378
213	0xbfd89318	-1.691989
214	0x3f08e57e	0.5347518
215	0x3eec89a2	0.46198756
216	0xbed598db	-0.41718182
217	0xbf8665bb	-1.0499796
218	0xbf2b3c07	-0.6688847
219	0xbf860291	-1.0469533
220	0xbf97ee6e	-1.1869638
221	0x3fa0eccc	1.2572265
222	0xbeb5cd6c	-0.35508287
223	0xbfb42239	-1.4072944
224	0xbf31888d	-0.69348985
225	0x3ffef1e1	1.9917566
226	0xbfd90f97	-1.6957883
227	0xbf80bf5f	-1.0058402
228	0xbe3379ac	-0.17526883
229	0x3f8ed88f	1.1159838
230	0x3fb124c6	1.3839347
231	0x3fb1a1ee	1.3877542
232	0xbe8758eb	-0.26435027
233	0x3e7d2e6f	0.24724744
234	0x3f0817ad	0.53161126
235	0x3e0aac9b	0.13542406
236	0xbef93436	-0.48672646
237	0xbf0a748f	-0.54084104
238	0xbf5b82ef	-0.85746664
239	0x3f56953a	0.8382145
240	0x3e680cf1	0.22661187
241	0xbff2b7eb	-1.8962377
242	0x3e391a60	0.18076468
243	0x3fac16d1	1.3444463
244	0xbfc4143f	-1.5318679
245	0xbfda3afc	-1.7049251
246	0x401087cc	2.2582884
247	0xbebac277	-0.3647649
248	0xbfe98d3d	-1.8246228
249	0xbf0298a4	-0.5101416
250	0x3e0361b5	0.12830241
251	0xbff06b99	-1.8782836
252	0xbfa219db	-1.266414
253	0x3f607b7b	0.87688416
254	0x3eab00e3	0.33399114
255	0x3e8ecba8	0.27889752
