Train_result/TCSVT_Encoder_Detail.model (torch, 55036 bytes, 10 tensors)

conv2.0.kernel f4 [64, 1, 3, 3]
00000000: 3c51 1ebf 7b86 bbbf 8dde 863f bc6e 9a3f
00000010: 59ad fc3f badd 8c3f 5678 fb3d cdc8 da3c
00000020: 6420 5cbf 5c85 80bc f528 f63f 22a4 f3bd
00000030: 0274 0e3f 676b e2be c180 25c0 7bd4 91bf
00000040: 10e4 d43d 0397 76be 5324 0fc0 2b2b 71be
00000050: 9b0a 21bf c2c4 12bd d542 a0be 13d6 9abf
00000060: 070c 963f 6c02 0e40 1dea acbf f9fd 033f
00000070: 1961 813f 3a70 2dbf 2480 443c 39db e23f
00000080: 472c 193f 899d 3d3f 96d8 adbf 9bda 0abf
00000090: dc99 613f e1db 1cbf 0b47 af3e 2bf9 c73e
000000a0: 605c 39be 128b e1be d7b4 8ebf d4e7 ac3f
000000b0: 57ff ba3d 7562 67be c44f df3e 2f0c 96bf
000000c0: 0f61 663f d5d7 c33f 61e9 20bf 4764 50be
000000d0: 4279 773e 3b51 8f3f 7fad 683e 6a61 313f
000000e0: 9a4c 7cbf af30 09bc 2089 0340 3268 5bbf
000000f0: 158c 99bd ab0b 843e f921 ed3d db3e 77bc
00000100: 71c0 9f3f 0ff0 91be 828f 3abf 8279 3dbf
00000110: 70f4 673e d8a2 e9bd 8cf1 473f 69ba 5f3f
00000120: 5afb cb3d e26f 9fbf 3249 d33e f752 db3e
00000130: d005 b83f 8feb 08be 1849 8f3f f30b 1d3e
00000140: 6385 94bf 0680 53bf 7750 1cbf 0e36 753f
00000150: a0bd e6bd a53f c03f ec99 09be 9e18 d5bf
00000160: 4ee1 59bf 2cf0 293e d760 353f f37d 90be
00000170: c478 31bf 8f92 10bf 2929 ee3f cd59 e63e
00000180: e165 8d3e 95b0 9abe 8294 b53d a899 2abe
00000190: 06b2 87bf 27b3 863f 277a 0e40 4ed0 7abf
000001a0: 08f2 453f 3806 56be c7ae bb3f 7b7d 58be
000001b0: 0dd5 41be 1f04 fc3e 80c0 5abf 3b18 edbf
000001c0: b6a5 ba3e 9399 423e 2f0c 8dbf 75ff 06bf
000001d0: a4bc 6ebf 8935 1940 aba9 0cc0 843c 8d3f
000001e0: 22cb f4be bdd7 fdbf 0140 463e 781a 8e3f
000001f0: 630b 6ebf 8b58 7ebf 1527 18bf e0d1 fe3f
00000200: 8787 04bf 86ef 853e 1918 d13f db40 1cbe
00000210: 590a ab3f a8c9 4ebf 5262 7a3e df7b a63f
00000220: dd05 473f 7d5f 99bf 5e8f f0be 2c53 5b3f
00000230: 7655 2d3f e3eb 863e 92ee 293f c2c8 ebbf
00000240: c14a 09be 656d a13e 9675 68bf f9e2 5b3f
00000250: db67 af3f d82b b2be 22a5 b7bf ba3e 3a3e
00000260: 365a 16bf dc00 943f 8b1a ce3d 9d74 52be
00000270: f765 11bf 11fb d73f 6521 0dbf a346 9b3e
00000280: 2d1b 04bf db67 9f3f e2a6 2bbf dce8 043f
00000290: cde6 a63f 8615 24c0 c597 81bf 6471 15bf
000002a0: 1073 ff3c 4e39 bb3d 281d 3d3e 03ea f4be
000002b0: c7da 4cbf 1015 833f 970c f73e fa2e 98bd
000002c0: 0357 b03e b9ce 343c 7ee9 473f de56 16bf
000002d0: dce2 f8be cf25 9abf e744 4ebf 8285 2abe
000002e0: 7d53 9fbc 000f 6abe 3779 ccbe 9685 a6bd
000002f0: d93b d9bf 3de7 eb3d 52f8 4a3e 36d2 1f3f
00000300: a4cf 413f 4160 95bf e4cc 9e3e 5d9a a03e
00000310: bdba 2b40 d9ac 50bf 22b3 393f b6b8 8c3f
00000320: dfbd 45bf 58e8 1e3e 4fe7 7bbe dc2b 1f3e
00000330: d5e2 27bf 9152 a9bf d4a5 d13f 0f10 3cbf
00000340: 3c90 273e b722 a63f 3ddd 2fbd e576 e7be
00000350: b666 5abf 9cce 41bf 8d73 a1be 70f8 2b3e
00000360: 93d5 303f eab5 413f 3d3e 3e3f ccc7 c83f
00000370: 751b b13e b1ac b73f 2293 e03e d6a3 10bf
00000380: a4ef d9be 9d62 553f 4259 4b3f 4cc9 693e
00000390: 0d77 7abd 09ce 94be bc3d 93be 69f2 0c3f
000003a0: ead3 fc3f bc6f 8abd cb74 833f ac54 9b3f
000003b0: c1b5 4b3f 6b6d a1bd 13bf 7d3e 14e8 193e
000003c0: fe22 0b3f 4a55 a0bd 22ad 703f 25a0 d5be
000003d0: 1e62 df3e 37d8 fdbf 77ea 6b3f afc6 5e3f
000003e0: ddb9 103f 66dc dabf dea8 a33f 59ae 773f
000003f0: 6348 d83f c043 b0bf d84d d83f 2877 1cbe
-0.61842704 -1.4650415 1.0536667 1.2065043 1.9740402 1.1005166 0.12278812 0.026707077
-0.85986924 -0.01568859 1.9231249 -0.1189654 0.55645764 -0.44222566 -2.5859835 -1.1392969
0.10395062 -0.24081044 -2.236592 -0.23551624 -0.6290681 -0.035832174 -0.3130099 -1.209658
1.172242 2.2188978 -1.3508946 0.51559407 1.0107757 -0.6774937 0.011993442 1.7723151
0.59833187 0.74068505 -1.3581722 -0.54239815 0.88125396 -0.6127301 0.3423389 0.39057288
-0.18101645 -0.44051415 -1.1148938 1.3508248 0.091307335 -0.22596152 0.43615544 -1.1722468
0.8999185 1.5300242 -0.6285611 -0.20350753 0.2416735 1.1196665 0.22722434 0.6928927
-0.98554385 -0.0083734235 2.0552444 -0.85705864 -0.07497422 0.25790152 0.115787454 -0.0150906695
1.2480603 -0.28503463 -0.72875226 -0.7401353 0.2265184 -0.11408013 0.78102946 0.87393814
0.09960051 -1.2456019 0.4126678 0.42836735 1.4376774 -0.13371108 1.1194181 0.1533659
-1.1603206 -0.82617223 -0.6106028 0.95785606 -0.11266637 1.5019423 -0.13437623 -1.6648138
-0.8510941 0.16595525 0.7085089 -0.28221092 -0.693249 -0.5647363 1.8606311 0.44990388
0.2761679 -0.30212846 0.08866216 -0.16660178 -1.0601203 1.0523423 2.2262056 -0.979741
0.77322435 -0.2090081 1.4662713 -0.21141617 -0.18928929 0.49221894 -0.8544998 -1.852302
0.36454552 0.19003896 -1.1019343 -0.52733546 -0.9325659 2.3938925 -2.1978557 1.1034093
-0.47811228 -1.9831463 0.19360353 1.1101828 -0.92986125 -0.99353856 -0.59434634 1.9907799
-0.517693 0.26159304 1.6335479 -0.15259115 1.3362533 -0.80776453 0.24451569 1.3006552
0.7774332 -1.1982266 -0.4698438 0.85673785 0.6770853 0.26351842 0.66379654 -1.8420641
-0.13407423 0.31528774 -0.9080442 0.8589321 1.3703569 -0.34799075 -1.434727 0.18187991
-0.587314 1.1562762 0.100636564 -0.20552297 -0.5679621 1.6873494 -0.5512908 0.3032733
-0.51603967 1.2453569 -0.6705152 0.51917815 1.3039185 -2.5638137 -1.0124441 -0.58376145
0.031182796 0.091417894 0.18468153 -0.47834787 -0.8002133 1.0240803 0.48251793 -0.07430835
0.34441385 0.011035615 0.78090656 -0.587263 -0.4861058 -1.2042788 -0.80573887 -0.16652492
-0.01944899 -0.22857285 -0.3993623 -0.08130948 -1.6971389 0.115187146 0.19821289 0.6243013
0.7570746 -1.1669999 0.31015694 0.3136777 2.6832726 -0.81513745 0.7253896 1.0993869
-0.77242845 0.1551832 -0.24599956 0.15544075 -0.65580493 -1.3228322 1.6378732 -0.73462003
0.16363615 1.2979344 -0.0429356 -0.45207897 -0.85312974 -0.75705886 -0.3153347 0.1679399
0.6907589 0.75668204 0.7431372 1.5685973 0.3459126 1.4349576 0.43862253 -0.56499994
-0.42565644 0.83353597 0.7943307 0.22830695 -0.061148692 -0.29063442 -0.28758037 0.5505739
1.9752171 -0.06759593 1.0270017 1.2135215 0.7957421 -0.07882198 0.2477992 0.15029937
0.5435027 -0.078287676 0.9401418 -0.41723743 0.43629545 -1.9831609 0.9215464 0.8702192
0.56533605 -1.709851 1.2785909 0.9675041 1.6897091 -1.3770676 1.6898756 -0.1527983

conv2.1.kernel f4 [64, 1, 3, 3]
00000000: 905b e2be 805e 76be 0aba 12bf bb30 a03d
00000010: 32d5 87be 17d6 0dbf 1fef 043f 7719 1a40
00000020: c9a9 c6bf 8018 11bf 209d a73f 7277 0cbf
00000030: 5b65 4b3f 6308 9abe 2f5d d6bf 4269 85bf
00000040: 3d8e a33d 2f76 f4be f58e 803f b764 9bbf
00000050: 6c54 f93d 0e1c a2be b063 a8be 91ef a5bc
00000060: e9d7 a53f dd78 083f 1aaf a33d e4e2 083f
00000070: 462d 7c3d 1ba7 73bf a402 593f 35c4 883f
00000080: 634a 4e3f 9771 1240 756a 863e 7f05 ea3e
00000090: 73c3 8fbd 63dd 9b3e 5dcc da3e 9ab4 7c3f
000000a0: c146 303f e0b7 903f 0bc2 24bf 1c1b 14be
000000b0: e0d2 973e de3e c43e 7b27 9a3f 29cd f73e
000000c0: 9c69 d13f 974c ccbe 7220 663f 6800 00be
000000d0: 929a 823e d0b7 81bf 765f 973e 925b 11be
000000e0: 7819 ad3e 393f a7bf c083 153f f87b aa3f
000000f0: 506f 4a3f 992b 003e f340 993f 5389 093f
00000100: 50f2 3d3f 1756 573e 68a8 973f 1793 a7bd
00000110: 5c0b 9f3f 4b6b 0d3d 92bc 28bf 492f 8b3f
00000120: 790d 3abf 21fe eebe e976 7b3f 5d34 e73f
00000130: b3a1 f8bf 7d43 993f 802a 6ebf f176 bbbf
00000140: 250e 4c3f c077 8ebf 86f5 a0bf 5049 2b3e
00000150: a8b3 52be b20e ce3f 43ca ae3e 3b6e d4be
00000160: b448 f43f 5612 9e3f 77c9 df3f 6f5b 6f3f
00000170: abe4 bb3d 5da9 5f3e 1e03 803f abe6 2a3f
00000180: e1b8 64be 216b 68bf 7ab1 aa3e 6311 593f
00000190: 5856 f53d 0eb6 2bbf 7b6b eb3f 586c 2c3f
000001a0: 4a4c 5d3f fac3 5fbf a777 0dc0 550e 5f3f
000001b0: 7f6f e4be 6fc5 37bd da83 963f 8a81 dc3e
000001c0: 16a8 233f bb46 80bd 8cb2 b1bf a2e2 f13e
000001d0: da29 0fbf 82e1 81bf 0c01 b13f 73a2 1bbe
000001e0: ced0 9a3e c43b 5d3e fd88 a73f d7b2 12be
000001f0: 327b b9bf a851 4f3e 00f6 6e3f a7ba 0abf
00000200: 8701 3740 be4e 0cbe 6c88 953f 6c88 4abe
00000210: 79f0 e8bf 4988 48bf 3c5b dc3f e901 b83f
00000220: 53f1 603f cfeb c5be aa7b e1be efcc 903e
00000230: 05c7 b13d 7d77 b7bf 17b6 0440 0c07 233f
00000240: e9dd b73f a3de 473f e4f0 c73f 2d28 6f3e
00000250: 17cc adbc b6fc a6bd 4a6b 9c3e 5785 83bf
00000260: b57f 0740 be58 cf3e d35a 03bc 09f1 f0bd
00000270: 3b3f 52bf 1239 c0bd 0df7 a5be 4408 7b3f
00000280: 9bf4 81bf 1ff0 5ebf b938 e03e 2e9b 08bf
00000290: 93e2 72bf 2d3b 1abf 5e1f a53f fbdc a7bf
000002a0: 7584 a33f 111f bbbf faf2 8a3f 461a 77bf
000002b0: d6c7 093f 5fc9 41bf aaed 91bf 157f 3c3f
000002c0: 493b 893f 61d2 c73e a218 74bf c689 263f
000002d0: 51f6 973f 8e31 ebbe e995 783e 710f 76bf
000002e0: 81cb 4ebe 06a7 1e3f 1ddc 97bf 651c 803f
000002f0: 1492 c83f eb69 9d3e 8e1d bf3d a218 ffbf
00000300: 6347 f13e 69ac 67bc 6c3a 57bc 91cb 423f
00000310: 4eb3 d53f c9d4 9bbf b7e7 de3f c683 873f
00000320: 7feb 763d 8c3b f73e 7ac9 b73f da8f 8d3f
00000330: 5f4b 80bf c974 013f eec6 9f3e b095 a4be
00000340: de8c c1bf 30f3 90be 3881 8a3f fd3c fdbf
00000350: f0c2 583d 45ab 0ebf 4d1a a9be a32e babf
00000360: a9cc 973e 0d13 16be ed4d 743f f0dc a23f
00000370: d70e 923e b75e 083f d6f3 e13f e56d 8e3f
00000380: 2ec1 cdbd 9781 073f bc0a 093d 61df 55bf
00000390: c027 b3bf 8489 82bf a7ec 5d3f fe24 ab3f
000003a0: e23a f0bf fab7 9b3f ccb1 b4bf a5db 893f
000003b0: af61 3abf cc75 0cbf a1e5 933e 6015 2ebf
000003c0: 0488 adbd d8a8 2abe 0ac2 203f 488f 4d3f
000003d0: 3df4 9d3e 27d3 3240 2305 093f 703e 17be
000003e0: 5659 54be 7711 5d3f 165a 7b3f 452d 103e
000003f0: e86d b8bf 6cee ac3e a8b8 4e3f 7f5a e93e
-0.44210482 -0.24059486 -0.57315123 0.078217946 -0.26529843 -0.554048 0.5192737 2.4078043
-1.5520564 -0.5667801 1.3094826 -0.5486976 0.7945153 -0.30084524 -1.6747187 -1.0422747
0.07986114 -0.47746417 1.0043627 -1.2140111 0.12174305 -0.3166203 -0.32888556 -0.020255836
1.2956516 0.5330942 0.07992382 0.5347121 0.061566614 -0.9517686 0.84769654 1.0684878
0.80582255 2.288183 0.26253095 0.45707318 -0.07019701 0.30442342 0.42734042 0.98713076
0.6885796 1.1306114 -0.64358586 -0.14463466 0.29653072 0.38329214 1.2043298 0.48398712
1.6360354 -0.39902183 0.8989326 -0.12500155 0.25508553 -1.013422 0.29565018 -0.14195088
0.33808494 -1.3066169 0.5840416 1.3319082 0.790761 0.12516631 1.1972946 0.53725165
0.74197865 0.21028934 1.1848269 -0.08182352 1.2425342 0.03452615 -0.65912735 1.0873805
-0.7267681 -0.4667826 0.9822832 1.8062855 -1.9424347 1.1973721 -0.930336 -1.4645673
0.7970908 -1.1130295 -1.2574928 0.16727185 -0.20576346 1.6098235 0.34138688 -0.4149035
1.9084687 1.2349346 1.7483357 0.9349889 0.09174474 0.2184195 1.0000951 0.6675822
-0.2233615 -0.90788466 0.3333853 0.84792155 0.119793594 -0.6707467 1.8392175 0.6735282
0.8644453 -0.8740841 -2.210428 0.87131244 -0.44616315 -0.04486602 1.1758988 0.4306758
0.63928354 -0.06263491 -1.3882613 0.4724322 -0.55923235 -1.0146945 1.3828444 -0.15198688
0.3023743 0.2160483 1.308868 -0.14326034 -1.4490721 0.20245993 0.93344116 -0.5419106
2.8594682 -0.13701913 1.1682258 -0.19778603 -1.8198386 -0.78332955 1.7215343 1.4375583
0.8786823 -0.3865647 -0.4403966 0.28281352 0.08680538 -1.433334 2.073614 0.6368263
1.4364597 0.7807409 1.5620389 0.2335517 -0.021215482 -0.081536695 0.30550605 -1.0275067
2.1171696 0.40497392 -0.00801726 -0.11764724 -0.8212773 -0.09385885 -0.32415047 0.9805949
-1.0152773 -0.87085146 0.43793276 -0.53361785 -0.94876975 -0.60246545 1.2900198 -1.3114313
1.2774798 -1.4618856 1.08554 -0.96524465 0.5382055 -0.7569789 -1.1400654 0.7363141
1.0721217 0.39027694 -0.95350087 0.65053976 1.1872045 -0.45936245 0.24275936 -0.9611731
-0.20194818 0.6197361 -1.1864048 1.0008665 1.566958 0.30744871 0.09331809 -1.9929392
0.47124776 -0.014140227 -0.013136487 0.7609187 1.6695344 -1.2174312 1.7414464 1.0587089
0.06028318 0.48287618 1.4358361 1.1059525 -1.0023001 0.50568825 0.3120646 -0.32145452
-1.5121114 -0.28310537 1.0820684 -1.9784237 0.052920282 -0.55730087 -0.33027878 -1.4545482
0.2964833 -0.14655705 0.95431405 1.2723675 0.28526947 0.53269523 1.7652538 1.1127287
-0.10046612 0.52932113 0.033457503 -0.83543974 -1.3996506 -1.0198216 0.8668923 1.3370664
-1.876797 1.216552 -1.4116759 1.0770155 -0.72805303 -0.54867244 0.2888613 -0.68001366
-0.084732085 -0.16665971 0.6279608 0.80296755 0.30850402 2.7941377 0.53523463 -0.14769912
-0.20737204 0.86354774 0.98184335 0.14079769 -1.4408541 0.3377565 0.80750513 0.45576856

conv2.2.kernel f4 [64, 1, 3, 3]
00000000: 9302 99bf 8808 153e 78cc 5bbf f807 6a3f
00000010: f54b 64be 82bb 743f f568 823e 4798 56bf
00000020: 4db3 633e 15e0 09c0 ecbf 9b3f 6c25 10c0
00000030: 803e afbe 2af5 253f 029b d73f ccb6 8dbd
00000040: 535a bf3f c80f 13c0 9f9a 6c3e cd07 0fbf
00000050: 3295 dcbe 7e2f a8be 8c0a 333f f2e1 4f3d
00000060: f0b5 37bf 134d 663f 40b2 943f 7b24 5d3f
00000070: fafc 983f 75f5 1040 c2a0 993f 99a7 ad3d
00000080: b46e ddbe 80fe abbd 7953 6bbf 0f15 e73f
00000090: 969c 393f 2682 4cbf 27a8 4bbf 5693 913e
000000a0: 607b 07bf d471 043e 8093 54bf 4416 ee3f
000000b0: 1c99 c43d cdef bdbe d216 27c0 dab6 51bf
000000c0: f43f 0ebe 08db 85be 6c98 ff3f ddfe f33e
000000d0: d688 dfbe 9eb9 e3be d94f 7e3f 163d a13e
000000e0: 9f68 47be c694 383e 96a1 b33e 905e 273f
000000f0: 29d8 0a3f 15a2 563e ee81 78bf 2ec9 cabf
00000100: ed99 ef3d 5e0b ddbe f487 d53d cdd2 913e
00000110: c08d 70be 0a3f 0bbe 6037 47bf df9e 87bf
00000120: ea99 a33f b8b8 3a3f 50ea 1fc0 add1 73bf
00000130: f30a aabf 9d47 31bf cb3c 8fbe 6014 503f
00000140: 65da e4be 2a32 b43f 6a76 a83e 2dcf 51bf
00000150: 9ee8 d2bf 1ad3 82bf 1061 503e 50ce 943e
00000160: 70ce 30bf b278 4dbf 2e1e f7be a25f 443f
00000170: 779f 803f da9e 193f e451 883e 25c4 7e3f
00000180: 4d13 e1bf 7852 8d3f 9d3a ef3f a89c 643f
00000190: 0b41 c13f 0444 db3e 5575 823e 630b 1cbf
000001a0: 9b76 09c0 97e9 d9bf 4bcc 883e d167 b63f
000001b0: c836 193f 2467 9b3f 7acc c03e e4ca 103f
000001c0: d769 803f f9ce 08c0 6770 8f3d 230c 53bd
000001d0: 6ae0 39bf 4172 c0bf cf14 e83f 43f0 a13f
000001e0: 373e 493e 0c63 44bf 36a3 84be 31cb 07be
000001f0: 61a4 52bf 6ce8 723f b4bb 1bbf a7b2 b23d
00000200: 4f0f 963f 6d40 113f 2dae 533f e0b3 fabe
00000210: 2d71 9cbe e474 40be 7f6c 0fc0 2575 f8be
00000220: 470b e1be 73ec 9f3e d545 413f 165a 74bd
00000230: 5b52 22c0 c67a 81be 9f85 e7bd 9afd a33f
00000240: e741 d7bc 31b3 ee3d 4bf5 843f 1bbf 983b
00000250: 0201 d83f c717 ce3d 083a 263f b6e5 9cbf
00000260: e7f9 de3e f20b c6be 68fb c93f 5263 de3b
00000270: 8002 74bf 88b3 a1bf 2df4 84be 81a4 623e
00000280: 2c89 a93f f097 bf3d 40fd 4bbe 88e7 e0bf
00000290: 1a56 823f c3da e5bf 0866 563e 6763 85bf
000002a0: 4a33 713f a413 09bd 0cf9 debd 61e9 e9bd
000002b0: ff47 423e 02f6 b93f 08fd 80bf e341 91be
000002c0: 5db0 0b40 f4c8 c33e 425c 70bf 1cdb a43e
000002d0: ecb5 db3e 8663 02be 4cf1 14bf d939 acbf
000002e0: 37b9 1ebf d338 003f af17 edbe f40c d03e
000002f0: ec85 0540 a3a4 663e 5522 f53f 2205 e6bf
00000300: 0da3 8c3f b3ea c43f 7dc9 b63f 4f21 243e
00000310: 13c2 79bf 0c14 853f 4dde 2a3f e4ed bfbf
00000320: a27f eb3d 30a7 6f3e c544 e03f 3467 643c
00000330: dbc8 493f f697 28bd b414 df3f 5978 d83e
00000340: 6838 e23f c754 22bf 95fc 663f 432c ea3e
00000350: b210 3b3d 08f4 2bbf 4139 ec3f 1512 d93c
00000360: 7cbb b13f 2c48 09c0 03f0 0bc0 a451 48be
00000370: 21ff 213f ea88 423f 9cc2 c5bd 6ca8 4abf
00000380: 31c0 efbf 4178 8c3f a5d5 d8be 9bf2 e5be
00000390: 4beb 83bf a1f3 5abe ff00 973d 123e d13e
000003a0: 91de 3dbf 327e ef3e 321a c73e e86b 3b3f
000003b0: ac95 973f a2cd 9abe b143 233f d0ff 9ebe
000003c0: 8f6e 41bc 6401 95bf 5714 02bf a003 7c3d
000003d0: b374 c0be 9926 8f3f d4e4 05bf ea23 88bf
000003e0: 70ec 06c0 1ea1 9c3f 3c8f b7be 45a2 fcbe
000003f0: 4908 a53f adc3 193f 5042 6e3f fd91 76bd
-1.195391 0.14554036 -0.8585887 0.9141841 -0.222946 0.95598614 0.254707 -0.83826107
0.22236367 -2.154302 1.2167945 -2.252284 -0.3422737 0.64827216 1.684418 -0.06919631
1.494944 -2.2978382 0.23105858 -0.5587128 -0.43082577 -0.32848734 0.6993797 0.050752588
-0.7176199 0.89961356 1.1616898 0.8638379 1.1952202 2.2649815 1.2002184 0.08479232
-0.43248522 -0.083981514 -0.91924244 1.8053302 0.72504556 -0.7988609 -0.79553455 0.2843272
-0.5292263 0.12934047 -0.8303757 1.8600545 0.09599516 -0.37097016 -2.6107678 -0.81919634
-0.13891584 -0.2614367 1.996839 0.47655383 -0.43659085 -0.44477552 0.9934059 0.31491917
-0.19473504 0.18025503 0.35084218 0.65378666 0.54236084 0.20960267 -0.97073257 -1.5842645
0.11699281 -0.43172735 0.104263216 0.2848114 -0.23491573 -0.13598266 -0.7781887 -1.0595359
1.2781346 0.7293811 -2.4986763 -0.95241815 -1.3284591 -0.692499 -0.2797607 0.8128109
-0.44697872 1.4077809 0.32902843 -0.8195675 -1.6477239 -1.0220673 0.20349526 0.29063654
-0.69065 -0.8026229 -0.48265213 0.76708424 1.0048665 0.60008013 0.26624978 0.9951804
-1.7584015 1.1040792 1.8689762 0.8930154 1.5097975 0.4282533 0.25480142 -0.60954875
-2.147864 -1.7024411 0.26718363 1.4250432 0.59849215 1.2140851 0.37656003 0.56559587
1.00323 -2.1376326 0.07003861 -0.051525246 -0.72608054 -1.5034868 1.813135 1.2651447
0.1965264 -0.76713634 -0.2590577 -0.13261105 -0.8228207 0.948859 -0.6083329 0.087254815
1.1723422 0.5673893 0.82687646 -0.4896536 -0.30555096 -0.1879459 -2.240997 -0.48526874
-0.43953916 0.31235084 0.7549718 -0.059656225 -2.5362766 -0.2528898 -0.11304783 1.2811768
-0.026276542 0.11655272 1.0387357 0.0046614534 1.6875308 0.10063129 0.649323 -1.2257602
0.43550035 -0.3868099 1.5779848 0.0067867422 -0.95316315 -1.2632914 -0.2596754 0.22133066
1.3244987 0.09355152 -0.19920826 -1.7570658 1.0182526 -1.7957386 0.2093736 -1.042096
0.94218886 -0.033465996 -0.10887346 -0.114214666 0.18972777 1.4528201 -1.0077219 -0.2837058
2.1826394 0.38239253 -0.93890774 0.32198417 0.42912233 -0.12733278 -0.5818069 -1.3455154
-0.62001365 0.50086707 -0.46307132 0.40634882 2.086299 0.22523741 1.9151102 -1.7970316
1.0987259 1.5384125 1.4280239 0.16028331 -0.9756176 1.0396743 0.66745454 -1.4994473
0.114989534 0.2340362 1.7520987 0.013940621 0.78822106 -0.041160546 1.7428193 0.42279318
1.7673464 -0.6341061 0.9022916 0.45736894 0.04567022 -0.6716924 1.8454973 0.02649788
1.3885341 -2.14503 -2.1865242 -0.19562393 0.6327992 0.75990164 -0.096562594 -0.7916324
-1.8730527 1.0974199 -0.42350498 -0.44911656 -1.0306181 -0.21382 0.07373237 0.40867668
-0.74167734 0.46775967 0.38887173 0.73211527 1.1842551 -0.3023501 0.63775164 -0.31054544
-0.011806144 -1.1641049 -0.50812286 0.061526895 -0.37589034 1.1183654 -0.5230229 -1.063596
-2.108181 1.2236669 -0.35851467 -0.49342552 1.2893153 0.600642 0.93069935 -0.06019782

conv2.3.kernel f4 [64, 1, 3, 3]
00000000: 3469 1bbf be7b 903f e1cf a7be 450b 25bf
00000010: a2ca d23e 2b8a 553f c711 0cbf ea38 273f
00000020: 1b49 d5be 69fb 4abf 4039 eabf ff34 873f
00000030: a3a5 b33f c9bf 95be 2f7f e83e 21ec 003d
00000040: d41b e2bd 3e1e e03f 52af 88bf e682 f93d
00000050: a156 a43f b0c0 e83d 85df 06bf fa8a 3b3f
00000060: bb18 0bbe 4e79 cabf 8be7 d5bf 834a b03f
00000070: da19 543d fe7a 9fbe 794f 153f 73c4 393e
00000080: d677 1a3f 017c fbbe ec2b 68be bc03 333f
00000090: cbee 86bf 8c21 193f 4d08 d73f 8eba e8be
000000a0: f489 83be 7026 2c3f c803 b0be 5c01 c83f
000000b0: 7f36 9bbf 0022 eebf 2a69 0640 878a 33c0
000000c0: 8ea9 553f 44c4 6fbf 8b65 133d 93ce a53f
000000d0: 162c 0940 a97a fdbe eeec 853e a853 b8bf
000000e0: 93f9 f0be 7684 7a3f 0de1 7abf 8eb9 743e
000000f0: 3567 1f3e 8375 8c3f 9136 54bf fb48 1dbe
00000100: 553c 4dbf f288 3c3e ba0a 2b3f 7887 e8bc
00000110: e83c 92bf dab7 963f 1358 cebf 64ea 46be
00000120: 95e9 77be c153 35be 025e 0cbf 0579 a5be
00000130: 9a1f 04bf 9941 a03e e108 eebd 0a91 9f3e
00000140: bb7e 51bf 47ae 563f 3020 80bf 8e75 1140
00000150: 8720 f53e 3223 e2bf 9ee9 90bf 8014 87bf
00000160: 6468 113d dd80 aebf 5866 6f3f 24c4 eb3e
00000170: 935f a63e 1781 223f 9a47 8ebf e432 d13e
00000180: c4f1 1d3f b841 cb3f a94c e13d e39e 1440
00000190: aec5 ca3d 3b46 e03f bc9c 0c3f ebf3 f93f
000001a0: 9cf7 da3f adb3 c33d 4e6e 5c3e 994d cbbe
000001b0: befa cfbe 52d6 b0bf 369f cdbe b093 933e
000001c0: e264 783f b917 293e f657 e3be cecf 6d3f
000001d0: 8774 b4bf 4f05 883f 975c 60bf 0830 5ebd
000001e0: 9529 dbbf 7251 6dbe 4068 d13e d76c 8d3f
000001f0: 01e7 493f 7d8e 3e3e 7f8f 053f 3277 9b3f
00000200: 64eb 90bf 67d8 0cbf 63d9 823f af45 393f
00000210: 23a9 87bf b109 d63e 0f74 0ebf 23ae 1ebe
00000220: c1c8 d23f 9777 a03d cb70 15c0 5a84 4240
00000230: 0afc 41bf f69c e2bf f4a9 ddbe ae6c 0b3f
00000240: d8a6 7e3e 0151 193f d0e3 3dbf 2301 4bbf
00000250: b88a 803d 1ad5 213d 576a 0c3f b239 78be
00000260: d4f8 6ebf 75b5 aabc 5395 723f b63d 9abe
00000270: 49dc 593d c86f 0fbf 097a 1b3f 478f c7bf
00000280: e3ba 503f b745 203f d4b1 413e 6757 103f
00000290: 568a df3f d036 a3bf 7a45 4f3f 2af1 453f
000002a0: 85b2 24bf 0263 b13f 8800 953e e0e7 86bf
000002b0: 51ec abbd 8f36 91bf c129 00c0 b977 4d3f
000002c0: 222c 543f 81a6 733d ece6 7cbf e22a 243f
000002d0: 4db0 933e d7d9 893f ab01 efbf 9764 9abf
000002e0: 6479 913f b244 15bf 965b 763f 9417 27be
000002f0: bf2e acbf 4f93 57bf 725b 0e3f ecc2 89be
00000300: 07e8 bfbc 5801 c9be e880 cc3d 404b 373f
00000310: a6d0 473f 1213 92bf ac47 0bbf 0c1d 63bd
00000320: e2a9 c0bf 194e 5dbf 2178 613e 2b04 3f3f
00000330: aa65 b63e ad4f 19bf a123 6b3f 5f4e 94be
00000340: 86ce 373f 8840 35bf 0315 0e3f d031 aa3f
00000350: 9b05 abbf 6991 2ebf ec39 e7bc 42fe 443f
00000360: 34d4 283f 37e5 1dbe 279d 3ebf 041f a33f
00000370: 5084 1a3f ada0 ff3f 94ac ee3f fa37 8e3f
00000380: c74b 15bf d974 20bf f502 a93f 3243 2ebe
00000390: 0392 573f df80 c0bd 8c4f 5a3f c0d7 2abf
000003a0: 2928 05bf a032 963f db0b a93f 0d4e 613f
000003b0: 8bf7 bc3f b147 a23d c1a9 fbbe 5a92 b6bf
000003c0: 11f0 30bf a7ad 77be 5d68 fbbe 933f fc3f
000003d0: 1a67 ad3e 3faf 94be d5da b83e c9d8 f63f
000003e0: 907a 763f a4aa 953f db65 ca3d 1bb1 96bf
000003f0: 2357 be3e e6bc 00bf fe91 ac3e 516a e1bf
-0.607074 1.1287763 -0.32775787 -0.6447032 0.41170222 0.8341395 -0.54714626 0.6532122
-0.41657338 -0.7928987 -1.8298721 1.0563048 1.4034923 -0.29247883 0.45409533 0.03147519
-0.11040464 1.7509229 -1.0678504 0.1218317 1.2838937 0.11364877 -0.52684814 0.73258936
-0.13583653 -1.5818269 -1.6711286 1.3772739 0.051782466 -0.31148523 0.5832439 0.18141346
0.60339105 -0.49118045 -0.22673005 0.69927573 -1.0541624 0.59816813 1.6799408 -0.4545483
-0.25691187 0.6724615 -0.34377885 1.5625415 -1.2126006 -1.8604126 2.1001687 -2.80533
0.83461845 -0.9365885 0.03598551 1.2953666 2.1433158 -0.49507645 0.26157326 -1.440053
-0.4706541 0.9785837 -0.9799965 0.23898908 0.15566714 1.0973362 -0.8289576 -0.15359871
-0.80170184 0.18411615 0.6681324 -0.028384909 -1.1424837 1.1774857 -1.6120628 -0.1942535
-0.24210198 -0.17707731 -0.54830945 -0.32318893 -0.5161072 0.31300047 -0.11622787 0.31165344
-0.81834 0.83859676 -1.0009823 2.2728 0.4787638 -1.7666991 -1.1321294 -1.0553131
0.035499945 -1.3633076 0.9351554 0.4604808 0.32494792 0.63478225 -1.1115601 0.4085914
0.6169703 1.5879431 0.1100095 2.3221977 0.09900986 1.7521433 0.5492666 1.9527563
1.7106814 0.09555755 0.21526453 -0.3970764 -0.4062099 -1.3815405 -0.4016053 0.28823614
0.97028935 0.16512956 -0.44403046 0.9289521 -1.4098061 1.062662 -0.8764128 -0.054245025
-1.7122065 -0.231756 0.4089985 1.104884 0.7886811 0.18609042 0.5217208 1.214575
-1.1321836 -0.55017704 1.0222591 0.72371954 -1.0598491 0.4180427 -0.5564584 -0.15496115
1.6467515 0.0783531 -2.3350093 3.039328 -0.75775206 -1.7704151 -0.43293726 0.5446271
0.24868333 0.5988923 -0.7417574 -0.7929861 0.062764585 0.03950987 0.5484976 -0.24240759
-0.9334843 -0.020838479 0.947591 -0.30125207 0.053188596 -0.5602994 0.60733086 -1.55906
0.81535167 0.62606376 0.18915492 0.56383365 1.7464092 -1.2751102 0.8096539 0.7732111
-0.643349 1.385834 0.29101968 -1.0539513 -0.08394683 -1.1344775 -2.0025485 0.8026081
0.8287984 0.059484962 -0.9878986 0.64127934 0.28845444 1.0769604 -1.8672384 -1.2061948
1.136517 -0.58307946 0.962335 -0.16317588 -1.3451766 -0.8420915 0.55608284 -0.26906526
-0.023426069 -0.39258838 0.099855244 0.715992 0.7805275 -1.141207 -0.5440624 -0.055447623
-1.5051844 -0.8644729 0.22018482 0.74615735 0.3562444 -0.598872 0.9185124 -0.28966042
0.71799505 -0.7080159 0.5550081 1.3296452 -1.3361086 -0.6819063 -0.028225861 0.76950467
0.65948796 -0.1541947 -0.74458545 1.274384 0.6035814 1.9970909 1.8646417 1.1110833
-0.5831875 -0.62678295 1.3204027 -0.1701782 0.8420717 -0.0939958 0.8527763 -0.6673546
-0.52014405 1.17342 1.3206743 0.8800972 1.4763044 0.0792383 -0.4915295 -1.4263413
-0.6911631 -0.24187337 -0.4910306 1.9706901 0.33867723 -0.29039952 0.36104456 1.9284908
0.96280766 1.16927 0.09882709 -1.1772798 0.37175855 -0.50288236 0.33705133 -1.761057

conv2.4.kernel f4 [64, 1, 3, 3]
00000000: f8a1 4c3f cff3 b4bd 2876 c63f 1b08 cd3e
00000010: 3e43 9b3e b3d6 b03f 4a99 dd3f 6c25 30bf
00000020: baa8 b33e 7f51 fdbe 79bb 6ebd 376b a53d
00000030: aad9 a33e 7277 d83e 0cfc 9c3f b049 24bd
00000040: 19d8 153f 4f36 1abf 259b e7bf 1a73 cd3e
00000050: 0a86 9fbd 3dce 8cbf 5910 cc3f 0abf 97bf
00000060: 7569 1a3f fd09 f13f ca18 89bf d6b9 66bf
00000070: 9579 0340 3a52 36bf dced a93f f029 e83f
00000080: ba72 123f 4b20 ccbf a9ac 863f 166f 123f
00000090: 920c 2dbd 1d03 8f3e 960f a13f b516 f23f
000000a0: 2a3c 5abf 8526 f2be a79f df3f 41c9 583f
000000b0: 49d7 293e 985d 973f 7d6f 873f 1b56 5c3f
000000c0: 2d53 2bbf f828 1e3e 3c4f b33f b32b 3abf
000000d0: 6b36 cc3e 6977 3f3f f087 b53e b2a1 453d
000000e0: 51a4 883f c02f cc3f 5c9f 4ebf c388 3e3f
000000f0: d1a8 173f 7d75 86be f177 1ebf a83f 0e3f
00000100: 0019 24bf a8a9 5dbe 0ef8 c33e a13d d5be
00000110: 14e3 cc3a ae54 cb3e 18aa adbe a756 363f
00000120: 86b9 aebf db1e 0dbf b4d2 b63e e5a0 b9be
00000130: 7ea6 a03f 67bd 6cbd a4c1 673f 43ee 033f
00000140: 9344 84be ac7f dfbf ca84 ccbe ddde e7be
00000150: 3cfe a13f ce94 a83d dec6 8fbd aec0 1a40
00000160: 3b07 913f e7f0 3a3f 9435 603f 20a6 c63f
00000170: 9003 413f 84a5 8fbf 64e8 a93f 2d56 80bf
00000180: b123 83bf f9d0 673e b665 533f ecf1 283f
00000190: bbe0 b2be 674d b5bd 06db 333f 09e2 09c0
000001a0: 779f 08c0 47ee d3bf 503d 983e 8244 6a3f
000001b0: 5993 f73e 64bf a13e c1cc f0bf be8b 753f
000001c0: 49e5 a63e 97ae 39bf 2c7c 0dc0 3c04 5c3f
000001d0: 0af2 a1bf 231d d3be a360 843f 0d5f d83f
000001e0: 63a4 45bf 464e 453f 0866 2cbf 8432 dcbf
000001f0: 52c1 803f 0e83 f5bb 38b0 313f a6a4 dfbd
00000200: b360 f9be af0c fd3e 30fb 023c 8514 8d3f
00000210: 0385 c93f 4039 debe 1f2c 483d e316 00bf
00000220: f511 b63d 624d d3be 6cf2 833f 0e89 9bbf
00000230: 9acb f2bf 87a4 243f 196e e43d dd76 aebf
00000240: fb9a b53f 26ba 51be b290 233f 7468 a93f
00000250: 1b4a e8bd c3d2 163c 87ba c63f 9238 60bf
00000260: 58cd 5cbf cb85 b7be 5ed3 a83e c9fe f93e
00000270: 9876 983f 35ad 9bbf 60fb 003f 5876 8dbf
00000280: e8d5 c53f b87a 0140 ad88 ca3e ceff 16be
00000290: 2c58 14bd 045e c43f 8515 a2bf 66cf 973f
000002a0: 838d 333f 385d 0e3f 9c2c 8ebe ac71 fcbf
000002b0: 9e03 0ec0 53dd 84bf 96eb 9b3f d22a b0bf
000002c0: 06ee e03f 83f3 93be 2f97 b5bf 467c 38bf
000002d0: b12b 573f 907b 463f b551 34bd 3e09 dc3f
000002e0: 5f19 bc3e efd8 983f 4b0a a3bf f1e2 033d
000002f0: d558 b6bf 055d 133f 2b4e 90bf 0976 b23f
00000300: 93c5 753e 0811 bf3e 82b7 693f f6d6 21bf
00000310: 2e3d 4d3f a0d5 493f a267 783e eb76 453f
00000320: 3858 5ebf eb90 6bbf 60d4 9f3e 6c29 16be
00000330: 6f11 0f40 bdf6 2abe 551d 823f 7785 873e
00000340: 57f0 aebf 5385 2f3f 9e02 fbbb 60a3 a9bf
00000350: 8832 54bf 8a3a 4dbe c65c 0240 df06 f93e
00000360: f8bd 96be b304 093f f60c 4e3e 497d 3fbf
00000370: cbb0 b93f c86d 43bf 3e08 2740 6599 3d3f
00000380: de88 973e 626a a7bf ee4a ac3f 8fe5 babe
00000390: 8a72 123f 4d29 26bf b963 a23e d3a2 41bf
000003a0: b2df 1d3f bd82 c8bf ecd0 da3e 92db 50bd
000003b0: 90fb eb3f 1893 45bf 0953 1bbf 9ede b2bf
000003c0: fe11 66bf 86e7 a33f a1c1 1fbf 3145 2640
000003d0: 7e9c cebc acf7 9dbf 4d9d 3b3f 7404 46bf
000003e0: 7a17 2f3f d1b2 1dbf efe3 b7bf 637c 413f
000003f0: e489 623f d5fe 573d f66e bf3d 1c6a 2c3e
0.79934645 -0.08835565 1.5504808 0.40045246 0.3032474 1.3815521 1.7312405 -0.688071
0.35089666 -0.4947624 -0.058284257 0.0807709 0.32002002 0.4227863 1.2264419 -0.040109336
0.58532864 -0.6023912 -1.8094221 0.40126878 -0.07789238 -1.1000439 1.5942489 -1.1855175
0.60317165 1.8831173 -1.071069 -0.90127313 2.0542958 -0.7121922 1.3275714 1.8137798
0.5720631 -1.5947355 1.0521442 0.57200754 -0.042248316 0.27932063 1.2582881 1.891318
-0.85248053 -0.47295013 1.7470597 0.8468209 0.16586031 1.1825438 1.0580899 0.86068887
-0.6692379 0.15445316 1.4008555 -0.7272293 0.39885268 0.7479158 0.35455275 0.048249908
1.0675145 1.5952072 -0.80711913 0.7442743 0.5924197 -0.2626151 -0.61901766 0.5556588
-0.64100647 -0.2164675 0.38275188 -0.41648582 0.0015631639 0.39713043 -0.33918834 0.7122597
-1.3650367 -0.55125207 0.3570763 -0.36255565 1.2550809 -0.057797816 0.9052985 0.51535434
-0.25833568 -1.7460837 -0.3994506 -0.4528722 1.2655711 0.08231507 -0.07020353 2.4180102
1.1330332 0.7302384 0.87581754 1.5519447 0.7539606 -1.1222386 1.3274045 -1.0026299
-1.0245267 0.2263831 0.82577074 0.65994143 -0.3493708 -0.08852654 0.7025608 -2.154421
-2.134733 -1.6557091 0.29734278 0.91510785 0.48354605 0.31591332 -1.8812486 0.95916355
0.32596806 -0.7253203 -2.2107038 0.8594396 -1.265199 -0.41233167 1.0341991 1.6904007
-0.7720396 0.7707256 -0.6734319 -1.7202916 1.0058997 -0.0074924296 0.69409513 -0.10920076
-0.48706588 0.4942374 0.007994458 1.1021887 1.5743717 -0.43403053 0.048870202 -0.5003492
0.08890144 -0.41269976 1.0308356 -1.2151201 -1.8968384 0.6431355 0.11153812 -1.3630024
1.4187921 -0.20481166 0.6389266 1.3235002 -0.113422595 0.009205523 1.5525674 -0.8758632
-0.8625083 -0.35844263 0.3297376 0.48827198 1.1911192 -1.2162234 0.5038357 -1.1051741
1.5455904 2.0231152 0.395574 -0.14746019 -0.0362169 1.5341191 -1.2662817 1.1860168
0.70137805 0.5561099 -0.2776841 -1.972219 -2.2189708 -1.0380043 1.218127 -1.3763068
1.7572639 -0.28896722 -1.4186763 -0.72064626 0.8405104 0.7753229 -0.044023234 1.719032
0.36738107 1.1941203 -1.2737516 0.03219885 -1.4245859 0.5756381 -1.1273855 1.3942271
0.2400115 0.3731768 0.91295636 -0.6321863 0.8017148 0.7884159 0.24258283 0.7713458
-0.8685336 -0.92018 0.31216717 -0.14664239 2.235439 -0.16695686 1.0165201 0.26469013
-1.3667096 0.6856281 -0.007660224 -1.3252983 -0.82889605 -0.20041862 2.0369124 0.48638055
-0.2944181 0.53522795 0.20122132 -0.74800545 1.4507078 -0.7633939 2.609878 0.74062186
0.2959661 -1.307934 1.3460367 -0.36503264 0.5720602 -0.6490677 0.31716707 -0.75639075
0.61669457 -1.5664898 0.4273752 -0.05099065 1.8436146 -0.7717757 -0.60673577 -1.3974187
-0.89871204 1.280503 -0.6240483 2.597973 -0.025221106 -1.2341208 0.73286897 -0.77350545
0.683952 -0.6160098 -1.4366435 0.75580424 0.88491654 0.05273326 0.09347336 0.16837353

conv2.5.kernel f4 [64, 1, 3, 3]
00000000: 10bc e6be 8d1c 413f 3b07 403f 26ae e23e
00000010: 2431 b53e 1f78 89bf 2f5e 093f 8650 193f
00000020: 07a4 763f 3d19 05bf dac4 dfbf 8a5b 163e
00000030: 3809 aebf 78c1 ab3f 29b4 febf 3f8a 5dbd
00000040: fe71 a33d f8b1 4fbf 4322 8ebe 8d66 af3e
00000050: 6836 70bf 7b5b c23d 6300 99bf 0e56 07bf
00000060: 0b81 afbf 2afd 8cbf 9b8e 3c3f 6bc3 58bf
00000070: 0e6b 2e3e a75f c9be 910e 56be c913 40bf
00000080: 73b4 533d 3c1c 34bf 1b0d 9d3f 9f03 45bf
00000090: 55ca 14be b937 1a40 52e6 333f c7d4 41bf
000000a0: a01c c9bf 185d b03f 15bd c63e eb14 5abf
000000b0: 3732 283f 1de0 94bf 0fd6 a2be 0bf5 d93f
000000c0: 712d c5bf 6df8 0abe 4812 e43f d98b 933e
000000d0: 0d8e 373f 5691 e93f 3416 4cbf c1b1 b33f
000000e0: 2105 dfbf d825 b03f ce22 ccbf 7ad8 fe3f
000000f0: 7ea2 1440 928b 70be 9b3a 4abf 5e73 843f
00000100: cf86 923f d8a2 41bf a642 203f e597 c53f
00000110: 9d83 2e3f ddbf d43f e495 7c3e 6259 893f
00000120: ea79 893d c92b c9bf dac0 6a3f 3a06 1b3f
00000130: a640 0540 7751 913f 7507 bebf d4f0 cf3f
00000140: a004 2a3f 1b78 a43e 83d8 553d 69b0 bd3e
00000150: 2144 93be f6fc e3bf edd3 933f 875d 903f
00000160: 05e5 10c0 40ac c03f 761d 29be eec7 18bf
00000170: 406b 82bc 52d8 d73e ccf0 9e3e 57d1 583f
00000180: 7c54 b23f e4b2 efbd 9fb4 bfbe 8197 2cbf
00000190: 3d41 2abf 60cb aebe c22c a7be 2f22 c7be
000001a0: 4310 53bf 314e 2fbf bb97 c53e 71e5 423f
000001b0: 3275 46bf 2a90 fbbe 0fa9 52be b952 88be
000001c0: e398 e33f 045c e63f 546c 7e3e 6835 8dbf
000001d0: a320 0040 5064 8c3f 8a62 82bf 22d4 913f
000001e0: dd1a 3d3f 4fc0 54bf 2314 563e 87c8 b8be
000001f0: 9759 993d 36f6 b1bd 8623 2f3f 7d08 4abf
00000200: 02c1 77bd afdd 43be ac43 90bf 5503 d2bf
00000210: d91b 9d3f e54b e43e 2527 b3bf 3f85 953f
00000220: b9cf adbe 4219 8dbe 7577 263e 3f8c adbe
00000230: cea6 17bf 64ff efbe ab7a c73e d6b6 05bf
00000240: 3266 a2be 6860 02c0 e2b2 5dbe 092f ea3d
00000250: 7ae4 9e3f 46b0 51bf d1d1 adbf 9ff3 79bd
00000260: f868 363f 9fc4 54bf 3221 be3f fcc6 80bd
00000270: c201 9ebf 9205 c8bf ed9e 973f 3086 993e
00000280: 6b50 54bc e37a 84bf b221 9fbe d4bd a23e
00000290: d324 f73e dc92 85be 2a67 2440 dc20 85bf
000002a0: 6d85 81bf 362d 06c0 3961 07bf 4557 753f
000002b0: c75b 693d 28d4 0f3e 91ef de3e 2961 99bf
000002c0: 0296 843f ce8b 01bf 910e 1540 bf92 2dbe
000002d0: 594b 1d3f f168 cd3d f631 963f 536f 13c0
000002e0: db6e 1140 5ce2 093f ff50 5a3f 544e 293e
000002f0: 953d 5e3d 1cb4 e43f df42 a7be b952 33bf
00000300: 09cd 34be 7998 7ebf c472 a9bf 190b 1fbf
00000310: e8f0 2cc0 6f19 4f3f 80c3 33bf 73bb 8f3f
00000320: 2557 debe 5fac fd3f e336 bb3f 0d03 be3e
00000330: 7e2b e43f 3b1e 8f3f 1376 92bd 5a05 783f
00000340: f9e1 89bf a427 e73e 7c45 6dbd bb99 50bd
00000350: 339a 68be b8d1 ac3e 92e0 843f 1e1f aabf
00000360: e4f1 663f eeba ea3b 2718 29bf b562 b23f
00000370: 826b b03f 2466 18bc 7255 dfbc 2a8e 16c0
00000380: ea53 eebe 0547 17bf cec9 4b3f cb9e 2bbf
00000390: 2175 4abf a44f f6be 290d 093f 3991 3e3e
000003a0: 1716 4a3f ed0e 4cbe e91e dabd cd2e 7ebe
000003b0: f5b9 5d3f a638 a0be 41f5 8bbf a860 bd3e
000003c0: def1 41bf 101a 9d3f 4041 ccbf 60b1 be3e
000003d0: 3ae6 e93e ef1a bdbf 90c3 99bf a024 34bf
000003e0: e186 883f b3b7 0e3f e5c8 0b3f 68cf eabf
000003f0: 294d 303f bfab 0dbe dac1 b63e 5b34 8e3e
-0.45065355 0.7543419 0.7501103 0.4427349 0.35389054 -1.0739783 0.5365934 0.59888494
0.96344036 -0.51991636 -1.7481949 0.14683357 -1.3596563 1.3418417 -1.989873 -0.05408692
0.07980727 -0.81130934 -0.27760515 0.34257928 -0.9383302 0.09490105 -1.1953243 -0.52865684
-1.3711256 -1.101476 0.736551 -0.84673184 0.17033026 -0.3933079 -0.20903994 -0.7503019
0.05168576 -0.7035558 1.2269624 -0.7695865 -0.14530309 2.409651 0.70273316 -0.757153
-1.5711861 1.377841 0.38816133 -0.8518817 0.6570162 -1.1630894 -0.3180394 1.7027906
-1.5404493 -0.1357133 1.7818079 0.28817633 0.7170113 1.8247478 -0.7972138 1.4038621
-1.742344 1.3761549 -1.5948122 1.9909813 2.3224177 -0.23490742 -0.78995675 1.0347707
1.144739 -0.75639105 0.626017 1.543698 0.68169576 1.6621052 0.24666554 1.0730402
0.067127064 -1.5716487 0.9170052 0.60556376 2.0820708 1.1352986 -1.4846026 1.624537
0.6641331 0.32122883 0.052208435 0.37048653 -0.28762916 -1.7811573 1.154905 1.1278542
-2.2639782 1.5052567 -0.16515145 -0.5968007 -0.015920281 0.42157227 0.31043088 0.8469443
1.3932033 -0.117040426 -0.3744249 -0.67418677 -0.66505796 -0.34139538 -0.32651335 -0.38893268
-0.8244669 -0.68478686 0.38592324 0.7613135 -0.77522576 -0.49133426 -0.20572303 -0.26625612
1.7781032 1.7996831 0.24846011 -1.1031923 2.001992 1.0968113 -1.0186322 1.1392863
0.73869115 -0.8310594 0.20906119 -0.3609049 0.07487791 -0.08689539 0.6841358 -0.789192
-0.0604868 -0.19127534 -1.1270652 -1.6407267 1.2274123 0.44589153 -1.3996321 1.1681288
-0.33947542 -0.27558333 0.16256507 -0.33896062 -0.592389 -0.46874535 0.38960776 -0.5223211
-0.31718594 -2.0371342 -0.2165027 0.114347525 1.2413476 -0.81909597 -1.3579656 -0.06102335
0.7125392 -0.8311252 1.485388 -0.06287953 -1.2344286 -1.56267 1.1845375 0.2998519
-0.012958626 -1.0350002 -0.31080395 0.31785452 0.48270282 -0.26088607 2.5687966 -1.0400653
-1.0118843 -2.0965095 -0.52882725 0.9583629 0.05697229 0.14045775 0.4354215 -1.1982776
1.0358279 -0.5060395 2.329014 -0.1695051 0.61443096 0.100297816 1.1733997 -2.3036697
2.272391 0.5386102 0.8527984 0.16533786 0.054257948 1.7867465 -0.32668206 -0.700481
-0.1765634 -0.99451405 -1.3238149 -0.6212631 -2.7022038 0.80898184 -0.70220184 1.122908
-0.4342586 1.9818228 1.4626125 0.37111703 1.7825773 1.1181101 -0.07151427 0.96883166
-1.0772086 0.4514743 -0.057927594 -0.05092786 -0.22715072 0.33753753 1.0381033 -1.3290746
0.90212846 0.007163397 -0.6605248 1.3936373 1.3782809 -0.009301696 -0.027262423 -2.352427
-0.46548396 -0.5909274 0.79604805 -0.67039174 -0.79084975 -0.48107636 0.53535706 0.18610086
0.78939956 -0.19927569 -0.10650427 -0.2482254 0.8661187 -0.3129322 -1.093422 0.36987805
-0.75759685 1.2273579 -1.5957413 0.372447 0.4568346 -1.4773844 -1.2012806 -0.70368385
1.0666162 0.5574905 0.54603416 -1.8344545 0.6886774 -0.13835047 0.35694772 0.2777432

conv2.6.kernel f4 [64, 1, 3, 3]
00000000: 173c 1540 7fe5 0cbf 20f6 c1be 18c6 683f
00000010: 7b23 b43d 819d 95bd a5fc e93f 925e a5bf
00000020: 2f30 4b3f c595 513f 98b0 273f 56a1 833e
00000030: 1e81 053f e98f 22be b85e 5c3f f295 9f3f
00000040: d153 debe 8e53 4dbf bb22 363e d909 60be
00000050: ca8e f63e cbbb 9f3f 3d5d e43f 6726 4c3f
00000060: ad4d 08be c2c0 b7be 6072 78bf 7d2f abbe
00000070: 1b4e f63e c687 5bbf 6528 5f3f ad05 783e
00000080: dacb 793e 43f7 9dbf f95e 83bf 1fad 1b3f
00000090: 6ec6 01c0 ebe1 2340 c76c 193f 076d 61bd
000000a0: acf9 37c0 eea3 4fbf b7e4 16bf e290 863f
000000b0: 2b94 bc3f 7c76 c4bc 86b1 ab3f 7725 7abf
000000c0: f432 383f e1fa e73e 03b2 e53d df9e a43e
000000d0: 7ee9 ef3f e3cb 09bf 783d e1be ba64 b8be
000000e0: 2a4c e7bd f920 8e3f d9b2 fbbd 9689 8cbb
000000f0: 6452 10c0 d85e 03c0 362f dabe 20c5 4ebf
00000100: 87ee 0f3d bf4a 93be 351f 543f f302 9c3f
00000110: 9c54 df3f 5837 1cbf 0bad 303f a4d1 0340
00000120: 7347 5c3f 1385 8abe 78e8 453e a614 1fbf
00000130: b3a9 67bf d790 3ebf 2e0e d83d 4d72 f5bf
00000140: e8cb bd3f 3d6d 2f3f 7a99 44bf fbab 6f3e
00000150: 229a 613e bf82 cebe c498 c6be 3347 12bf
00000160: 843a 0240 a173 d7bf 699f 3abf 2834 e0bd
00000170: 7310 90be f99c d5be 06fb cd3f f7d6 9b3f
00000180: 68e1 1a3f a9b0 acbd a8be 943f 7f12 2ebf
00000190: 4900 0ec0 9c8f f73d 944f 503f e254 f03e
000001a0: 8966 0e3f 6086 663f 3047 ef3f 7bfd da3e
000001b0: 707f 683e 491d 243f 4ed9 54bf 31ed a63f
000001c0: 7b78 b8be 6a1b 8c3f 621c fcbe 2011 693f
000001d0: 2564 99be 1d1e 9cbe b5da 6abf c6e6 f5bd
000001e0: 778e 37bf 5ea8 24bf db6c 8dbe 604a bdbf
000001f0: a6f7 23bf 6f60 ad3d 909e 9e3e 1ae7 933e
00000200: 49e4 77bf 212e 20bd b827 dcbf d5e9 66bf
00000210: e984 8f3f e102 083e ee9a 153f b723 88bf
00000220: 93f3 2fbf af46 1b3f 40b8 98be 88f7 31bd
00000230: 10b5 b13f 09d8 aabf fe5a fcbe e609 d4bb
00000240: ecdd d43f c1d9 e2bd 5dcb d93e a7f9 ee3e
00000250: 2d44 f23e 5f0b 223f db72 08c0 b1d8 893f
00000260: 83b8 d5bf 014c 98be c034 43be 18dd 003d
00000270: 28b2 b3be 483e 92bf a26a 6f3e 8c7d 273f
00000280: 4d13 7c3d 5524 8f3e f2c2 9cbf 29de f1bf
00000290: 29da 84bc 73e6 af3e cc1c 2f3d 7df9 37bf
000002a0: f07b 7bbf 452d 65bf 7d31 c93e bfee 2dbf
000002b0: e381 453f cdde 603f 9e01 febe 5978 84bf
000002c0: bf6f dc3f 2cf2 ee3f fa0b ea3e c159 8bbf
000002d0: a1c4 a83e 97cb 0b3e 1c48 98bf 5577 7bbf
000002e0: cf04 633f a284 ebbd e25e 43bf 6a00 60bf
000002f0: a29b 903f ab63 57be 36e0 d33e 9a72 3fbf
00000300: 396e 1fbe 8480 903f 4862 4dbf c179 a93f
00000310: ab39 853f 7435 313e ec80 c03f 2d08 da3f
00000320: 266e 2c3d 0bc2 fbbe 88d0 65bf db82 03bf
00000330: 6b7c 843f ae42 ee3f 6ccd 6fbf 69e3 3ebf
00000340: 300a 28bc ae00 bfbf d13f 2ebf c57c f1be
00000350: 6e38 b6be 9aec c63f 7a5d a9bf 984f 123f
00000360: 0a68 b03d f02f 973e 37c2 ef3f cb73 2dbf
00000370: 1773 3bbe 8938 b0bf 805b 82bf 3489 92bf
00000380: 2f17 353e d54c 0b40 46a2 623f d5dd 7abf
00000390: 7048 313f 3aa9 a5bf 7f36 a83c ad8c a4be
000003a0: 9361 5bbf 9f4e babf 30a9 dabf 98e7 8e3e
000003b0: 7dbe ad3f 22e3 d73f 019c b33e ae72 ec3e
000003c0: 80ac f83e e470 0dbf e7ec a03f 7286 823d
000003d0: 9ccb 0c40 e4ab 4d3f 06bc 283f 0faa 00bf
000003e0: cba3 d93f ddf6 c9bf 1938 a03f 6f97 3a3e
000003f0: 1212 ec3f 9ef4 a43f b44b 1340 577d 36bf
2.3317926 -0.55037683 -0.3788309 0.9092727 0.0879583 -0.07305432 1.8280226 -1.2919486
0.793704 0.81869155 0.65503836 0.25709027 0.5215014 -0.1587521 0.8608203 1.2467635
-0.43423322 -0.8020562 0.17786686 -0.21878757 0.48155814 1.2479185 1.7840954 0.797461
-0.13310881 -0.3588925 -0.9704952 -0.33434668 0.48106465 -0.8575405 0.8717101 0.24220915
0.2439417 -1.2341083 -1.0263358 0.60811037 -2.0277362 2.560664 0.59931606 -0.055035617
-2.8746138 -0.8110951 -0.5894274 1.0512965 1.4732717 -0.023982279 1.3413551 -0.97713417
0.7195275 0.45308593 0.11215594 0.3215246 1.8743131 -0.5382673 -0.4399221 -0.36014348
-0.11293824 1.1103812 -0.12289972 -0.0042888625 -2.2550287 -2.0526638 -0.42614144 -0.8076954
0.035139587 -0.28767964 0.8286012 1.21884 1.7447696 -0.6102195 0.6901404 2.0596704
0.8604652 -0.27054653 0.19326961 -0.6214088 -0.90493315 -0.7443976 0.105495796 -1.9175507
1.4827852 0.6852606 -0.76796687 0.23405449 0.22031453 -0.40334126 -0.38788426 -0.5713989
2.0348215 -1.6832162 -0.7289949 -0.10947448 -0.2813755 -0.41721323 1.6092231 1.2174977
0.6050019 -0.08432133 1.1620684 -0.6799697 -2.2187674 0.12087938 0.81371427 0.4693976
0.55625206 0.9004879 1.86936 0.42771515 0.22704864 0.64107186 -0.8314408 1.3041135
-0.3602942 1.0945866 -0.49240404 0.91041756 -0.29959217 -0.30491725 -0.9173997 -0.12006907
-0.7170176 -0.6431941 -0.27622113 -1.4788322 -0.64049757 0.08465659 0.3098035 0.28887254
-0.9683271 -0.039106492 -1.7199621 -0.9020055 1.1212436 0.13282348 0.5843953 -1.0635899
-0.6873104 0.6065473 -0.29828072 -0.043448955 1.3883381 -1.3347179 -0.49288172 -0.0064709065
1.6630225 -0.110766895 0.42537966 0.46674845 0.4731764 0.632986 -2.1320102 1.0769254
-1.6696934 -0.29745486 -0.19063091 0.03146085 -0.3509686 -1.1425257 0.23380521 0.65425944
0.061541844 0.27957407 -1.2246993 -1.8895923 -0.016217308 0.34355506 0.042752072 -0.71865064
-0.9823599 -0.895222 0.3929557 -0.6794242 0.77151316 0.87839967 -0.4961061 -1.0349227
1.7221602 1.8667655 0.45712262 -1.0886766 0.32962516 0.13651882 -1.1897006 -0.9822896
0.8867921 -0.11499907 -0.76316655 -0.8750063 1.1297495 -0.21034114 0.41381997 -0.74784243
-0.1556939 1.128922 -0.8022809 1.3240281 1.0408224 0.17305547 1.5039344 1.7033745
0.042097233 -0.4917148 -0.8977132 -0.51371545 1.0350469 1.8614099 -0.93672824 -0.7456575
-0.010256335 -1.4922082 -0.68066126 -0.47165504 -0.35589927 1.5540955 -1.3231652 0.571527
0.08613594 0.2952876 1.8731145 -0.6775481 -0.18305622 -1.3767253 -1.0184174 -1.1448121
0.17684625 2.1765645 0.8852886 -0.9799474 0.69251156 -1.2942269 0.020533798 -0.32138577
-0.8569576 -1.4555243 -1.7082882 0.27911067 1.3573757 1.686619 0.3507996 0.46181244
0.48569107 -0.5525038 1.2572297 0.063733 2.1999273 0.8034041 0.659119 -0.5025949
1.7003111 -1.5778462 1.251712 0.1822183 1.8443015 1.2887151 2.3014956 -0.71285003

conv2.7.kernel f4 [64, 1, 3, 3]
00000000: d23c 05bf acdc aabf c330 a23f 0745 44bd
00000010: 6cb6 3abf 0a02 05bf 7beb a4bd b636 b43d
00000020: 8e83 1a3f 9aab 98bf d4b0 cabe 3ce7 663e
00000030: 437c 763f 2d5d a8be 5879 a33c 7ec1 ebbf
00000040: b734 98bf 5868 123c cb3b e3be 77b3 75bf
00000050: 1c26 4cbe 2b28 603f 09df 613f 0668 5bbf
00000060: 5d7c 1abe d372 e43d f6c4 75be 9d0d f2bf
00000070: 774d c53f 4fd2 2c3f f8d4 c73e f921 d1bf
00000080: b153 d5be d425 aa3f e6f5 85bf c29c 37bf
00000090: f4ef 343e 8fcb 15bf c3ab bebf 4e33 a43f
000000a0: d01c ca3f 7c39 92be 8ddf bcbe 9867 183f
000000b0: 986d d8be b499 40be 5332 0bbf ab94 63be
000000c0: 5b39 a8bf f160 31be 711f 9fbf 318e 26bf
000000d0: 5825 4cbf 31c7 e33d a850 6f3f 0e17 87be
000000e0: 226e 5fbf 36f3 e1be 76ca 943f cb6d d83e
000000f0: f1d2 943f b25d d93f e75c 3b3f 72aa f43e
00000100: 3c0c 9a3e d0e5 30bf 7ac5 a73f 5210 95bd
00000110: 83eb db3e 9d9b 043f e859 f43e dadb ecbf
00000120: a270 023f 71f5 243f b1bb 663f bbe7 7fbf
00000130: 1dd6 3b3e e32c 9bbf 184c 16c0 cdde c8bf
00000140: 5a09 18c0 78c8 34bf 163b 04bf 8a4e cbbe
00000150: c727 c73d 5f35 bb3f af7e 7ebf 4a2f 5b3e
00000160: 732a 76be 173b b9bf 780b 303a 6724 65bf
00000170: 1654 4c3f 619e 6c3e b558 edbe e234 35bf
00000180: 4798 1dbf 3154 1e3f ecd3 9ebf df7b e3bd
00000190: 198a 753e 581d 09c0 a62e 83bf 9170 863f
000001a0: 2ac8 923f 1ad1 9f3f 4f06 29bf 61ba 173f
000001b0: 9b84 01c0 3e95 4b3f ba86 c53e 8e62 90bf
000001c0: 8850 8a3c a3d2 523f 1ac8 27bf aee6 a6bd
000001d0: 0f56 0cbf e3d3 c2be 9bc7 08bf bb41 63bf
000001e0: 6267 043c be9f 11bf 9018 cdbe 735e a9bf
000001f0: d3d8 d8be d013 24bf 5a35 2abf 16fc b73f
00000200: efe6 a7bc 898c 97bf 9628 613d ce1c eb3e
00000210: c9c2 283f 206a 89bf fbb5 903e 8879 f1bf
00000220: 53fb 773c 0e1e ccbe 4843 f53e 9411 053f
00000230: 4054 413f fae8 afbe 9031 373f e439 e43c
00000240: e063 f23e 0387 64bd 76e6 c2bd 6bd2 c23e
00000250: ccd2 143d e8fb 5ebf ef38 90bf 904c 77bf
00000260: 32e1 f1bf 3b50 2fbf 1649 f7be a587 b7bf
00000270: 7ef8 5c3f 4632 0340 5e6f 57bf 1a1c 003e
00000280: a451 c63f 4273 cb3f 3a92 88bf 1ef7 323f
00000290: 5ef6 0ac0 78f6 323f 9a6a c93e 8ee3 ffbf
000002a0: da54 653e 04a2 e83d 1e2e 09c0 88f7 2a3f
000002b0: fc9e 24c0 99d5 bbbf 6229 07bd 4599 4e3f
000002c0: ecad cfbf 188c 533d e332 41bf 9f1d 8abe
000002d0: 3b01 3f3f d763 0a3f 93a7 8e3e f12b 9d3e
000002e0: bf1c 29be e408 213f 50a8 ac3e 5f19 c2be
000002f0: 0ab4 35be 499a 18bf aa5e debe bb9c 1a3f
00000300: c481 5dbf 92e8 aabe 370f 553f c651 fc3f
00000310: 4274 62bf 490b 89be ce9e 883f 282b 34bf
00000320: 7f9d f43e 7f4b 73bf 7342 463e 0cd0 683f
00000330: 44b9 263f aef0 f33d 661f 44bf 63ce b33f
00000340: fe0c c13e 7017 7cbf 6f2c e33f 211b 3f3f
00000350: a01a ec3e e2a2 a2be b5b1 723f e565 b63f
00000360: 1f49 de3d ef69 7dbf e024 fdbe ee38 5bbf
00000370: 3364 5a3f 0084 aebe 46f3 b93e dfc4 eebd
00000380: 3749 d63f 3073 9c3e 2512 31bf 1b6d fcbe
00000390: 0324 1cbf 2804 81bf 4775 bb3f fd2d 1840
000003a0: 1dda a53f 382f 58bf bad4 fbbd ae66 cc3f
000003b0: 913c 90be c955 ee3f d172 06c0 5fc1 34bf
000003c0: 077a 60bf 4142 153f 7014 d9bf 4b68 073e
000003d0: adb4 0a40 773c eb3f 21ed b6bf 3022 2f3e
000003e0: a061 2640 bdd6 1b3f 6f12 e93e 6cc2 d4be
000003f0: 9a09 d93f 9ba0 0640 af3b afbd e1eb aa3e
-0.5204593 -1.3348594 1.2671131 -0.047917392 -0.72934604 -0.51956236 -0.08052727 0.08799498
0.60356987 -1.1927369 -0.39588034 0.22549146 0.9628336 -0.32883587 0.019955322 -1.8418424
-1.1891087 0.00893601 -0.44381556 -0.95976967 -0.19936413 0.8756129 0.8823095 -0.857056
-0.15086503 0.111547135 -0.24000916 -1.8910404 1.5414265 0.67508405 0.3902967 -1.6338493
-0.41665414 1.3292794 -1.0465667 -0.7172357 0.1766966 -0.5851373 -1.4896168 1.2828157
1.5790043 -0.28559482 -0.36889306 0.5953307 -0.42271113 -0.18808633 -0.54373664 -0.22224681
-1.3142503 -0.17322136 -1.243147 -0.65060717 -0.7974448 0.11121977 0.93482447 -0.26384777
-0.87277424 -0.44130868 1.1624286 0.42271265 1.1626874 1.6981719 0.7318863 0.4778629
0.3008746 -0.69100666 1.310714 -0.072785035 0.4295312 0.5179995 0.47724843 -1.8504593
0.50953114 0.64437014 0.90130144 -0.9996297 0.18343396 -1.2123073 -2.3483944 -1.5692993
-2.3755708 -0.7061839 -0.5165266 -0.39708358 0.09724384 1.4625663 -0.99412054 0.21404758
-0.2403963 -1.4471158 0.0006715576 -0.8950867 0.79815805 0.23107292 -0.4635674 -0.7078382
-0.6156048 0.61847216 -1.2408423 -0.11107611 0.23978461 -2.142416 -1.0248611 1.0503103
1.1467335 1.2485688 -0.6602525 0.59268767 -2.0237186 0.795246 0.3857935 -1.1280077
0.016884103 0.82352656 -0.65539706 -0.081494674 -0.54818815 -0.38052282 -0.53429574 -0.8877217
0.008081289 -0.5688437 -0.40057802 -1.3231949 -0.42352924 -0.6409273 -0.6648766 1.4373806
-0.02049586 -1.1839763 0.054970346 0.45920414 0.6592222 -1.0735512 0.2826384 -1.8865213
0.015135604 -0.3986668 0.47902894 0.5197995 0.7551918 -0.34357435 0.7156 0.027859636
0.47341824 -0.05579282 -0.09516613 0.3805116 0.036333844 -0.8710313 -1.1267375 -0.966012
-1.8896849 -0.68481797 -0.48297948 -1.433827 0.8631667 2.0499434 -0.8415431 0.1251072
1.5493665 1.5894549 -1.0669625 0.6990832 -2.171287 0.6990733 0.39339143 -1.9991319
0.2239565 0.11359027 -2.1434398 0.6678395 -2.5722036 -1.467456 -0.03299845 0.8070262
-1.6224952 0.051647276 -0.7546827 -0.26975724 0.7461125 0.54058594 0.27862224 0.30697587
-0.16514872 0.6290419 0.33722162 -0.37909982 -0.1774446 -0.5961042 -0.43431598 0.603954
-0.8652613 -0.33380562 0.8322634 1.9712455 -0.88458645 -0.26766422 1.0673463 -0.7037835
0.4777641 -0.9503707 0.19361286 0.90942454 0.6512644 0.119111404 -0.7661041 1.4047359
0.37705225 -0.9847326 1.7747935 0.7465077 0.46114063 -0.31764895 0.9480241 1.4249846
0.108537905 -0.98989767 -0.49442196 -0.8563374 0.8530914 -0.34085083 0.36318415 -0.11658644
1.6741093 0.3055663 -0.6916831 -0.4930199 -0.6099245 -1.0079393 1.4645165 2.377807
1.2957188 -0.8444705 -0.12296434 1.5968835 -0.28171209 1.861993 -2.1007578 -0.7060756
-0.876862 0.5830422 -1.6959362 0.13223378 2.1672776 1.8377827 -1.4291116 0.17102885
2.5997086 0.6087454 0.45521876 -0.41554582 1.6956055 2.1035526 -0.085563056 0.33383086
