Train_result/TCSVT_Encoder_Medium.model (torch, 55036 bytes, 10 tensors)

conv2.0.kernel f4 [64, 1, 3, 3]
00000000: ecac 0bbf e56e 2b3f 41e4 87bf 71db 78bf
00000010: 80c5 46bf 76db e43e cee4 46bf aebd c13f
00000020: 241b a3be 99e4 5abf f81b c2bf b90d e7be
00000030: 02ae 033f b5e7 31c0 7b1e a43f 9cd0 4f3f
00000040: 35cd 90bf 93e7 743e e7ff 01be aaa8 963f
00000050: 848d 1ebb df78 dbbf fa45 ffbf 0bea c9be
00000060: bcea 7a3f 87c6 943f 98df 09bf dc89 963f
00000070: 8b3e e73e 4ace 49be 89cf b73d 7a1c 913f
00000080: dad1 81bf c96f da3f f741 af3f 623c 563f
00000090: 3145 b33c a387 3a3e 75c1 3d3f ff61 c2bd
000000a0: ea51 1340 53fd 743e 2148 a0bf f568 ae3f
000000b0: 7fc5 9c3f ad47 103f 497b 35be 7e73 debf
000000c0: 13ff c23d 0d5f 3a3f 8efb 9d3f d15b 033f
000000d0: fca7 be3e 2501 1fbf ce9a fbbd 6385 ec3e
000000e0: 45e8 16c0 4651 14bf f5e8 c6bc 3fef e4bf
000000f0: bf4a ac3f 25a4 2cbf a09c c9be d2da 5f3f
00000100: 8c53 c03d cc1f c33e 9127 7bbf 7437 c1bf
00000110: 1cac 0fbd 7eb6 483e f782 943e a439 61bf
00000120: 01cc 453f 6de1 b83f 3175 ddbe b2cd b8be
00000130: 4b1e 12bf 4565 c13f 214c 563f aab6 5a3f
00000140: b779 58bf f0a5 213f f2f4 a3be a2c0 fbbf
00000150: cd4f 3a3c cc81 bd3e ec1f 81be d8bc 52be
00000160: 8210 9a3f 2e98 4f3e 90c4 f93f 6ca7 cb3f
00000170: dac3 0840 dc1f 5ebe 2d64 9b3c 224f 17bf
00000180: a822 0e3f e2f9 d6be a0b9 593d 12e0 223f
00000190: 417d 18bf 3765 dfbf 7dc0 91bf 49a2 d9bf
000001a0: 2836 c4be 1b20 0440 9d8b 55bf 8154 52bd
000001b0: f972 3bbe 4efc 703e 94ef 14bf 02e8 bcbe
000001c0: abbd a93d 7690 653f 7f43 22be 3b92 c43e
000001d0: a4d3 d63e 97b2 093f 053a b03f 6f74 6b3f
000001e0: aec4 973f 1c2a 123f 6989 9bbf 21ea 99bf
000001f0: f981 b83f 4747 5abd ad4e 77bf c80b 923f
00000200: d27d 723f 12f8 8fbf 243e 553f 2845 0c3f
00000210: 74f6 16bf 49d5 413f 44a9 b6bf 1675 5dbf
00000220: 758e 5e3c 2620 d2bf 5b90 ed3e 28c1 23bf
00000230: 28af da3e 2acd 983f e648 0d3e 667b ca3c
00000240: 154f 82bf d678 923d 87f6 363e 11b9 223e
00000250: 0d7d 253f 059b 57bf c202 943b de60 98bf
00000260: 2102 833f f5f4 c03f 4300 223e 5d23 893e
00000270: 0426 0b3f 6d22 933e f3e0 143f b8e8 bebe
00000280: 613d 6dbf d8fb 053f 6947 ed3d eb2f 823f
00000290: e708 b0bf 2b64 9abf 7342 203f 5961 35bf
000002a0: c8f6 e3bf 690a 0ebe 4b51 4cbe 410f 37bd
000002b0: d73f 7dbf 845f 813d 074d 2e3f d097 2abf
000002c0: b2b8 9c3e fd8c 9f3f 4fd5 ca3e 8104 853f
000002d0: d99f 83be 219c 8abf 7ade 98bd ebd5 5a3f
000002e0: 1fab c9be 1fe4 893f eb11 a73e 2731 013f
000002f0: 5525 0abf 9ca5 c43d 279a 733e 9c04 e33f
00000300: ef46 273e 0306 f6be 1618 263f 6ef3 83be
00000310: 4ba5 ff3f 7253 2b3f f446 1cbd 63c1 c7bd
00000320: 80b3 c83e 759e cabf 330c 36be 64c4 d93e
00000330: 50af 6a3f 06f9 883f 7b3b fbbd 5ad6 a0bf
00000340: 6777 87bf 1a03 933e 9834 9dbe f0d1 883f
00000350: 2643 d6be f6e0 993d aa9e bd3d fde2 e63c
00000360: 3222 d1bf 6c21 15be e884 b93f 12da 84be
00000370: c8a9 fabe 118e 7abf 9ee2 6ebf 949a 503e
00000380: f5d4 4a3d 8908 1fbe 205a 463f db47 ad3f
00000390: 07b9 79bf d031 053f 1a25 36be e898 1240
000003a0: 10cf 203f e239 963f d118 a0be 8bf7 1c3d
000003b0: 09fb dabd c13b 08bf b6a8 44be 523c 4cbf
000003c0: 522f a73e 6953 c53f 8126 e93d 3aac 373f
000003d0: edb4 a53f ede6 c63e 7304 f2be eff5 963f
000003e0: 25ff fa3d ec04 413e acef 3b3f 6992 ea3e
000003f0: 270f 593d 50bb 0f3f 1f89 3dbf 9d83 39bf
-0.5456073 0.66966087 -1.0616533 -0.9720984 -0.7764511 0.44698685 -0.7769288 1.5136011
-0.31856644 -0.8550506 -1.5164785 -0.45127657 0.5143739 -2.7797673 1.2821802 0.8117769
-1.1312624 0.23916464 -0.12695275 1.1770222 -0.0024193237 -1.7146262 -1.994323 -0.39436373
0.98014426 1.1623086 -0.538568 1.1760821 0.45164904 -0.197076 0.08975131 1.1336815
-1.0142167 1.7065364 1.3692006 0.83685887 0.021883579 0.18215804 0.74123317 -0.094913475
2.3018746 0.2392476 -1.2522012 1.362578 1.2247771 0.5635937 -0.17722811 -1.7378995
0.09521308 0.72801286 1.2342393 0.51311976 0.37237537 -0.6211112 -0.12285386 0.46195516
-2.3579266 -0.57936513 -0.024281004 -1.7885512 1.3460311 -0.67437965 -0.39377308 0.8744327
0.09390935 0.38110197 -0.9810725 -1.5095048 -0.035076246 0.19600865 0.29006168 -0.8797858
0.7726441 1.4443794 -0.43253472 -0.36094433 -0.57077473 1.510903 0.83709913 0.85434973
-0.8456072 0.63143826 -0.32022816 -1.9668162 0.011371565 0.3701309 -0.25219667 -0.2057985
1.2036288 0.20272896 1.9513111 1.5910468 2.1369538 -0.21691841 0.018968666 -0.5910512
0.5552163 -0.4198752 0.05315554 0.63623154 -0.5956612 -1.7452763 -1.1386868 -1.700265
-0.38322568 2.0644596 -0.8341616 -0.05135012 -0.18305577 0.23533747 -0.5817807 -0.36895758
0.082881294 0.89673555 -0.1584606 0.38392815 0.41958344 0.5378813 1.3767706 0.9197454
1.1856897 0.57095504 -1.2151309 -1.2024575 1.4414665 -0.05329063 -0.96604425 1.1409845
0.94723237 -1.124758 0.83297944 0.54793024 -0.5896981 0.7571607 -1.4270406 -0.86506784
0.013583769 -1.6416061 0.46399197 -0.6396661 0.4271176 1.1937611 0.1379734 0.024717044
-1.0180384 0.07151954 0.1786748 0.1589091 0.6464394 -0.84220916 0.0045169303 -1.1904562
1.0235025 1.5074755 0.15820412 0.26784793 0.5435488 0.28737202 0.58155745 -0.37286925
-0.9267178 0.5233741 0.11585886 1.0170873 -1.3752717 -1.2061819 0.62601393 -0.70851666
-1.7809687 -0.13871159 -0.19952886 -0.04469228 -0.98925537 0.06317046 0.68086284 -0.666379
0.3060966 1.2464901 0.39615867 1.0392 -0.25707892 -1.0828897 -0.07464309 0.8548266
-0.39388368 1.0772742 0.32630858 0.50465626 -0.53963214 0.096019 0.23789273 1.7735782
0.16335653 -0.48051462 0.648805 -0.2577166 1.9972318 0.669242 -0.038153604 -0.097536825
0.39199448 -1.5829607 -0.17778091 0.42532647 0.91673756 1.0700996 -0.122672044 -1.2565415
-1.0583314 0.28713304 -0.30704188 1.0689068 -0.41848105 0.07513611 0.092587784 0.028184408
-1.633856 -0.1456353 1.4493685 -0.25947624 -0.48957658 -0.97873026 -0.9331454 0.20371467
0.049519498 -0.155306 0.7748127 1.3537554 -0.97547954 0.5202913 -0.1778759 2.2905827
0.6281595 1.1736414 -0.31268933 0.038322013 -0.106924124 -0.5321618 -0.19204983 -0.7977954
0.3265329 1.541608 0.11384297 0.7174717 1.2945839 0.38848057 -0.4726902 1.1793803
0.12255696 0.18849534 0.73412585 0.45814827 0.052992966 0.5614519 -0.74037355 -0.7246645

conv2.1.kernel f4 [64, 1, 3, 3]
00000000: 6889 d73d 0479 683f c7fc 993f 17c2 c5bf
00000010: e790 063f eec5 1bbf d8bf acbe 6c3c 8dbe
00000020: 015c bf3d cfe2 b23f 087d 13bf 7b0b 1bc0
00000030: 0bb2 3dbe 48b1 96bf ce64 3cbd d5b1 28bf
00000040: 23ff bc3f 7be9 3bbf 82dd 11bf 1948 a73e
00000050: ecc4 00c0 b9a6 373e 2923 2e3f 8d05 4abf
00000060: cc35 61bf cefb d3bf 2b3a f6bd 9689 c7bf
00000070: 41b1 57bf 6073 85bf a072 1440 1355 a43f
00000080: da71 bd3f c954 bfbf cba3 2abe 7446 903f
00000090: ae4d 4ebf 7fea 29c0 0e75 103f 68af 7f3f
000000a0: 073a 37bf c038 8a3e 2356 303f 1934 8dbe
000000b0: 1876 0f3f bafe 8d3f ed95 36bf 39cd 08c0
000000c0: a3c0 6dbd 1243 c4be ac28 0d40 90e8 5a3f
000000d0: 3cf0 8abf a351 d3bf 1b41 95bf 4f21 03bf
000000e0: 1dcc f7be 42ea 24bf 2594 a9bf 9424 8c3f
000000f0: e977 0a3f 0f86 ae3f 2334 c0bf b075 543f
00000100: 55e1 883f 7ba7 d83e 6643 6cbe fe7d fa3e
00000110: 0584 99bf 22d4 1040 34ef 49bf 3b4e 3e3f
00000120: db1f aabf 9b21 37c0 de67 953f 2395 6bbf
00000130: 3a97 0cbf 31dd 533f 4e77 813f ffac b33f
00000140: df38 96be f232 0d40 571c 9abd 5d68 00bd
00000150: b32b ab3d a729 803e f4a6 56bf 1723 b13e
00000160: 1fa7 a03e 67c6 913e 7519 093e ab82 51bf
00000170: 3d54 e6be fcd7 04bf 71cf 9bbe 8d9d e33f
00000180: 3efc 05be fa05 1c3f cb7d 1b3e a6c7 823f
00000190: 94c2 2ebf e58a 2440 370b b93e 1c43 6f3f
000001a0: 9c0a 9c3f 7ec9 963f fc67 9f3e 935c e33e
000001b0: bfb0 c43f 8b20 0abf cf2a 4dbf 5088 8dbf
000001c0: 3aa2 08c0 e387 20bf 4e8f b73e c692 49bf
000001d0: 5d87 b2bd 38d1 093f 7c47 a23e a1f4 863e
000001e0: 590e e83e 9fff 77be 1993 9fbf e1ef 02be
000001f0: b86d 193f 3167 26be 4b6e 6ebf 3965 3abc
00000200: 79ce bcbe 0726 b73d f9f8 a43e 57da d5bf
00000210: 0911 803f 0579 003e f856 e13e 71a6 253e
00000220: a5b8 833e e128 e73e c82d a2bf b9a3 303d
00000230: ee16 39be 7fdf 11bf 0023 1bbf 312b 6ebf
00000240: db46 f33e f4d8 4ebf 84d3 ab3f a1a2 1bbf
00000250: 580d 9a3e 78fd c53e 39ef cd3e b661 27bf
00000260: ce3a 963f 122a 3bbf 699b 623f 0a0c f6be
00000270: d6c5 4d3d 2262 a6be 422e 813e 4b9e 2fbf
00000280: d356 8b3f 70d7 183f 999f 1c40 5bcf 423e
00000290: 14dc 15bf f1da 103f a365 873f b7bf f4bd
000002a0: 977f 48be a06b 80bf 28a5 88be 7db3 a03e
000002b0: 8fee b03f bf03 a03e 122c 85bf e12e 253f
000002c0: 7893 a8bd a16c 2fbf 89b3 46be 1e41 04be
000002d0: 507c 4abf cc37 bb3f 7acd dabf 805a 34bf
000002e0: 2b1b 59bf 51c6 d5be d65a bebf 5457 fabe
000002f0: f2ca 8f3e 0ac2 c0be b7b4 1940 2fb2 20c0
00000300: 81cb f73e b578 ccbf f1f1 49bf e741 a93e
00000310: b740 12bf 65e3 883f 3a72 a1be 0646 733e
00000320: 2e3a 013f bf08 e23f 966e be3f 2f5a 913f
00000330: 06c2 4cbd 84aa f1bd 69cc 513f 6c66 c4bf
00000340: c8f8 3f3f f774 80bf 8132 853f 935c e63f
00000350: 8625 d13f fc22 4fbe b7dd eebe 9fbd 2e3c
00000360: 95ea 27bf 62a3 523e ffeb 83bf c284 d9bf
00000370: 5f6d 11bf cb41 0c3f adf1 d7be d0b4 723f
00000380: 7226 0bbf 24db c83f ca04 8abe 4c06 573e
00000390: 7b51 18c0 b1d3 e83e 45a0 2fbe 1433 5ebf
000003a0: d556 2e3f 5e43 1dbf 2033 1a3f 9929 f13e
000003b0: 641c f3bc 1eb4 adbf ff44 583f 1e2f 223f
000003c0: c338 9bbf 5e2f 1cc0 3b2c b83c 9149 95bf
000003d0: 102d e3bf 3456 40bd 62ab c43f 248b df3e
000003e0: b235 63bf edc0 d53f 2926 583f 583f ad3f
000003f0: e8d8 a2bf d017 2bbe 7243 2f3f 0770 03c0
0.10524255 0.90809655 1.2030267 -1.5449857 0.52564853 -0.6084889 -0.33740115 -0.2758516
0.0934372 1.3975466 -0.5761266 -2.4225757 -0.18524949 -1.1772852 -0.045994572 -0.6589635
1.4765362 -0.7340314 -0.5697862 0.32672194 -2.0120192 0.17934693 0.680224 -0.7891472
-0.8797271 -1.656122 -0.120228134 -1.5588863 -0.84254843 -1.0425835 2.3194962 1.2838463
1.480037 -1.4947749 -0.16664045 1.12715 -0.8058728 -2.6549375 0.5642861 0.99877024
-0.7157292 0.26996422 0.68881434 -0.2757881 0.5603957 1.1093361 -0.7132252 -2.1375258
-0.05804504 -0.3833242 2.2056074 0.8551111 -1.0854564 -1.6509289 -1.1660494 -0.512227
-0.48397914 -0.6441995 -1.3248335 1.0948663 0.5408922 1.3634661 -1.5015911 0.82992077
1.0693766 0.42315277 -0.23072585 0.4892425 -1.1993414 2.2629476 -0.7888062 0.7433812
-1.3290972 -2.861426 1.1672323 -0.9202444 -0.54918253 0.82759386 1.0114534 1.4037169
-0.29340264 2.2062345 -0.07524937 -0.03134953 0.08357944 0.25031778 -0.838485 0.34597084
0.31377503 0.2847168 0.13388617 -0.8184001 -0.44986144 -0.51892066 -0.30431703 1.7782456
-0.13084504 0.6094662 0.15184705 1.0217178 -0.6826565 2.5709774 0.3614137 0.93461776
1.2190738 1.178024 0.3113402 0.44406566 1.5366439 -0.53955907 -0.80143446 -1.1057224
-2.1349015 -0.62707347 0.3585152 -0.78739583 -0.08717225 0.5383487 0.31695163 0.26358512
0.45323446 -0.24218605 -1.2466766 -0.12786819 0.5993304 -0.16250302 -0.93137044 -0.011376672
-0.36876276 0.089428 0.322212 -1.6707257 1.0005199 0.12546165 0.44011664 0.16176774
0.2572681 0.45148376 -1.2670221 0.043124888 -0.18075153 -0.5698165 -0.6060028 -0.93034655
0.47514996 -0.80799794 1.3423924 -0.60795027 0.30088305 0.38669944 0.40221575 -0.6538347
1.1736696 -0.7311107 0.8851839 -0.4805606 0.0502375 -0.32496744 0.25230604 -0.6860091
1.0885872 0.5970373 2.447241 0.19024412 -0.5853894 0.5658408 1.0577892 -0.11950629
-0.19579922 -1.0032845 -0.26688504 0.3138694 1.3822802 0.31252858 -1.0404074 0.64524657
-0.082312524 -0.6852513 -0.19404425 -0.12915465 -0.79095936 1.4626403 -1.7093956 -0.7045059
-0.8480708 -0.41752866 -1.4871471 -0.4889475 0.28084522 -0.3764804 2.401655 -2.5108755
0.4839745 -1.5974337 -0.788848 0.33058092 -0.57129997 1.0694395 -0.3153246 0.2375718
0.504794 1.7658919 1.4877498 1.1355647 -0.049989723 -0.118001014 0.8195253 -1.5343757
0.74988985 -1.0035695 1.0406038 1.7997001 1.6339576 -0.20228189 -0.4665353 0.010665326
-0.6559232 0.20570138 -1.0306395 -1.699364 -0.5680751 0.5478789 -0.4217657 0.9480715
-0.5435554 1.5691876 -0.2695678 0.20998496 -2.3799732 0.45474008 -0.17150982 -0.8679669
0.68101245 -0.6143092 0.6023426 0.4710205 -0.029676624 -1.3570592 0.8448028 0.63353145
-1.2126697 -2.440391 0.022482028 -1.1663076 -1.7748127 -0.04695721 1.5364802 0.43660843
-0.8875381 1.6699501 0.8443323 1.3534956 -1.2722445 -0.16708302 0.6846229 -2.0537126

conv2.2.kernel f4 [64, 1, 3, 3]
00000000: bc73 d6bc c324 7fbf 12a4 423f 49e0 adbe
00000010: f47a f73e e7ab 803f 8663 0240 bc1f eb3e
00000020: f2f0 36bf 1180 15bf 77c9 f1be 2266 c1bd
00000030: 4d0b 8bbe 47f0 72bf 1948 25bf 0a96 003e
00000040: 6d80 7e3f 9edc fa3e 2fcc 27bd 19ad 04c0
00000050: 4da6 febd 7ab9 bdbd 6a16 833f db6f 3bbe
00000060: 3e7a 2dbf 2c84 aabe 61b3 9fbf e11a 8d3d
00000070: 1e1a 793f a7e7 a1bf 328c c0bd fa64 21bf
00000080: 1eb9 62bf 9444 393f 2027 d63e 65c5 173e
00000090: 14ae bdbe d683 a1bd 88ca 613f 6b5f 293c
000000a0: a309 123f 7386 d9be 1d19 b03f e0e7 ca3f
000000b0: 3302 9c3e f17c d03e 4a78 1abf bf2e 02c0
000000c0: 8279 0d3f 7b9d e3bf 7efa 8abc 8a26 abbf
000000d0: b65f b13d b406 5f3f ad1d 9f3d a670 eabc
000000e0: 28f0 f33e ef51 fb3f 533f e9bf 9314 0740
000000f0: b055 dd3d c0a7 cdbb aae6 bfbf 9206 4e3f
00000100: e696 853e 306a 8c3e 9d7c 183f c01c 66be
00000110: 3d23 85bf 4680 063f 5ee1 893f b8e9 cbbe
00000120: e8f0 713f 2169 4e3f 15ef bdbd e473 fcbf
00000130: 6c4a 97bf ec68 e23f df26 b93e 5522 cb3d
00000140: 0416 abbe 3c3e 0640 a56e d13f 2bd6 5e3f
00000150: 4572 c83e cc87 c0bd 86dc 6bbe dd0f a8bf
00000160: 263e 583e 35a3 3c3e 90af ddbe e116 87be
00000170: 9a77 8abd d8fe 783f ebaf 913d 875b 0cbf
00000180: 6c15 7e3f 1f8b 803f f016 95bf 8a0a c2be
00000190: ade9 f23f 2e84 c9be d01b d63f 920e d33f
000001a0: fda1 793d 02eb 2dbf 50e1 c8bf 2d13 11bf
000001b0: 8256 1cbf 9bfb d8be d60b 6a3f 58ed 6cbf
000001c0: c3c6 f23e ae49 043f 3985 d9bf 7074 d33e
000001d0: cb24 65bf 5114 9fbe 0d8f 23bf 437a 5c3f
000001e0: 6d3c d0bf be97 9f3f b9ff ba3d 8fa8 0ebf
000001f0: 7722 58bf e6ab a53f b13b b2bf 01ca b43f
00000200: 9ede abbd 4057 8bbd 8947 c43e 35bb 0ac0
00000210: ebb8 0ec0 0712 fcbe f699 173f dedb 493f
00000220: e954 063f 8e60 b6be 60fd e9be b430 d43e
00000230: 5434 31bf 901d 18be 32ad 903f 17bd 333e
00000240: 91ed 17be 2312 98bf 2c30 a8be 05b7 acbe
00000250: be99 4c3c e5ae 2e3e e3d1 4dbf efdf 3abf
00000260: 08b7 f63e 8d0c 5cbf b9a8 98bf ca76 d8be
00000270: 923a ffbe 59ca 243e 03ec 59bf 5a5b 13c0
00000280: 284a 85bf 3f33 9cbf f6ef ed3e 9b9f 77bd
00000290: f255 1abe 6ff9 c03f 19aa bd3f 2a9c 6c3f
000002a0: 0874 a3bf 7177 3e3e 4dc0 3e3f 521f f83e
000002b0: 6ee8 7d3d 5bd9 d9bf 564b bfbd c8e5 d33f
000002c0: 3252 153f 58c5 753f 89b9 05c0 5741 643f
000002d0: d6b7 0abe be04 99bf ad2c 873e b0c6 d83e
000002e0: e18a 55bf af7d 133d 0509 42bf 2d5d 0a3f
000002f0: 078a 473f 569c 823f aa11 adbd 6eb3 80bf
00000300: 8381 8e3e 2b4a 0b3f 1057 cebc d912 7cbf
00000310: f9a0 48bf 9b98 263e 0770 bebe bf13 943f
00000320: b3f1 da3f 10b6 45bf 15f8 53bf 1a6a 8f3f
00000330: 0bef 773e c698 8dbf fab6 2f3e 4c3b 52bf
00000340: f086 253f ca96 873e 3de4 053f 819c a13f
00000350: 476f 803f 8931 b4bf d682 61be 4841 63bf
00000360: d6f3 a1bf 6dec 873f 5302 f03f db9f 43be
00000370: 1832 193f 8736 0c3f e755 8fbe 966a 65bf
00000380: 9ce7 8f3f d41a 133f b9c7 2fc0 f2b3 513f
00000390: b134 7d3f da46 21bf d0d9 513f 8ab0 233f
000003a0: b766 fa3e 5def 283f 648c c5bf 765b 0abe
000003b0: f7d6 78bf ff39 72bf 1191 283e c929 863d
000003c0: e23d 053f ffe7 863f c9cd b73c d46a 443f
000003d0: 7f34 fdbc a194 48bf e606 67be f731 c63d
000003e0: 6e92 cb3f d4c7 0e3f 8e3f 1ebe 012d ecbf
000003f0: 2232 e03f 86a2 64bf 7cbe cf3d 557c 063e
-0.026178233 -0.9966547 0.760316 -0.33960178 0.48335993 1.005246 2.0373244 0.4592265
-0.71461403 -0.5839854 -0.47224018 -0.094433084 -0.2715706 -0.94897884 -0.6456314 0.12557235
0.9941471 0.48996443 -0.04096621 -2.073065 -0.12434063 -0.092638925 1.0241215 -0.18304388
-0.6776465 -0.33303964 -1.2476617 0.06889892 0.97305477 -1.264882 -0.0940174 -0.63044703
-0.88563716 0.72370267 0.41826725 0.14821394 -0.37046874 -0.07886474 0.88199663 0.010337691
0.57045954 -0.4248539 1.3757664 1.5852013 0.30470428 0.40720323 -0.60339797 -2.0341032
0.5526353 -1.7782434 -0.016965147 -1.3371136 0.086608335 0.87119603 0.07769332 -0.028618168
0.47644162 1.9634379 -1.822245 2.1106308 0.10807359 -0.006276101 -1.4992268 0.80478776
0.2609169 0.27424765 0.59565145 -0.22471905 -1.0401379 0.5253948 1.0771902 -0.3982675
0.9450822 0.80629164 -0.09274117 -1.9722867 -1.1819587 1.768827 0.3616247 0.09918658
-0.33415234 2.0975485 1.6361891 0.87045544 0.3914968 -0.09400901 -0.23033342 -1.3129841
0.21117458 0.18421634 -0.43298006 -0.26384643 -0.067610934 0.9726386 0.07113632 -0.5482716
0.9925144 1.0042456 -1.1647625 -0.37898666 1.8977562 -0.39358658 1.6727238 1.6488822
0.0609455 -0.6793672 -1.569376 -0.56669885 -0.610695 -0.4237946 0.9142431 -0.9254966
0.47417268 0.51674926 -1.6993781 0.41299772 -0.89509267 -0.31070188 -0.63890153 0.86124057
-1.626844 1.2468183 0.091308065 -0.5572595 -0.8442759 1.2943084 -1.3924466 1.4124147
-0.0839207 -0.06803751 0.38335827 -2.1676762 -2.2300365 -0.49232504 0.592193 0.78851116
0.5247331 -0.3562054 -0.45701122 0.41443408 -0.6922047 -0.14855027 1.1302855 0.17552601
-0.14836718 -1.1880535 -0.32849252 -0.33733383 0.012487827 0.17058904 -0.80398387 -0.72997946
0.48186517 -0.8595665 -1.192649 -0.4227813 -0.49849373 0.16092815 -0.8512575 -2.3024507
-1.0413256 -1.2203139 0.46472138 -0.060454946 -0.15071848 1.5076121 1.4817535 0.9242579
-1.2769785 0.18600251 0.7451218 0.48461396 0.06198924 -1.7019457 -0.09340541 1.6554499
0.58328545 0.9600425 -2.0894492 0.891622 -0.1354669 -1.1954572 0.26401272 0.42339087
-0.8341504 0.036008533 -0.7579501 0.54048425 0.7794499 1.020396 -0.08450635 -1.0054758
0.27833185 0.54410046 -0.025187999 -0.9846626 -0.78370625 0.16269152 -0.37194845 1.1568526
1.7105011 -0.7723093 -0.8280042 1.1204255 0.24212281 -1.1062248 0.17159644 -0.8212173
0.64659023 0.2648223 0.5230139 1.2625886 1.0033959 -1.4077617 -0.22022566 -0.88771486
-1.2652538 1.0619026 1.8750709 -0.19103949 0.5984206 0.547707 -0.27995226 -0.8961576
1.1242557 0.5746281 -2.746565 0.819152 0.98908526 -0.62998736 0.8197298 0.6394125
0.4890649 0.6599024 -1.5433469 -0.13511452 -0.9720301 -0.94619745 0.16461588 0.06550939
0.5204755 1.053955 0.022436993 0.76725507 -0.030908821 -0.7835179 -0.22561225 0.09677499
1.5904062 0.55773664 -0.15453932 -1.8451234 1.7515299 -0.8931049 0.10143754 0.13133366

conv2.3.kernel f4 [64, 1, 3, 3]
00000000: 3fd1 b03f 397e 053f fac4 b23f ed05 1a3e
00000010: 7ec5 5fbf da4a 58bf 2459 e43f 72ad 943d
00000020: 9ad9 d83f b091 c6be d376 9b3f 8161 a23e
00000030: eb73 c4bf ef6f ba3c d52c 303f 40e5 13bf
00000040: 539a 3a3d 58e8 f03e d483 8ebf d651 783f
00000050: d80b 4abf e2dc bebd 53cb 8dbf c689 87bf
00000060: fabd c8be d4b3 7a3f 3762 2bbe 75d4 173e
00000070: aeec 643e 1c49 8f3f 39d3 b33f 3f10 3cbf
00000080: ff41 ee3f 206f 073f 7093 12c0 b741 96bf
00000090: 6ec3 68bf bc49 cbbe c5c4 213f 1520 a83e
000000a0: 72fa eb3e af4f a3bf 1c46 f6be e4f8 55be
000000b0: db2d cb3e caf4 b7be 1351 2e3f 28ab 8ebf
000000c0: 1919 fabe 23ec eabf 10b5 2abf 89cb 13bf
000000d0: 0fa8 b4bf 1594 e03e 2b88 afbf 4bf7 55bf
000000e0: a5a4 17bf c536 2c3f b71a 0d3f a3ef 1ebf
000000f0: 44e7 2a3f 7605 c0bd b867 5cbf bea1 5ebf
00000100: 13ab 1b3f 417c 2f3e 392d a9bf 947e bbbf
00000110: 5213 ad3e 6faa 953f 1095 8b3f 88ab 45bf
00000120: deb0 9b3c 81ac edbf 3cde 4a3e 72eb a93f
00000130: 68e2 45bf 85ef b4bf b642 1440 3e87 7f3f
00000140: ad72 0840 81b8 15be 6313 0740 0f62 fbbf
00000150: b538 223f dfd4 673e 0bb4 b3bd e6ce b3be
00000160: b01c 26bf 28a4 1c3f b83c 80bf 98c2 0fbf
00000170: df54 1e40 3915 a43f ed78 863f 0bec 8d3f
00000180: 5789 a23f c8e2 c03e 6792 d83f 9304 ca3f
00000190: ff9f efbe f590 b63d f9ec b0be 5bb2 65bf
000001a0: eae6 1abf efe4 b43e 7804 863e 919f 1abe
000001b0: 0162 e3be 31ad 2b3f dc50 cb3f 0274 5cbf
000001c0: 51cc 9dbf 6d42 c03f a29a aa3f 97ea cf3e
000001d0: 8fcd 44bf ce6f 1cbf 48be aabe 5f4c 0d40
000001e0: 06a2 85bf 4c0f 1bc0 8c3b 983f 4f4d 32bf
000001f0: bfe0 aebf 9ccb 93bf fb3f 96be 3c7b 0440
00000200: c84f 1cc0 f327 033f f250 aa3f 27f4 6cbf
00000210: 5e77 02bf 169a 0d3f 56d4 703e 3cee 343f
00000220: 095f 373f 334c 59be 2aca c2be ea22 37bf
00000230: 3c67 923f 27c2 793e 106e 15bf 2496 603e
00000240: b96c 923f 6cf7 553e 7cbe 813f 29c0 b93f
00000250: 58c0 ad3e 6399 c43f 0f5b 96bf db29 1f3f
00000260: a62c b6bf 4043 483f 379e 1fbf 4330 80bf
00000270: 7f31 dfbe ef71 db3f efe0 793f 1e07 25bf
00000280: 7a3f ac3f acf6 c63f 8536 263d 0930 b6bf
00000290: 1ac8 9c3f 179e 59bc 5949 44bf 3dd5 cebf
000002a0: a76c 703f d192 29be 7ff3 c3bf 71a8 a6bb
000002b0: aa43 193f e006 edbe 65b0 f93e 43ba adbe
000002c0: cc94 2e3f 369d 3e3f 2e1b 95bd f5bf 71bf
000002d0: 1827 f4bf 4272 94bf 5cbf 60be cfea 083f
000002e0: af7f 59bf fa13 b93f 39b6 a9be 5541 c0bf
000002f0: 5a89 7f3f 141f 52be c504 0a3f ba3d 8b3f
00000300: d0ef 02c0 da26 a0bf 65b8 4cbf 98b4 d93e
00000310: a50d 8ebf c41f a63f 0ce1 9ebf 0743 89bf
00000320: 0c42 5f3f 3d2d bd3d f71a 0ebf e767 313f
00000330: a9f4 2e3f 0de6 fa3e 4491 9abd 30f2 9bbf
00000340: 33c1 b0bf 9101 8cbf 7008 8bbf 3973 8abf
00000350: 4ba8 40be c37f e43e d47d ddbf 6476 43bf
00000360: b2f3 cbbd af08 903f f0b4 6bbf 1fce 8dbf
00000370: 07a2 17c0 b17b 2d3f e123 593f 95f7 28bf
00000380: 92d7 1dbf 4211 0340 c8d0 03bd 34a5 c03f
00000390: 9bbb 733f 6904 633d 3c15 b0bf 6ff7 41bd
000003a0: e0ef a53e 484b 9fbe b3c5 8c3e 3942 c5bf
000003b0: 26f9 0dbf 7d2b 073f 01be 21bf 6185 193f
000003c0: f44b 733f a0a7 103f 5c24 a13d 103b ebbd
000003d0: 5421 20bf 9834 843f 9e8d 5bbe 88b8 79bf
000003e0: b410 82bf 7a6d 4bbf b59b f13e 0d1d a0bf
000003f0: e357 cc3f 5d80 1abf 0888 c83e cdfe 2e3f
1.3813857 0.52145725 1.3966362 0.15041323 -0.87410724 -0.84489214 1.7839704 0.072596446
1.6941407 -0.38783026 1.2145637 0.31715015 -1.5347875 0.022758452 0.6881841 -0.5777168
0.04555733 0.47052264 -1.1133981 0.9699987 -0.7892432 -0.09319474 -1.1077675 -1.058892
-0.3920744 0.97930646 -0.16736685 0.1482714 0.22355911 1.1194186 1.4048835 -0.7346229
1.861389 0.5290394 -2.2902489 -1.1738805 -0.909232 -0.39704692 0.6319087 0.32836977
0.46089512 -1.2758693 -0.48100364 -0.20895725 0.39683422 -0.35928947 0.6809246 -1.1145983
-0.48847273 -1.8353313 -0.6668253 -0.57732445 -1.4113787 0.43862978 -1.371343 -0.83580464
-0.592356 0.6727107 0.5511889 -0.62084407 0.66759133 -0.093760416 -0.8609576 -0.8696555
0.60807914 0.17137243 -1.3216926 -1.4648004 0.33803803 1.1692637 1.0904865 -0.7721486
0.019005235 -1.8568269 0.19811338 1.3274977 -0.77298594 -1.4135596 2.3165717 0.9981574
2.1319993 -0.14621164 2.1105583 -1.96393 0.6336778 0.22639798 -0.08774575 -0.35118788
-0.64887524 0.6118798 -1.001853 -0.561563 2.4739301 1.2818977 1.0505654 1.108766
1.2698163 0.3767302 1.6919678 1.5782646 -0.46801755 0.08914367 -0.34555796 -0.89725274
-0.60508597 0.35330912 0.26175284 -0.15099932 -0.4441071 0.67061144 1.5884051 -0.86114514
-1.2327977 1.5020272 1.332844 0.40608665 -0.7687616 -0.611081 -0.33348298 2.2077863
-1.0440071 -2.4228086 1.1893172 -0.69649214 -1.3662337 -1.1546512 -0.29345688 2.0700216
-2.4423695 0.5123283 1.3305953 -0.92560047 -0.5096339 0.5531324 0.235185 0.70676017
0.7162939 -0.21220474 -0.38044864 -0.7153765 1.1437755 0.2439047 -0.5837107 0.21932274
1.143943 0.20895165 1.0136256 1.4511768 0.3393581 1.535931 -1.1746539 0.6217324
-1.4232376 0.78227615 -0.6235079 -1.0014728 -0.4359245 1.7144145 0.97608846 -0.64463985
1.3456872 1.5544028 0.040579338 -1.4233409 1.2248566 -0.01328232 -0.7667442 -1.6158825
0.9391579 -0.16559912 -1.5308684 -0.0050859977 0.5986887 -0.46294308 0.4876739 -0.3393117
0.68195796 0.74458635 -0.07280575 -0.9443353 -1.907443 -1.1597369 -0.21947998 0.5348329
-0.84960455 1.4459221 -0.33146837 -1.5019938 0.99818957 -0.20519668 0.5391353 1.0878212
-2.045887 -1.2511857 -0.79968864 0.42520595 -1.1097914 1.2978444 -1.2412429 -1.072358
0.87210155 0.09237144 -0.55509895 0.6929917 0.6834207 0.4900364 -0.075472385 -1.2183285
-1.380896 -1.0937978 -1.086195 -1.0816413 -0.18814199 0.44628724 -1.7304025 -0.76352525
-0.099585906 1.125265 -0.92072964 -1.1078528 -2.3692644 0.67766863 0.8482037 -0.6600278
-0.6165706 2.0479283 -0.03218153 1.5050416 0.9520814 0.055424128 -1.375648 -0.04735511
0.32409573 -0.31112123 0.27494583 -1.5410835 -0.55458295 0.5280073 -0.6318055 0.59969145
0.9503777 0.56505775 0.07868263 -0.11485875 -0.62550855 1.032855 -0.21440741 -0.975472
-1.0161347 -0.7946392 0.47189108 -1.2508866 1.5964321 -0.60352117 0.39166284 0.68357545

conv2.4.kernel f4 [64, 1, 3, 3]
00000000: d050 3cbf 2c54 d1be 4a45 82be 929b 403f
00000010: 6caf 433f cb96 76bf 6198 973f 1ea3 9dbe
00000020: 4311 02bf 210c 49bf 80e5 4fbd 5402 043e
00000030: 3b25 32be f6ac febe 08f2 ef3f 8085 1f3f
00000040: 0fa8 b23e a7c4 653f 7def 31bf c012 db3f
00000050: 4416 d03e 29b3 1940 17ac 8bbd dd8a 3c3f
00000060: d4fc a63f 0cc4 1e3f 61d1 9ebe 70e8 85bf
00000070: 668e eabf efdc c7be ebce 6e3f 0ea7 87bf
00000080: ba49 c6be 9a0b 29bf 3cf8 4d3e 8299 4b3f
00000090: ae5b 003e 1ffa 81bf a4d0 c73f 0304 5bbf
000000a0: a0e2 9a3d 9267 0ebf 1572 153d 591f 73bf
000000b0: 33d1 b6bf 9d14 b5bf b12e 173e 8b1a d53e
000000c0: c629 82bf 9600 cf3e 083f 8dbf 880a 9b3f
000000d0: 7a35 1b3f 50a5 82bf 06b7 ac3f 7ebc d6be
000000e0: c807 6840 b402 13bf 3d28 8bbf bfff b8bf
000000f0: fbf3 1f3f 86b1 2ec0 286b 89bf 4fca 4bbf
00000100: cb11 a4bf a100 2b3f 1db6 88bf 15bb 62bd
00000110: 1ed8 21bf 0f0a bebf f728 be3f 0ea5 b53f
00000120: 9def b5bf 8d92 bb3f 3773 513f e839 9e3f
00000130: c1c9 853f 3e11 4ebd 3d18 adbf 5dfd 1140
00000140: a008 d3be 21d8 9abd e36a 9a3e b208 abbe
00000150: f210 813e 8bdc 1d3d d484 bcbe 32e1 9abe
00000160: 81af 48bf 868a fbbd 0f10 fc3d 925b 90bf
00000170: 647e 9a3f 85c1 1f3f 3578 e43e 8f34 933f
00000180: 9688 aebe f55e 793f 8dfa 9d3f 611d 3bbf
00000190: 3b29 853e 2294 b6bf d428 ab3e 8475 dd3e
000001a0: e22f acbe d0f0 17c0 bc53 1840 9c20 ac3e
000001b0: 8848 c7be 43cb e6bf ceb4 983e 5d2b 383f
000001c0: 197d 52be aa84 b93e 89af 23be 68d4 edbf
000001d0: 4ac2 b6bf 51b0 523f b592 fcbf a9e4 23c0
000001e0: 27db 883f 4738 8cbf f709 273f e2e0 a4be
000001f0: 4026 683f f234 4bbf d8b1 3bbf ac9b a03d
00000200: a942 c8be 10b7 27bf f19e 753f 40dc f03e
00000210: 17fe 6cbf 6634 97bf 3563 9f3f ece2 643f
00000220: 296d 963f 5504 f0bf 3461 a0be 5c9c 05c0
00000230: f256 c63e dee4 073f 7fa9 69bd d862 b13e
00000240: f502 a7be 6573 6f3e 432e e43f 3301 8dbd
00000250: 0d84 78be 31b4 253e 2c8e 7e3f bc9c 75be
00000260: 2f2c efbf 23ee 8fbe 2f6b ad3f a6a8 b33f
00000270: 4896 a83f 8c12 9f3d 43f7 dcbe e3f8 92bf
00000280: 12f9 0ebf 554d b8bf ba07 a13f 026a b73e
00000290: 91cd c83f 59ba cfbf 4d13 d3bf 5e2f 403f
000002a0: 92b9 a8be 7d5d 00bd 3629 06be ec8d 943e
000002b0: a054 7e3e f704 b43e 5489 28c0 17f4 46be
000002c0: b6b0 29be b406 9fbe 56fd 0a3f 2a33 33bf
000002d0: 3c2e 80bf 12a0 93be 62af 02bf bff4 143f
000002e0: e652 f6be 1430 37bf 9aea d3be c16b 9bbf
000002f0: f60c 35be 6782 d8be 2d90 6d3f 66a5 1ebf
00000300: c29d 14c0 8bd3 2cbf 5303 6bbf 9438 1d3e
00000310: 4d9c 3bbf 1ffc 9bbd 2355 e43f ac89 013f
00000320: 4b08 d23d 0060 32be c1f8 063f 0daa ee3f
00000330: 7fb6 993f 0888 9fbf de7a f6be 3258 7f3f
00000340: 9cf0 34be 3b95 6fbf 556e babe 2ab8 97bf
00000350: 2eb4 503f 52ff 6b3f 3a0d c0be c3c7 1a3f
00000360: af98 ccbf c64c 1ac0 7c65 ce3e ab5a 933d
00000370: 206b 43be 751a 603f 67af 9cbf f76f a13f
00000380: 6106 d5bf ebe3 9dbf 76f2 dbbe 4f7f 0d40
00000390: 6adf 9fbe 9d57 e9be 6649 593e 52c9 4bbf
000003a0: 58e1 983f 9961 a7bf 6247 7fbe 89aa 50bf
000003b0: 53ca 383f acf2 b0be 4dbc b1be 8a36 a93f
000003c0: 764f 90bf 00c8 50bf be95 873e e793 e23e
000003d0: e488 b0be 1e26 72be 3595 2640 a1d5 22c0
000003e0: debf cbbe 336a 5abf 8add a2bf b115 babf
000003f0: 5479 4e3f 1d0f af3f 9f0a 81bf 74ef cc3f
-0.7356081 -0.4088453 -0.25443488 0.7523738 0.7643955 -0.9632384 1.1843377 -0.3078851
-0.5080759 -0.7853413 -0.050755978 0.12891513 -0.17397015 -0.49741334 1.8745737 0.6231308
0.34893844 0.8975319 -0.69506055 1.7115097 0.40641987 2.40156 -0.06819933 0.7364939
1.3045907 0.62017894 -0.31019118 -1.0461559 -1.8324707 -0.39035746 0.9328448 -1.0597856
-0.38728124 -0.6603333 0.20114225 0.7953111 0.12534973 -1.0154456 1.5610547 -0.85552996
0.075627565 -0.55626786 0.03648575 -0.9496971 -1.4282593 -1.4146916 0.14763905 0.41621813
-1.0168998 0.40430135 -1.1034861 1.2112589 0.60628474 -1.0206699 1.3493354 -0.41940683
3.625475 -0.57426 -1.0871655 -1.4453048 0.6248166 -2.7295852 -1.0735826 -0.79605573
-1.281793 0.66797835 -1.0680577 -0.055354197 -0.63220394 -1.484682 1.4856251 1.4190996
-1.4213749 1.4654099 0.8181643 1.2361422 1.0452195 -0.050309412 -1.3523022 2.281089
-0.41217518 -0.075607546 0.30159673 -0.33405071 0.2520824 0.038540404 -0.3682009 -0.30249935
-0.783928 -0.122822806 0.123077504 -1.1277945 1.2069821 0.6240466 0.4462296 1.1500415
-0.34088582 0.9741052 1.2342087 -0.73091704 0.2600802 -1.4263957 0.33429587 0.4325372
-0.33630282 -2.374073 2.3801107 0.3361863 -0.38922524 -1.803078 0.29825443 0.7194117
-0.20555533 0.36234027 -0.1598493 -1.8580446 -1.4278042 0.8230029 -1.9732271 -2.5608313
1.069188 -1.0954674 0.6524958 -0.32202822 0.90683365 -0.79377663 -0.73318243 0.07842192
-0.39113358 -0.65513706 0.9594565 0.47043037 -0.9257521 -1.1812866 1.245215 0.89408755
1.1752063 -1.8751322 -0.3132416 -2.0876684 0.3873821 0.530836 -0.05704641 0.34645724
-0.32619444 0.23383863 1.7826618 -0.06884994 -0.24269123 0.16182019 0.9943569 -0.2398557
-1.8685359 -0.2811137 1.3548335 1.4035842 1.3170862 0.077672094 -0.43157396 -1.1482204
-0.558488 -1.43986 1.2580483 0.35823065 1.5687734 -1.6228744 -1.6490265 0.75072277
-0.3295408 -0.031339157 -0.13101658 0.29014528 0.2483697 0.35160038 -2.6333818 -0.1942905
-0.16571316 -0.31059802 0.5429281 -0.69999945 -1.001411 -0.2883306 -0.5104886 0.5818595
-0.4811012 -0.71557736 -0.41389924 -1.2142259 -0.17680725 -0.4228699 0.9279812 -0.6197113
-2.3221288 -0.6751029 -0.9180195 0.15353614 -0.7328537 -0.07616448 1.7838482 0.50600696
0.10255488 -0.17419434 0.5272332 1.8645645 1.2008818 -1.2463388 -0.48140615 0.9974395
-0.1766991 -0.9358708 -0.36412302 -1.1853077 0.8152493 0.9218646 -0.3751009 0.6046106
-1.5984095 -2.4109359 0.403118 0.07195028 -0.19083834 0.8754037 -1.2241029 1.2612294
-1.6642572 -1.233518 -0.4295842 2.2108953 -0.3122514 -0.45574656 0.21219406 -0.79604065
1.194377 -1.307666 -0.24929574 -0.81510216 0.7218372 -0.34560144 -0.34713975 1.3219769
-1.127425 -0.81555176 0.26481432 0.44253466 -0.3447944 -0.23647353 2.6028569 -2.5442889
-0.3979482 -0.853183 -1.2723858 -1.453787 0.8065388 1.3676487 -1.0081366 1.6010575

conv2.5.kernel f4 [64, 1, 3, 3]
00000000: 59b4 c0be fb8d 103e 3cfa 4fbf de11 dcbe
00000010: 5fa2 b7be 7790 e33e 85f3 213f 083d 10bf
00000020: 525c c6be 2f38 a33f b1dc a13f 4837 dd3f
00000030: b7c3 8e3f 8666 19c0 e145 333f c594 723f
00000040: 72bc adbf d900 79bf 221e 583f 203a 2c3f
00000050: c005 9b3e 4b62 8ebd 097f 72bf a37e f6bf
00000060: 5cfb 1d3e 2eca 2e3f 4147 9c3f 44a8 c1be
00000070: c6de 4ebf b3cd 70bf 030b 0040 f4ac 283f
00000080: 2079 24bf 41b9 e53c ede0 d23f 5fbc b8bd
00000090: 9757 873f 5e73 32be 4a30 27be 160b 903e
000000a0: 350c 60bf 1967 b73e 08f6 81bd 7d5e 933d
000000b0: 3034 4dbf 57f6 9ebe 54bd babf 38c0 ad3e
000000c0: 9f5f 07c0 1d5a a93f dcec 933f 9ff7 56bf
000000d0: ad8d 36bf cdde fa3e 7d37 523f f3ff 9d3e
000000e0: 9c6c 89bf a856 173f ae3b 0c3f d016 0b3f
000000f0: 2600 2ebf 9de8 9cbf dbd4 94bf b3bc cc3c
00000100: b0d6 15bf c75e dbbe 591a 1d3f ffa5 0040
00000110: 8f89 cdbf 75e4 0fbf 0f40 3cbf 6376 18bf
00000120: 7e1e 63bf 6d1e c9bf 4784 48bf c4c8 a93f
00000130: 8330 e8bf e7bd e83f 66d1 edbe 3731 e33f
00000140: cfbc c4be bc38 bf3e 4eb3 12bf d170 cfbf
00000150: 0977 1bbe 038e a93e d464 0d40 d1e2 56be
00000160: ecb8 fb3f b166 1bbe c541 debe 4a38 4b3f
00000170: c20f 21be df3c 1d3f cb7e b8bf 6b8e 233e
00000180: da00 543f f095 38bf acef 1540 da64 a13f
00000190: 68e7 30bf f94b 8d3f 880c 8f3e 0e54 8f3d
000001a0: 7221 5cbf 51b2 5a3f 42c3 123f ffa3 cebf
000001b0: 7856 17be 21d7 1140 5c93 72bf 5d36 e3bf
000001c0: 821e c7be 672c c8bd 5059 91bf 5abd 89be
000001d0: 54ba 8abf 70d1 1e3f e971 9bbf bc56 9f3f
000001e0: 80f4 16bf 4cad 9b3f 91fd 303d 077f 393d
000001f0: 0509 a43e 2e4e 38bf 2cd4 cc3d a076 8e3f
00000200: 066f 5fbf 46a0 58bf 04fd 263f 42aa 003e
00000210: e161 aabe 5f75 ff3e 950a 683f 6617 3ebf
00000220: 2be4 bc3f 5d83 3f3f b9ec 03bf 1b4e ce3e
00000230: 341b 3e3f 8a76 9a3f ee8a ae3f 20a4 793f
00000240: b0e1 e53f 3c2b de3f 8bdf 61bf 3d13 5340
00000250: 53ca 03bf e8e2 803f f7cf 62be 63b1 8bbf
00000260: c4f7 89bf 5474 34be 6ad6 11bf 1aca 4dbf
00000270: 32a2 3cbf a5f4 f83d 8a20 e83e 1004 72bf
00000280: 0196 9b3f 9973 e6bd c455 ee3e a827 22bd
00000290: b61c b43e b4b4 afbf 7e2c 673e 3fbe 90bf
000002a0: 7d6d abbf ba9c 1d3e c931 29bf bffb 5bbf
000002b0: f88f 513f 96aa 923f c518 32be 41d6 78bf
000002c0: 3941 d5bd 676a a43e 2c09 c13f 53fb 9cbf
000002d0: 5f70 633f 02a5 4abe 8dff ebbf 3203 573f
000002e0: 4f8b 5abf 0537 293f 9910 7fbe 7a07 b23e
000002f0: df2f 003f 0caf a63e 97c7 ddbe 9ab0 2d3e
00000300: a2d7 bebe eddd 2ebf ab68 39bf d716 57bf
00000310: a278 d2be a718 8a3e 22bc eb3c a972 333f
00000320: d587 4b40 0711 4dbe 3529 583f 6cd6 4f3d
00000330: 1cff af3f d474 a33e ec53 fc3e e9c5 d53f
00000340: 2ce3 48be c157 00be 3f2d 453f 5b55 483f
00000350: f3b0 6d3f 922d 6cbf 0cb8 963d 5f53 9b3f
00000360: 9afd 703f 5e13 aabf 59a8 d23e 1ade c2be
00000370: 89a8 8a3e e941 4c3e cb47 9d3e bddc 32bf
00000380: 46f3 ad3f 89fb d33e c4e7 fbbf 3bc2 573f
00000390: a3bf 2c3f e34c 2f3f 588f a13e e128 e73e
000003a0: f6c1 633f a3ce 223f f6a5 3d3f 5811 abbf
000003b0: 5b8b 973f 54a6 6d3f b40c 5abf 212a ddbf
000003c0: 42cc a7bf eb10 69bf 9d72 2940 1fa5 cfbf
000003d0: fa65 18be 7fc7 993e 3d40 873f c553 0140
000003e0: ce7d a13e d8af be3f 7d1c 793f 6364 1cbd
000003f0: ef18 50bf 03ec 103f ed2c 99be 19ef 86bf
-0.37637594 0.14116661 -0.812412 -0.42982382 -0.35866067 0.44446155 0.63262206 -0.56343126
-0.3874231 1.2751521 1.2645475 1.7282495 1.1153477 -2.3968825 0.700285 0.94758254
-1.3573134 -0.9726692 0.8442098 0.6727619 0.30277824 -0.06952342 -0.9472509 -1.9257396
0.15427917 0.6827725 1.2209245 -0.3782369 -0.80808675 -0.9406387 2.000672 0.65888906
-0.6424732 0.028042438 1.6474892 -0.09020304 1.0573605 -0.17426822 -0.16327015 0.28133458
-0.87518626 0.35820845 -0.06345755 0.071957566 -0.80157757 -0.31047317 -1.4589028 0.33935714
-2.1152112 1.3230625 1.1556659 -0.8397159 -0.7130993 0.48998109 0.8211592 0.30859336
-1.073627 0.591166 0.54778564 0.54331684 -0.67968976 -1.2258488 -1.1627458 0.024992323
-0.5853071 -0.42845747 0.6136833 2.0101316 -1.6057605 -0.5620797 -0.73535246 -0.59555644
-0.887184 -1.571241 -0.7832684 1.3264394 -1.8139805 1.8182954 -0.4644882 1.7749394
-0.384253 0.37347972 -0.5730485 -1.6206304 -0.15182127 0.3311616 2.209279 -0.20984961
1.9665809 -0.15175892 -0.43409553 0.79382765 -0.15728667 0.61421007 -1.4413694 0.15972297
0.828138 -0.72103786 2.3427534 1.2608902 -0.691031 1.103881 0.27939248 0.06998454
-0.85988533 0.8542834 0.5732919 -1.6143798 -0.14779079 2.2787554 -0.947561 -1.7750965
-0.38890463 -0.09774094 -1.1355381 -0.26902276 -1.0838113 0.62038326 -1.2144138 1.2448344
-0.5896683 1.2162261 0.04321057 0.04528716 0.3203813 -0.7199429 0.10001406 1.1129951
-0.87278783 -0.8461956 0.6522982 0.12564948 -0.332778 0.49894235 0.90641147 -0.74254453
1.4757131 0.7480982 -0.51533085 0.40293965 0.7426026 1.2067425 1.3636148 0.9751606
1.7959499 1.7356944 -0.88231725 3.2980492 -0.514806 1.0069246 -0.22149645 -1.0913509
-1.0778737 -0.176225 -0.56967795 -0.8038651 -0.7368499 0.12156037 0.45337325 -0.9453745
1.2155153 -0.11252517 0.4654981 -0.0395886 0.35178155 -1.3727021 0.22575566 -1.1308059
-1.3392788 0.15391818 -0.6609159 -0.8593101 0.81860304 1.1458309 -0.17392261 -0.97201926
-0.10412831 0.3211243 1.5080924 -1.2264198 0.8884334 -0.19789508 -1.8437363 0.8398925
-0.8536882 0.6609958 -0.24908675 0.3477133 0.50073045 0.32555425 -0.43316337 0.169619
-0.3727389 -0.6830738 -0.72425336 -0.84019226 -0.4110766 0.26971933 0.028776232 0.7009683
3.1801655 -0.20026027 0.84437877 0.050741598 1.3749728 0.3192507 0.49282777 1.6701022
-0.19617909 -0.12533475 0.77022165 0.7825524 0.9284813 -0.92257035 0.07359323 1.2134818
0.94136965 -1.328716 0.41144064 -0.38060075 0.27081707 0.19947018 0.30718836 -0.6986807
1.3589866 0.41402844 -1.9680104 0.8428075 0.67479914 0.68476695 0.31554675 0.45148376
0.88967836 0.6359655 0.7408136 -1.3364668 1.1839403 0.9283192 -0.85175633 -1.7278482
-1.310921 -0.9104144 2.6476204 -1.6222266 -0.14882651 0.30035016 1.0566479 2.020738
0.31541294 1.4897413 0.97309095 -0.038181674 -0.81288046 0.56610125 -0.29917088 -1.0541717

conv2.6.kernel f4 [64, 1, 3, 3]
00000000: 3f29 f13f c873 353f 1609 b8bf b9cf 23bf
00000010: 5f4e fd3e 34e8 7ebf e0ea 06be b444 8dbe
00000020: 43c0 0b3f 628f 4b3f 3433 333e 82e4 0fbe
00000030: d3b3 0cc0 008d df3f 6001 0c40 4ffb 3fbe
00000040: 1739 54bf d38e 1d3f f8e0 5fbe 45b4 4abf
00000050: 98bf e33e cf3f de3e 9d11 2e3e 2c80 c13f
00000060: 307e d63f ff61 1d3e 0ef3 0740 40fd 883f
00000070: a4a8 b53d ca29 edbe b188 ac3f 60b2 823e
00000080: 47f6 c5bf 3776 603d 96bb fabe 886e c43f
00000090: b508 35bd 1738 9d3f c007 a3be d5af 853f
000000a0: 25a9 033f 68d9 8cbf 934d 41bf 9c8c 9cbf
000000b0: ab97 23c0 bf39 823e 807e dfbe d406 8ebe
000000c0: 1da9 87bf 6417 053e 46c1 b13e b9e0 35c0
000000d0: 36dd 6ebf 4af9 00bf 8cb8 813e 0cdd 6ebe
000000e0: 518f 5f3f fef6 d7be bd25 503f 01a5 47bf
000000f0: 46f4 ad3f 9099 6e3f 6938 313f 944a 0fbf
00000100: 9094 06c0 7867 87bf f5a6 fcbd 66d0 d7bd
00000110: fcfd d13f f444 893f 7768 0bc0 21cc 883f
00000120: 18d4 47bf 9f47 bb3f 2468 9abf 8926 33be
00000130: d40b 0040 89eb 27bf 07e4 34bf 88bf d2be
00000140: 1b57 b7be c73a 1cbf 07d3 01c0 4c47 e13f
00000150: 703d 40bf 73d6 9e3c c4e8 53bf f23f d3bc
00000160: 0a22 f0be 263a 08bf cac8 5a3f 2f5a a43e
00000170: fd7c 943f 747a 80bf 630a ad3f 75d4 6bbf
00000180: 31e0 063f 1ffb 8a3e e552 fc3f ea05 fabf
00000190: 52fb a9bf 5855 02c0 570f 1fbf 567b 5a3e
000001a0: ed45 d33d fdb3 c33f b132 15c0 c33f 59be
000001b0: 4860 11be 7664 d0bf aa51 063e f076 5c3f
000001c0: 5ccb 23bf 74bd da3e 5013 ed3e 9286 e5bf
000001d0: eb19 033d 6f3a acbf 1fc1 5ebf ebe6 2abe
000001e0: 5aab b4be bbd1 5bbf e943 21bf a4f6 06be
000001f0: c2ad 3bbf 67c5 d13e 5db2 303f a063 8f3f
00000200: a03a d33e 6432 8b3e c6fe 7fbf cfbd 593e
00000210: 6b37 7e3f 0883 eb3f 7cc1 40be 0095 1d3f
00000220: 7198 91bf 4357 e33c 5c2e 53bf a785 e63e
00000230: 7ca8 b43f 211b 24bd 0899 0440 5e94 07bf
00000240: 1c07 083f f47e c03e 68fc c8be 3994 4fbf
00000250: 2450 2bbf 5f01 15bf a02c a13b 1b05 7d3f
00000260: 11ff bb3f e354 9cbd 7d53 d33e 0e11 b1bf
00000270: 81e5 293f c42d af3f 76be cc3d 4f6a 2e3e
00000280: e7e7 5a3f ebd9 bf3f 555e 473e 4db5 91bf
00000290: d55d 4bbf dbc1 0ebd ab7b efbd 8a7a 2f3e
000002a0: f7eb f7bf 64ec 853e 210a 5ebf 8dfc 64bf
000002b0: 46ea babf f1ba 4cbf d517 1340 cd45 8f3e
000002c0: 27bb f4bf ab00 863f 31e5 db3e 68bf c6bf
000002d0: f62f 333f ec57 8c3f ebb3 5c3f 5575 e53d
000002e0: 7c50 c1bf 1964 ca3e 5e29 983e 11d6 80bf
000002f0: 786a 783f 4010 dc3f 4c75 69be 5917 8fbf
00000300: 446e 71bf 7337 143f 12c9 1cbe 61c9 90bf
00000310: 0ac5 94bf 6979 bd3f 7594 45be 4dee 9d3f
00000320: f970 15c0 beb4 c83f 7d85 093f c6ea 893e
00000330: 40e3 5cbd 8e30 8e3f 5bcb d6be b301 3840
00000340: c2a8 e63f 1f10 1ebf d7a8 25bf 8952 013f
00000350: c1bb 103d 892b 0e3f 938e c1bf b157 f43f
00000360: 3519 96be 7dc5 943f 4da7 e83f d24d 84bf
00000370: 8035 12bf 7e4c a6be 4f60 e03e f6b9 063f
00000380: 2531 093e e682 25bd 4dc2 613d 5bdc 853f
00000390: 3610 d1be 24fc b9be ac18 8abf da9d 913d
000003a0: 9925 f4be c042 b63e f3d7 1b3d d065 11be
000003b0: 7b82 32c0 0731 f2be 8ce7 14bf 7086 013f
000003c0: 5bc7 3b3f 4d36 04bf 1cc5 c6bf 38c4 333f
000003d0: 98cc 6b3e 4d58 0e3f 5d8b 3ebe 3c55 e53f
000003e0: 9710 56bf 2e33 0240 f652 a83e 0af9 edbe
000003f0: 097e debf 327d 083e 01a1 96be 736a 9c3f
1.8840712 0.70879793 -1.4377773 -0.63988835 0.49473855 -0.99573064 -0.13175535 -0.2759148
0.54590243 0.7951566 0.17500001 -0.14052013 -2.1984756 1.7464905 2.187584 -0.1874821
-0.8289961 0.6154606 -0.21863163 -0.7918132 0.44482112 0.43408057 0.16998906 1.511724
1.6757259 0.15369414 2.12421 1.0702286 0.08870056 -0.46320945 1.3479215 0.25526714
-1.5465783 0.05480024 -0.48971242 1.5346231 -0.044197757 1.2282742 -0.3184185 1.0444285
0.5142997 -1.1003847 -0.75508994 -1.223041 -2.556132 0.25434682 -0.436512 -0.27739584
-1.0598484 0.12997204 0.34717768 -2.841841 -0.9330629 -0.50380385 0.2533611 -0.2332651
0.8732806 -0.42180628 0.81307584 -0.7798615 1.3590171 0.9320307 0.692267 -0.5597317
-2.1028175 -1.0578451 -0.12336532 -0.10537796 1.6405635 1.0724168 -2.178251 1.0687295
-0.78058004 1.4631232 -1.2063031 -0.17495169 2.000722 -0.65593773 -0.7066044 -0.41161752
-0.35808644 -0.6102719 -2.028505 1.7599883 -0.75093746 0.019389367 -0.8277705 -0.025787327
-0.4690097 -0.5321373 0.8546263 0.32100055 1.1600643 -1.003737 1.3518795 -0.9212106
0.5268584 0.27144715 1.9712797 -1.9533055 -1.3279822 -2.036459 -0.6213278 0.21336111
0.10316072 1.5289303 -2.331219 -0.2121573 -0.14196885 -1.6280658 0.1311709 0.86118984
-0.63982177 0.42722666 0.46303797 -1.7931693 0.03200714 -1.3455333 -0.8701343 -0.1668965
-0.3528698 -0.858669 -0.6299425 -0.13180023 -0.7331201 0.4097092 0.6902216 1.1202278
0.41255665 0.27186882 -0.9999813 0.21263812 0.9930331 1.8399363 -0.18823808 0.6155548
-1.1374646 0.02775157 -0.82492614 0.45023844 1.4113917 -0.040064935 2.0718403 -0.52960765
0.5313585 0.37596858 -0.3925507 -0.81085545 -0.6691916 -0.5820522 0.00491865 0.98835915
1.4687215 -0.07633378 0.41274634 -1.383333 0.6636582 1.3685842 0.09997265 0.17032741
0.85510105 1.4988378 0.19469579 -1.1383454 -0.7944005 -0.034852844 -0.1169351 0.17136589
-1.9368886 0.26156914 -0.86734205 -0.8944786 -1.4602745 -0.7997275 2.2983296 0.2798294
-1.9119614 1.0468954 0.42948297 -1.5527163 0.6999506 1.0964332 0.86212033 0.1120402
-1.5102687 0.39529493 0.2971906 -1.0065328 0.9703746 1.7192459 -0.22798651 -1.1179
-0.94308877 0.5789711 -0.15311077 -1.1311456 -1.1622632 1.4802676 -0.19294913 1.2338349
-2.3350203 1.5680158 0.5371931 0.2693693 -0.05392766 1.1108568 -0.41952023 2.8751037
1.8020251 -0.6174335 -0.64710754 0.50516564 0.035335306 0.5553518 -1.5121635 1.9089261
-0.29316106 1.1622769 1.8176056 -1.0336249 -0.57112885 -0.32480234 0.43823478 0.52627504
0.13397653 -0.040408038 0.05511694 1.0457872 -0.4083268 -0.3632518 -1.0788779 0.07110186
-0.47684935 0.355978 0.038047742 -0.14198995 -2.789214 -0.4730303 -0.5816581 0.5059576
0.7335107 -0.51645356 -1.5528903 0.7022128 0.23027265 0.55603486 -0.1860785 1.7916636
-0.83619064 2.0343738 0.32875794 -0.46479064 -1.7382213 0.13329008 -0.2941971 1.2219986

conv2.7.kernel f4 [64, 1, 3, 3]
00000000: 4a14 5dbd e608 c33f 8b26 86bf f96d 993d
00000010: 41c8 d83e 9a0a 33bf 3e39 b8be 2bbf 8ebf
00000020: f96f bcbf e214 2abe 0980 0bbf d63b ab3f
00000030: 45ac 353f 5f92 f8bf 85cc 713e d8eb 733f
00000040: 1e09 da3e 659d 0f3f cf3f 983f 84c5 233e
00000050: 7c31 323e 40ca 81bd 63de 4d3f 38a4 0ac0
00000060: cb5f 273f 1d99 12bd 037a 873f 77c0 dd3f
00000070: bdeb 093f 5195 8d3f 6992 8ebf 2f57 f53e
00000080: 8b89 2fbf cb20 e5be 620d 08bf db2c 8dbf
00000090: ed92 f8be a197 38bf 54ad 1e3e f958 13bf
000000a0: 32e1 1d40 3ac4 f93d dced a2bd 8bb9 423f
000000b0: ed10 a1bf a000 4fbf ec99 21bf 3256 90bf
000000c0: a8ef 3a3f 75e7 413f fc57 9ebe 63a0 77bf
000000d0: e143 f1bf 4b0f d5bf ab1a 303f 60f5 46bf
000000e0: b3a2 00bf 38f6 02bf 99b4 f73f 1ddd d03d
000000f0: 4c8f 17bf acae b13f cdd4 ffbd 1360 723f
00000100: 1271 95bf 9416 10bf 1c67 3f3f 762e 9fbf
00000110: ac95 c33f e89c 163c d6c7 373e f160 a1be
00000120: 30b1 fb3e 0261 d83d 6d6c 2e3f 4ecf 6dbf
00000130: 1ea4 6c3f a0be f73e 4f75 eb3f 3c79 8a3f
00000140: e542 30be 9168 0a3f 117f 34bf d297 3b3f
00000150: f0a7 95be 279d ddbc 2031 fbbf bd22 4f3f
00000160: 8991 0d3f a29b a6bf 640e 17c0 3be9 40bf
00000170: 3c5c 0a3e 9aa6 2abf 03cd d83f 4381 5f3f
00000180: 6053 143e eb4d 57bf dd84 6b3f 5ac3 aebb
00000190: b02a c73f d065 dd3e 06b9 8c3f 0c64 5b3e
000001a0: 4474 3fbf 0219 08bf 489d 483f 3110 53bf
000001b0: cf79 c43e 91c7 9abd c2de 11bf 7b5e 1340
000001c0: c7ea adbf 6d83 893e f271 ba3e ce15 a1bf
000001d0: bfa1 05bf 809b 603f 2b9b c5be a124 0d3f
000001e0: 8cbc 723e df44 1dc0 5043 89bd b9eb 07bf
000001f0: be9c c23f 3d62 32bf 8de7 ed3f 9c4f 08c0
00000200: f66b b93e 06cf 22bf a201 9cbf 032f 16bf
00000210: 042c 9b3f 2453 fdbe 6ca6 3d3e 72fa 9c3f
00000220: 1cbf 8b3f 867f 5ebf 139a c93f 976b 21bf
00000230: 01de 4b3f aaa7 29bf 832c 9b3f 0f9b 8d3f
00000240: ed87 e6bf b62d 0140 e643 90bf 1e31 b73f
00000250: d3fd 683e a41e c63f b330 c13e 0b79 973f
00000260: 9970 763f 46a1 e73e cd74 fe3e 03df 85bf
00000270: 3fa5 bc3e b414 07bd 7b81 e8bd e8dc 663f
00000280: d6bb 0cbf 84f6 a33f 3d6b 9f3e 313e 7b3e
00000290: bfd4 b6be e682 d43e 7c80 15c0 be6b 21bf
000002a0: 87bc 6ebe d46d 513f 3d51 b4be fddf dd3e
000002b0: 797f 4dbf 6fcb cd3e 636f a63e 3d0f 503f
000002c0: 4d53 debe 09b8 c6be 15c4 743f 5438 30bf
000002d0: 6310 7fbf e649 b13f b04b e43e 93e4 763f
000002e0: 6f02 55bf 5152 a8bf d84c c53d a638 cabf
000002f0: 2a00 963e fc1c e83d f0a0 5a3d 8c2d 8ebd
00000300: 8590 2b3f f98f acbf 6dbf 043f 5f5e fc3e
00000310: 8518 dbbf 3c52 053f 2968 193f 429e 94bf
00000320: 4fb7 5e3f 9509 6e3f 6f7d 70bf fefb c1bf
00000330: 29a9 c6bf 6b88 65be 9478 9f3e 2f64 213e
00000340: b1ff 58bf 15dc 59bf ab11 25be 28f5 2bbc
00000350: 8edd f3bd 57c8 0a3f fa6f 93bf 112c c4be
00000360: cfef 02bf c1ce bebf 5990 cb3f 789c 2a3d
00000370: 0139 833f ac11 a5bf 290d 39bf 698e 0fc0
00000380: 0a07 683d 74de 00c0 a9f2 0bbc abc1 3fbf
00000390: fad8 25bf 04bc d0be 7dca adbf 761d 1cc0
000003a0: 87da 7fbe bcee 02bf 6c9e 813e 031b fbbf
000003b0: 0d54 c0bf 2642 83bf 0fb1 843f fc9b 933e
000003c0: 523d 753f 5957 26bf 6ac5 9f3f 0a96 16bf
000003d0: 130a cfbe 49d1 a93e 27ed cabe 5de2 bb3f
000003e0: 24fd c7be 0b38 4bbf 3ce1 e63e 3081 523e
000003f0: e9ad 9f3f cee4 a9bf 35bd 67be 4670 f1bf
-0.053974427 1.523709 -1.0480512 0.07491679 0.42340282 -0.6993805 -0.35981172 -1.115209
-1.4721671 -0.16609529 -0.5449224 1.3377635 0.7096599 -1.9419669 0.23613174 0.95281744
0.4258508 0.5609954 1.1894473 0.15993315 0.1740169 -0.06337404 0.8041746 -2.166273
0.65380543 -0.03579055 1.058411 1.7324361 0.53875333 1.1061193 -1.1138431 0.47918078
-0.6856925 -0.44751582 -0.5314542 -1.1029314 -0.48549595 -0.7210637 0.15495807 -0.57557636
2.4668698 0.1219563 -0.07955524 0.76064366 -1.258329 -0.8086033 -0.6312549 -1.1276305
0.73021936 0.757438 -0.30926502 -0.96729106 -1.884884 -1.6645292 0.6879069 -0.7771816
-0.5024826 -0.5115695 1.9351989 0.10198424 -0.5920303 1.3881431 -0.124917604 0.9467785
-1.1675131 -0.5628445 0.7476671 -1.2436054 1.5280051 0.009192683 0.17947325 -0.31519273
0.4915862 0.10565378 0.68134195 -0.92894447 0.9243792 0.48387623 1.8395175 1.0818248
-0.17213018 0.54065806 -0.7050639 0.73278534 -0.2922969 -0.027052475 -1.9624367 0.8091238
0.55300194 -1.3016245 -2.3602533 -0.7535588 0.13511747 -0.66660464 1.6937565 0.8730661
0.1448493 -0.8410327 0.9199961 -0.0053333463 1.5559902 0.4324174 1.0993965 0.21424884
-0.7478678 -0.5316316 0.7836499 -0.8244658 0.38374183 -0.075575955 -0.56980526 2.3026416
-1.3587273 0.26858082 0.36415058 -1.2584779 -0.5219993 0.87737274 -0.38594946 0.55134016
0.23704737 -2.4573286 -0.06702292 -0.5309406 1.5204084 -0.6968115 1.8586289 -2.129859
0.3621518 -0.6359714 -1.2187998 -0.58665484 1.2122808 -0.49477494 0.18520516 1.226393
1.0917697 -0.86913335 1.5750145 -0.63054794 0.79635626 -0.6627146 1.2122959 1.1062945
-1.8010231 2.018415 -1.1270721 1.4311864 0.22753076 1.5478101 0.37732467 1.1833814
0.9626556 0.4524023 0.49698487 -1.0458683 0.36844823 -0.03297873 -0.113528214 0.90180826
-0.54974115 1.2809606 0.31136504 0.24535443 -0.35709187 0.41506118 -2.335967 -0.63055027
-0.23314105 0.8180821 -0.3521823 0.43334952 -0.8027263 0.4019427 0.32506856 0.8127325
-0.43422928 -0.38812283 0.956117 -0.6883595 -0.9963438 1.3850677 0.44588995 0.96442527
-0.8320684 -1.3150121 0.096337974 -1.5798538 0.29297 0.11333653 0.05337614 -0.06942281
0.67017394 -1.3481437 0.5185459 0.4929075 -1.7116858 0.52078605 0.5992456 -1.1610796
0.86998457 0.9298337 -0.93941396 -1.5155027 -1.5520374 -0.2241532 0.3114668 0.15760873
-0.84765154 -0.85101444 -0.16120021 -0.0104954615 -0.119074926 0.54211944 -1.1518548 -0.3831487
-0.5114717 -1.4906846 1.5903426 0.041653126 1.0251771 -1.2896018 -0.72285706 -2.243067
0.056647338 -2.0135775 -0.008541741 -0.7490489 -0.64784205 -0.40768445 -1.357742 -2.4392982
-0.24985705 -0.5114553 0.2531618 -1.9617618 -1.502565 -1.0254562 1.0366534 0.28829944
0.9579669 -0.6497703 1.2482121 -0.5882269 -0.40437374 0.33167484 -0.39634058 1.4678456
-0.39060318 -0.7938239 0.45093715 0.20557094 1.2474948 -1.3272951 -0.2263077 -1.8862388
