Train_result/Thu_Jun_12_22_07_30_2025_Encoder_Base_Train.model (torch, 54848 bytes, 10 tensors)

conv1.0.kernel f4 [64, 1, 3, 3]
000000 17 27 3b bf 0e 47 96 bc 61 b6 34 bf e2 89 15 bf
       -0.7310652 -0.018344428 -0.7059079 -0.5841352
000010 5b 7c 9f bf 95 14 a9 bd 2b 06 41 bf d4 c3 18 be
       -1.2459825 -0.08255879 -0.75400037 -0.14918453
000020 2b 3f 69 be 8f 31 c5 be 8d e4 0d 40 6c ed c9 3e
       -0.22778003 -0.38514373 2.2170746 0.3943895
000030 83 a3 07 c0 7e 8c b6 3f e3 4d 62 3e dc 2e 03 c0
       -2.119355 1.4261625 0.22100024 -2.049735
000040 0c 2c e5 3f 78 c6 aa 3f 23 3b 60 3f 28 fb 1e 3d
       1.7904067 1.3341818 0.87590235 0.03881374
000050 a3 ec 0c 3d ca 6c ac 3f ed 62 70 bf 0a 0c 97 bb
       0.03440536 1.34707 -0.9390095 -0.0046095895
000060 c2 8f df be 8f b7 e1 bd 20 b4 65 bf 50 d3 73 be
       -0.43664366 -0.11021339 -0.89727974 -0.23811078
000070 e0 2d ab 3f 5d 63 27 3f e5 44 01 bf 10 4f 49 3f
       1.3373375 0.6538599 -0.5049575 0.78636265
000080 dd e3 ee 3e c3 0d c7 be e3 63 62 3e 06 69 4c c0
       0.4665822 -0.38877687 0.22108416 -3.1939101
000090 99 0d 63 bf 7d 0d ec be 50 18 94 bf d1 4b 0d 40
       -0.88692623 -0.4610404 -1.156992 2.2077525
0000a0 68 ed ac 3f ef 1e 85 bf e1 0b 07 40 a8 87 78 bf
       1.3509951 -1.0400065 2.1101 -0.97081995
0000b0 ff e3 07 c0 3a e5 63 3e 2c 8a 09 bf f1 0e 6e bf
       -2.1232908 0.22255412 -0.5372646 -0.9299155
0000c0 59 bd 85 3e 01 48 a0 3f 5b 15 f4 3e c4 b8 d7 3e
       0.26121023 1.2521974 0.47672543 0.42133152
0000d0 af 6f 1d 40 6c e4 89 bf 89 4f 05 c0 7b 91 fd 3e
       2.4599416 -1.0772834 -2.0829794 0.49525055
0000e0 e1 4d 50 3f a9 01 5f 3f 64 ad 6c bf 87 ab 91 3f
       0.81368834 0.8711191 -0.92452073 1.1380471
0000f0 c6 25 14 be 21 d8 64 3e 0e 97 5e 3f 29 1e 25 3f
       -0.14467534 0.22348072 0.8694924 0.64499146
000100 54 78 2a bf f8 dd 53 3e 4b fd 93 3f c4 af a7 3f
       -0.66589856 0.20690143 1.1561674 1.3100514
000110 75 b3 4d bf e5 7b 9b 3e 4d 99 cf bd 6f fa ad 3e
       -0.80351955 0.30367962 -0.10136662 0.33980128
000120 8b e8 25 bf 2c fd d8 bf 0a 80 3e bf 93 da 26 bf
       -0.6480796 -1.6952262 -0.7441412 -0.6517727
000130 14 55 53 bf 34 82 d2 3f 1f 46 7f 3d 0c e9 8a bf
       -0.82551694 1.6445985 0.062322732 -1.085237
000140 dc 05 1d c0 11 96 15 40 3e 15 49 bf ef a6 ad bf
       -2.4534826 2.3372843 -0.7854804 -1.3566569
000150 4f 04 3f bf a1 3f 29 3e f6 49 2d be 56 1e fc be
       -0.7461595 0.16528179 -0.16922745 -0.49241894
000160 d7 07 2c bf 4b 9d 75 bf 66 00 b4 3f 13 a9 99 3d
       -0.6719946 -0.95943135 1.4062622 0.075029515
000170 58 a3 cc 3f f7 bd 83 3d 3e 29 74 bf f5 c1 84 be
       1.5987349 0.06432717 -0.9537543 -0.25929227
000180 03 5e 62 be 39 ef ae be 69 7b 82 be 3d d3 9f 3f
       -0.22106175 -0.34166887 -0.2548478 1.248634
000190 09 fa e9 3d 8f 60 01 bf 88 90 76 3f 8c 04 c6 3e
       0.114246435 -0.5053796 0.9631429 0.38675344
0001a0 e3 39 86 bf f4 6f 3e bd ad 2c e2 bd 3d f1 3f 3f
       -1.0486416 -0.046493486 -0.110436775 0.74977475
0001b0 ac 9b 4b bf 2e 85 a7 3e 0a e1 ad 3f 5b be 03 3f
       -0.7953441 0.32718796 1.3584301 0.51462334
0001c0 63 9b 82 bf 4a 5e dd 3e 58 f6 0e 3f 06 85 36 be
       -1.020367 0.43236 0.5584464 -0.17824182
0001d0 6a 5f ac 3f 66 39 5b bf 99 5d df bf cf 8f 20 c0
       1.3466618 -0.8563446 -1.7450439 -2.5087774
0001e0 0b 9b 48 bf 49 6c ae 3f 42 46 6c 3f 13 b2 ae be
       -0.78361577 1.3626796 0.92294705 -0.34120235
0001f0 1f 16 97 bf 36 ff 43 bf 07 b4 1a 3f 73 47 ab bf
       -1.1803626 -0.76561296 0.6043095 -1.338118
000200 0e 3e 8e be 54 05 87 3f 5e d8 56 3e 97 7b 12 bf
       -0.2778172 1.0548501 0.20980975 -0.57219833
000210 6d 3f 8c 3e 81 ad f2 3e 80 cc 57 3d 90 1a 2a bf
       0.2739214 0.47397998 0.05268526 -0.6644678
000220 4e ac 33 be 27 00 60 bf 86 21 46 3e 31 22 ea bf
       -0.17546198 -0.8750023 0.19348726 -1.8291684
000230 45 16 9f bc 34 5f cd be f6 a6 ee 3f 19 19 c9 be
       -0.019419799 -0.40111697 1.8644702 -0.3927696
000240 ca 6f 46 3f 92 6b 49 3f 30 89 07 be 51 5d d7 bf
       0.77514327 0.78679764 -0.13235927 -1.6825353
000250 a1 c2 94 3f c4 ea 84 3f 86 67 0e be ca 72 b2 3e
       1.1621896 1.0384145 -0.13906679 0.34853202
000260 27 10 b8 bf 87 29 35 bf 94 95 9d 3f a3 a5 55 3e
       -1.4379929 -0.7076649 1.2311273 0.20863967
000270 1c 51 e8 3f e9 f6 a2 bf 2d 4e 6a 3e 8f 70 50 3f
       1.8149753 -1.2731601 0.22881384 0.8142175
000280 fb 5e e2 bd eb 8c 8d bf dc 9c 4c 3f 7c ae 00 bf
       -0.11053272 -1.105863 0.7992685 -0.5026624
000290 1e 02 7e 3e bb 90 b6 3e f3 6b 01 c0 f6 70 8e 3f
       0.24805495 0.35657296 -2.0222137 1.1128223
0002a0 ab 69 77 bf 45 3c 8b 3f 60 24 aa 3d 8e 41 2a bf
       -0.9664561 1.0877768 0.08307719 -0.6650628
0002b0 67 79 6f 3d 6d ef 60 3f 83 69 03 3f 01 45 2b bf
       0.058465388 0.87865335 0.51332873 -0.66902167
0002c0 f7 ef 1b bf c3 7f 35 bf f0 02 21 3f b0 4f 86 3e
       -0.6091303 -0.70898074 0.6289511 0.26232672
0002d0 e4 6a 02 bf a7 d1 94 bf bf ea 10 c0 e1 19 96 bf
       -0.5094435 -1.1626481 -2.2643278 -1.1726648
0002e0 8b f7 b9 3e c8 e9 d9 be 29 cd 21 bf 04 51 f5 3e
       0.36321673 -0.42561173 -0.63203675 0.47913373
0002f0 1d 60 90 bf 26 0e 8e bf b5 84 c8 be 5e 4e 0b 3f
       -1.1279331 -1.1098068 -0.39163747 0.54416454
000300 1b 89 fa be 9a b2 9b 3f c9 99 e4 bf e7 34 80 bc
       -0.48932728 1.216388 -1.7859432 -0.015650226
000310 89 a7 08 bf df 25 0d 3f ba 93 ee bf 1c 26 f0 3f
       -0.5338064 0.5513591 -1.8638833 1.876163
000320 f1 b3 3a be 48 44 86 bd 70 fc 90 bf b7 71 a8 3f
       -0.18232705 -0.06555992 -1.1327038 1.3159703
000330 51 02 18 be ff 6e c6 3f e8 59 7f 3f 2f 85 2b 3f
       -0.14844634 1.5502623 0.9974656 0.670001
000340 94 d0 fc bc 3a 9c 95 bf f4 23 34 bf 42 ae 99 bf
       -0.030861177 -1.1688302 -0.7036736 -1.2006304
000350 33 0b 02 bf f8 a7 29 be 97 b8 ad be 9c 1e 22 bf
       -0.5079834 -0.16567981 -0.33929893 -0.63327956
000360 e6 86 ac 3e a1 9d 31 bf 5e e8 3e 3f 83 d0 58 3e
       0.3369667 -0.6938115 0.74573314 0.21173291
000370 57 71 ec 3f eb f6 c6 be d8 f8 40 3f 65 7a e5 bf
       1.8472089 -0.38860258 0.75379705 -1.7927977
000380 92 49 78 bf 9f 88 ee bf 48 6a ee 3f 67 79 7b bf
       -0.9698726 -1.8635443 1.8626184 -0.9823212
000390 56 19 2d 3f 26 42 7d bf 00 47 c1 be bc 12 05 3f
       0.67616785 -0.9892906 -0.3774948 0.5198171
0003a0 68 29 1c bf 46 94 5c 3e 93 ac 77 bd 3b f5 0a 3f
       -0.6100068 0.21540937 -0.060467314 0.5428044
0003b0 2a 70 fa bf da 85 10 bf 82 05 b2 bf 7d 35 1f be
       -1.956548 -0.5645424 -1.3907931 -0.15547748
0003c0 0d 23 9c 3f 20 37 4d bf 93 4d 14 c0 7c 17 5d bf
       1.2198197 -0.8016224 -2.3172348 -0.8636396
0003d0 54 a9 21 bf e8 bd b0 3e d4 01 54 3e 51 a0 82 bd
       -0.63149 0.34519887 0.20703822 -0.06378234
0003e0 73 df 22 bf 17 98 8e 3e ff f1 a4 be b5 56 50 bf
       -0.63622206 0.2785041 -0.32215878 -0.81382304
0003f0 12 9b 16 3f d8 ba d7 bf 52 21 b7 bf a7 58 da bf
       0.5883037 -1.6853895 -1.4307044 -1.7058305

conv1.1.kernel f4 [64, 1, 3, 3]
000000 18 b6 a5 bf c8 c7 f2 be fd 1a bc 3f 3e a7 1c 3f
       -1.2946196 -0.47418046 1.4695736 0.6119269
000010 66 25 3b bf 24 34 38 bf c8 ca 65 bf 41 f9 64 bf
       -0.7310394 -0.7195456 -0.89762545 -0.8944283
000020 0f c1 bf 3e a4 46 42 be 9f b8 49 bf 27 da 06 bf
       0.3745198 -0.1897226 -0.78797334 -0.52676624
000030 b7 68 84 3e c4 a4 02 3e 14 17 e7 bf 24 72 f2 bd
       0.2586114 0.12758166 -1.8053918 -0.11838177
000040 24 54 b8 3f c9 cc 82 bd b3 ca 82 bf 32 db b3 3f
       1.4400678 -0.06386716 -1.0218109 1.4051268
000050 0f dd a9 bf 2c 72 45 3f 13 a4 61 3f de 61 06 3f
       -1.3270587 0.7712734 0.8814098 0.52493083
000060 1e d8 21 3f 04 70 36 be 9a df b6 bf 2b ef be be
       0.63220394 -0.17816168 -1.4286988 -0.37291846
000070 67 f6 e3 3e 1d 34 b2 3f 57 ef 05 bf 5f 38 91 bf
       0.44523928 1.3922154 -0.5231833 -1.1345328
000080 86 78 a7 bf 92 1a 8b be b5 27 88 3f 67 46 e1 3f
       -1.3083656 -0.2716871 1.0637118 1.759961
000090 cf 07 31 3f cc a8 3e 3f f5 af e3 3e 9a 50 4b bf
       0.6915254 0.74476314 0.44470182 -0.79419863
0000a0 42 55 59 3f 2d ce 8e be b5 72 8e 3d 86 66 9e 3e
       0.8489572 -0.27891675 0.069554724 0.30937594
0000b0 93 d7 bc 3f 42 fa eb 3f ce 68 85 3f d8 72 0a 3f
       1.4753288 1.8435748 1.0422609 0.5408149
0000c0 cd bb 07 40 2b 6b 3a c0 c3 1e 2e 3f 16 53 0d 3f
       2.1208375 -2.912791 0.6801569 0.55204904
0000d0 d6 17 a4 bf ab 27 80 3e dd 92 64 3f ed 09 6e be
       -1.2819774 0.25030264 0.89286596 -0.23245974
0000e0 48 43 af be cb 47 b5 bf 76 0a cf 3e e4 b5 4b 3f
       -0.3423102 -1.4162534 0.4043767 0.7957442
0000f0 01 7f 74 3f 29 db 8c 3f 5c a7 26 bf 06 a0 24 3f
       0.9550629 1.1004382 -0.6509912 0.64306676
000100 bf bd 1c 3d 9e 7f fd be 19 d8 8d bf a0 c3 2e bf
       0.038266893 -0.49511427 -1.1081573 -0.6826725
000110 3b 59 2a 3f 39 66 ba 3f ea ad ae bd e9 60 4e bf
       0.66542405 1.4562446 -0.08529265 -0.80616623
000120 9e 51 5d 3e 45 1c a1 bf 14 ff 61 bf 0d e9 f3 bf
       0.21613166 -1.2586752 -0.88279843 -1.9055496
000130 4a 38 a6 3e 05 bc b1 3e 51 eb ac 3f ed 92 9d be
       0.3246482 0.3471376 1.3509313 -0.30776158
000140 e0 80 ca 3e 27 9b d6 3f 21 9e 8c 3f e2 01 59 3e
       0.3955145 1.6766099 1.0985757 0.21192124
000150 36 62 4a bf c9 1b 02 c0 8a ec c2 be 9e 19 a3 bf
       -0.7905611 -2.0329459 -0.3807109 -1.2742193
000160 d4 d9 27 be 57 67 20 3f db bf ba 3f ff 43 0e 40
       -0.16391689 0.62657684 1.45898 2.2229002
000170 f6 81 aa bf 65 3a 0e bf 31 6d af 3f 5a 9b d9 3f
       -1.3320911 -0.55557853 1.3705198 1.7000535
000180 c8 44 ef bf 7f 5a a8 3d e3 0c 92 3f 4b 82 61 3f
       -1.8692865 0.08220386 1.1410183 0.88089436
000190 6c a4 15 bf 22 b1 13 3f 81 a0 76 bf 45 12 7d bf
       -0.5845401 0.5769216 -0.9633866 -0.98856
0001a0 1f e8 fc 3d 51 72 f0 be 40 20 3c 3f da 3b e8 3d
       0.12348961 -0.46962216 0.7348671 0.11339541
0001b0 1a 41 92 bf e6 c9 ec be a1 50 bd 3f bd 34 57 bf
       -1.1426117 -0.46247786 1.4790231 -0.8406485
0001c0 be f6 86 3f b8 e1 d7 3e 22 91 d8 bf 55 7a 33 be
       1.054405 0.42164397 -1.6919291 -0.17527135
0001d0 84 5f e0 bf f1 35 7e 3f 9c 8d 07 40 6a a3 aa be
       -1.7529149 0.9930106 2.1180182 -0.333278
0001e0 11 91 aa be 86 0d 64 be e7 b7 37 bf c9 39 80 bd
       -0.33313802 -0.22270784 -0.7176499 -0.06261022
0001f0 d2 97 df bf cf 71 65 3e dd ba 37 3f 90 52 31 3f
       -1.7468207 0.22406696 0.71769506 0.69266605
000200 4e 9e 70 be ec d1 ee 3f f1 50 4f bf 2a ac de 3f
       -0.23497888 1.8657813 -0.8098288 1.739629
000210 8e 6d 1e 3f 29 8d c8 3e 1d 14 66 bd 54 a0 56 3f
       0.6188592 0.39170197 -0.056171525 0.8383839
000220 db e5 47 bf 0f 50 57 3e 09 53 10 bf 61 bd 8c bf
       -0.78085107 0.21026634 -0.563767 -1.0995294
000230 39 73 83 3f 73 6f 50 3f 55 2a 2d 3e 7a 66 73 bf
       1.0269538 0.8142006 0.1691068 -0.9507824
000240 03 21 87 be 6f ac 30 bf a3 f9 e8 3c 3c aa a7 3d
       -0.26392373 -0.6901311 0.028439349 0.081867665
000250 95 5a af 3f c8 23 26 c0 81 44 fb 3e 75 61 db 3e
       1.3699518 -2.595934 0.49075702 0.4284779
000260 b6 35 a3 3e a0 43 18 3f fd 94 9c bf c9 7e 60 be
       0.31876916 0.5947819 -1.2232968 -0.21923365
000270 d2 fd ba 3d 5d eb b9 3e 7f 53 34 be 5c 14 2a bd
       0.09130444 0.3631238 -0.17609976 -0.041523322
000280 fa a9 bb bf 82 7b 86 3e 41 f4 c6 bf a1 4c 73 3d
       -1.4661248 0.26266104 -1.554329 0.05939925
000290 47 19 b5 bf d2 7e 19 bf 1d 4e 9f bf 5d a4 2c bf
       -1.4148339 -0.5995914 -1.2445713 -0.674383
0002a0 86 ff 4a 3e 18 69 85 bf af fe b6 be 5c 35 7f bf
       0.19824037 -1.0422697 -0.35741183 -0.99690795
0002b0 70 16 95 be 67 88 10 bf 3b 17 d8 3f 81 72 05 c0
       -0.2911868 -0.56458133 1.6882089 -2.0851138
0002c0 bd b4 23 bf 09 3f 36 3e 65 3a 26 bf 74 46 91 3f
       -0.6394766 0.17797484 -0.64932853 1.1349626
0002d0 92 d4 6a 3f 52 80 cd be b5 c2 3a bf 17 fe 5a bf
       0.91730607 -0.40136963 -0.7295335 -0.8554396
0002e0 c5 50 2a 3e 01 06 14 3f 97 86 a6 bf b0 81 4d 3f
       0.16632374 0.5782166 -1.3009824 0.8027601
0002f0 02 46 91 3f 65 f0 ce 3f 59 77 c6 bf 1a b5 0b c0
       1.134949 1.6167113 -1.5505172 -2.1829286
000300 5d ef a1 3f f0 af 22 3e 44 28 84 bf 44 f8 72 3e
       1.2651173 0.15887427 -1.0324788 0.23727518
000310 ae fc bb 3e 92 79 c6 be 00 fd 41 bf 0f cf 9e 3f
       0.36716217 -0.38764626 -0.7577667 1.2406939
000320 a7 be 4d 3f 71 77 fc be eb 42 cf 3f de e6 32 be
       0.8036904 -0.49309877 1.6192297 -0.17470881
000330 f9 a6 90 be 7a 37 af 3f e7 df 6d bf 69 db 24 3f
       -0.2825239 1.3688805 -0.9291977 0.64397293
000340 65 af 33 3f 1e 30 51 bf 29 0d ab bf 2b fb d5 3f
       0.70189506 -0.81714046 -1.3363391 1.6717275
000350 dc 23 00 bf 82 9a 09 3f 40 16 9d 3e bc f5 c0 bd
       -0.5005472 0.53751385 0.30681038 -0.0942187
000360 f3 8a e5 be 4e da 88 bf 9c 6f 32 3e be b5 f4 3e
       -0.44832572 -1.0691621 0.17425388 0.47794908
000370 a7 0f 15 3f b5 25 85 bf 7a aa 3a 3f d5 60 c1 3f
       0.5822701 -1.0402132 0.72916377 1.5107676
000380 3c ea b6 bf a9 53 15 c0 ef fd 9d 3f f7 fb 42 bc
       -1.4290233 -2.3332312 1.2343119 -0.011900893
000390 e6 92 db 3d 77 51 c1 bf b6 7b 8b bf 5f 31 ce be
       0.10721378 -1.5102986 -1.0897129 -0.40272042
0003a0 24 9c a7 bf 18 e1 c6 bf 79 a5 7d bf 54 ee 30 3f
       -1.3094525 -1.5537443 -0.99080616 0.6911366
0003b0 d3 9a 31 3f 98 ef 3c be 49 51 e4 be 39 83 f1 3e
       0.6937687 -0.18450773 -0.44593266 0.47170427
0003c0 04 69 d5 be 2a 3c 76 3f 9c 97 64 be 39 2e 42 be
       -0.41681683 0.96185553 -0.2232346 -0.18962945
0003d0 3a a5 65 be fc f8 d2 3e a9 29 2d bd d5 f8 61 bf
       -0.2242631 0.41205585 -0.04227606 -0.8827031
0003e0 7a 3d 20 3e 21 cb 8f be 83 1e 21 3e 6f d9 4e bf
       0.15648451 -0.28084663 0.15734296 -0.8080053
0003f0 ef e6 ed be 4e 5f 8e 3f c2 fe 90 bf bf 8f 5c bf
       -0.4646525 1.1122835 -1.1327746 -0.8615684

conv1.2.kernel f4 [64, 1, 3, 3]
000000 57 95 c4 be 6b ea b1 be ae 47 a8 bf 64 53 c2 3e
       -0.38395187 -0.3474916 -1.3146875 0.37954247
000010 40 f9 ee be a4 31 04 bf c7 74 f7 be 84 5a 19 3e
       -0.46674538 -0.51638246 -0.48331282 0.14975935
000020 5a 91 8a bf 1c 08 11 bf 7b 1d 19 bf 53 02 a3 bf
       -1.0825608 -0.56653 -0.5981061 -1.2735084
000030 0b 54 5f be a9 88 0f bf 4e c4 ce 3f 45 21 a7 bd
       -0.21809404 -0.560679 1.6153657 -0.081606425
000040 90 6c 92 3e 76 3a 4d 3f 0a a3 6f be 8d 0e 7d bf
       0.28598452 0.8016733 -0.23402038 -0.9885033
000050 62 0f 99 3e 47 cc 56 bf 23 e3 db 3e 92 f8 d0 3f
       0.2989455 -0.8390545 0.4294673 1.6325858
000060 a3 b3 0f be c6 ab 9e bf 47 28 d7 3c 5a 5a a3 3f
       -0.1403337 -1.2396171 0.026264323 1.2761948
000070 5f 61 63 bf a2 8c 18 c0 46 39 60 bf 41 62 61 bf
       -0.8882045 -2.3835835 -0.8758739 -0.8804055
000080 61 fd 44 3f ba a9 dc bf 7b 26 10 40 55 8b 43 3f
       0.76949126 -1.7239296 2.2523487 0.7638448
000090 51 12 9f be 6a 43 04 40 cc e9 c0 be 5d 7d 00 3f
       -0.31068662 2.0666146 -0.37678373 0.5019129
0000a0 6a 45 d3 3e 55 3f c7 3f 51 82 77 bf 56 7b 9c bf
       0.41263896 1.5566202 -0.9668322 -1.2225139
0000b0 76 cb 7f bd 73 b6 94 be 1e c1 8b bf ac 80 e0 3e
       -0.062449895 -0.29045448 -1.091831 0.4384817
0000c0 6f 22 e7 3f f9 a9 d4 3e 79 70 a2 3e 8d 7d 11 bf
       1.8057383 0.4153593 0.31726435 -0.568322
0000d0 55 16 94 3e 1e 9b 01 bf 40 18 b4 3f 8b 8b 61 bf
       0.28923288 -0.50627315 1.40699 -0.8810355
0000e0 25 80 23 3f e9 e5 15 c0 bd a7 96 bf 38 6e 1d 3b
       0.6386741 -2.3421576 -1.176994 0.0024021994
0000f0 fe 02 48 3f f2 55 b6 bf fc 59 b9 bd 7d 9c 4e 3f
       0.78129566 -1.4244978 -0.09050366 0.8070753
000100 ff 58 06 bf a6 e5 71 3f 2f 9d ba bf 64 84 05 3f
       -0.5247955 0.9449104 -1.4579219 0.5215514
000110 26 33 73 bf 4b 2b 7a bf d0 c8 92 be 40 1a 28 bf
       -0.9499992 -0.9772231 -0.28668833 -0.65665054
000120 ca 87 7d bf df 4e 3d 3f df 77 62 bd 22 9c 83 bf
       -0.9903532 0.7394847 -0.0552901 -1.0282023
000130 d5 91 c2 3f 8e 0c 30 bf f8 7d cb 3e 89 57 a7 bd
       1.5200754 -0.68769157 0.39744544 -0.08170993
000140 ab d0 66 3f f3 65 3c 3f 2c 2f 9f be f7 e7 ad 3e
       0.9016215 0.7359306 -0.31090677 0.33966038
000150 17 9a cf bf c5 97 78 bc a8 5c 79 bf fd 71 75 be
       -1.62189 -0.015172903 -0.9740701 -0.23969264
000160 e4 d1 3d 3f 9d cf ae 3f 06 79 0b be ae 5b bc be
       0.7414839 1.3657109 -0.13620386 -0.36788696
000170 69 65 07 c0 c8 c4 b6 bf 51 96 92 3f 73 77 cd bf
       -2.1155646 -1.4278803 1.1452123 -1.6052078
000180 98 27 36 bd 40 ef da bf 45 d1 24 3f eb 9a 03 40
       -0.044471353 -1.7104263 0.6438182 2.0563304
000190 ab ef 7b bd 89 68 94 3f 98 1c b8 3e 54 67 13 c0
       -0.061507862 1.1594402 0.35959315 -2.3031816
0001a0 95 a5 7d 3e 44 ce 0f 3f 39 d4 50 bf 63 84 df 3e
       0.24770196 0.5617411 -0.81573826 0.4365569
0001b0 04 67 d2 3f 05 60 f8 be 66 2c 8d bd 1c fc e4 3e
       1.6437688 -0.48510757 -0.06893234 0.44723594
0001c0 1b d1 c1 be b5 48 c5 3d ae 85 98 bf 1f f5 53 bf
       -0.37854847 0.096330084 -1.1915796 -0.827959
0001d0 20 29 c6 3e e4 e9 00 bf 60 ca cd bf c6 a4 8a bf
       0.3870325 -0.5035689 -1.6077385 -1.0831535
0001e0 08 cc 71 bf 80 19 c7 bf 37 a9 35 bf 5c 27 8e 3f
       -0.9445195 -1.5554657 -0.70961326 1.1105762
0001f0 15 2b bf 3f dd 97 cd bf d1 ad 31 bf d8 d0 a0 be
       1.4935023 -1.606197 -0.6940585 -0.31409335
000200 c0 af c5 3e 45 85 79 3e 3d 4e c7 3e 07 76 35 bf
       0.3861065 0.24367245 0.3892688 -0.7088322
000210 80 86 2b 40 e0 22 23 bd 02 82 0c bf 03 eb b9 be
       2.6800842 -0.03982818 -0.54885876 -0.36312112
000220 b9 9f 1d c0 ea 7b 56 3f 01 44 df be 05 6a 86 3e
       -2.4628737 0.8378283 -0.4360657 0.2625276
000230 f7 92 7b bf f0 bc 35 3f d7 73 e2 3f 7a 56 89 bf
       -0.98271126 0.7099142 1.7691602 -1.0729516
000240 e7 26 dd be f8 5c d9 bf c7 45 cd be f4 2e e4 3e
       -0.43193743 -1.6981497 -0.40092298 0.44567072
000250 e1 4f a0 bf e4 12 89 be 1b dd 67 be 9a 39 2c bf
       -1.2524377 -0.26772225 -0.22642939 -0.67275393
000260 8d f9 d1 bf 6b d0 88 3e 13 93 19 be 9d 0f d4 be
       -1.6404282 0.2672151 -0.1499751 -0.41418162
000270 cc bd ef be a1 08 b9 3e f6 ff 0f bc 28 1b f8 be
       -0.4682449 0.36139396 -0.008789053 -0.4845822
000280 13 14 e8 3e dc a3 70 3f 99 b4 5f be 52 06 b0 bf
       0.45327815 0.9400003 -0.21846236 -1.3751929
000290 25 5f a5 3f 4a 1a 9b bf 42 08 1c bf f0 17 45 3d
       1.2919661 -1.2117398 -0.609501 0.04811853
0002a0 b6 45 c7 3e 3f 31 58 be 26 b0 79 bf 3e ba 70 3e
       0.38920373 -0.21112536 -0.97534406 0.23508546
0002b0 4f a5 87 3e 00 a1 41 be fd a6 0c 3f cb 5b 5e 3f
       0.26493308 -0.18909073 0.54942304 0.86858815
0002c0 f5 12 fe bd be 6b 78 3f 26 92 16 3f d0 17 4f bf
       -0.124059595 0.970394 0.58816755 -0.8089571
0002d0 cd 02 1a 40 18 21 cd 3e 18 c6 bc 3f 70 c5 df bd
       2.406421 0.4006431 1.4747953 -0.1092633
0002e0 17 bc df 3e 9e 90 94 3e d1 1c cb 3e 84 cc 0f 40
       0.4369819 0.29016584 0.39670423 2.2468576
0002f0 de 31 ec 3f 4a 1f ed bf 56 f4 70 be 33 2b 55 bf
       1.8452718 -1.8525174 -0.23530707 -0.8326904
000300 ad 41 76 be 68 8f 4c 3f 55 ce 11 3f c3 f6 cc 3d
       -0.24048491 0.7990632 0.5695546 0.100080036
000310 c6 f1 dc 3f 05 48 cb be f9 11 15 bf c4 13 ea be
       1.7261283 -0.39703384 -0.5823055 -0.45718205
000320 d3 f1 7c 3f 06 77 cd 3e 48 93 ac 3f 52 43 8f be
       0.98806494 0.4012987 1.3482447 -0.2798105
000330 10 cd 80 3f 26 9f 26 bf db 4e bd bd 55 7e 31 bf
       1.006258 -0.6508659 -0.09243556 -0.6933339
000340 89 69 98 bf 4b 5b 41 bf 95 0b b5 bf 4b 30 6c 3f
       -1.1907207 -0.75529927 -1.414416 0.9226119
000350 7d 40 88 be 32 81 50 3f 34 6b 46 3e de 4e 88 bf
       -0.266117 0.81447136 0.19376832 -1.0649068
000360 40 84 bf be 7d 28 0d 3d 65 56 3b 3f ee 86 8b 3f
       -0.37405586 0.03446244 0.731787 1.0900552
000370 97 10 1f bf 9d ca 76 bf 69 61 bb 3c a6 e4 be bd
       -0.6213469 -0.96402913 0.022873597 -0.09320955
000380 eb db 54 bd 80 90 59 3f de db 56 3f 95 dd 31 3f
       -0.051967543 0.84986115 0.8392924 0.6947873
000390 23 8b 67 3f e1 86 36 bf 81 ef ab bf 78 7c 38 3f
       0.9044668 -0.7129956 -1.3432466 0.72064924
0003a0 c8 01 e8 be 89 c3 0b 3f 90 a9 8e bf bb 05 54 be
       -0.4531386 0.5459524 -1.1145496 -0.20705311
0003b0 59 82 15 c0 da eb 88 bb b5 9b bf 3f 92 d4 84 bf
       -2.3360808 -0.0041785063 1.4969393 -1.0377371
0003c0 68 bd b0 3f 6c 62 60 bd 4d 70 c1 be 12 67 8e 3e
       1.3807802 -0.054781362 -0.3778099 0.2781301
0003d0 c9 23 69 3f 35 af 09 40 65 0a 98 bf fd 9f a9 3e
       0.9107023 2.1513188 -1.1878172 0.33129874
0003e0 2c 5a c9 be 6a 2e 64 3e 7a bc 05 be c0 b0 9c bf
       -0.39326608 0.2228333 -0.1306018 -1.224144
0003f0 8b 6c 50 3f bb 33 cc 3d 46 9e 83 3d 14 32 cd 3f
       0.81415623 0.09970804 0.06426673 1.6030908

conv1.3.kernel f4 [64, 1, 3, 3]
000000 df da 07 3f a3 cb 8e 3f 3c 3f 1d 3f 11 c1 b6 bf
       0.53068346 1.1155895 0.61424613 -1.4277669
000010 31 ed 9e bf 02 4e 04 3b 4a 13 b7 3f f4 2b bb 3c
       -1.2416135 0.0020188098 1.4302762 0.022848107
000020 0a a9 87 3f 9e 5b cd bf eb 0f 3c bd c3 53 25 40
       1.0598462 -1.6043584 -0.045913618 2.5832374
000030 09 f3 a8 bf bf 76 55 3f 05 56 39 3f da c2 ba be
       -1.3199168 0.8338432 0.7239688 -0.36476785
000040 cb b0 90 bb b3 67 48 be 3f d7 63 3f c7 93 92 bf
       -0.0044156066 -0.19570808 0.89000314 -1.1451348
000050 34 2e 98 bd 8b f6 27 3f fe eb 07 bf fc 1d 94 3d
       -0.074306875 0.6561057 -0.5309447 0.072322816
000060 3b 3b a9 3e 7b 0a 23 3f 3a e9 9e 3f 7f fd d6 3e
       0.33053002 0.63687867 1.2414925 0.41990277
000070 f7 41 f9 be 3b a6 0d 3f 4e a8 41 bf 2d fe b6 3f
       -0.4868314 0.5533177 -0.7564744 1.4296318
000080 4d df a2 bf 09 c7 b3 be 00 d7 d7 bd 6d cd a3 3f
       -1.2724396 -0.3511279 -0.10539055 1.2797066
000090 6e d3 22 bf d9 e0 83 bf 7d d1 65 3f d4 48 50 3e
       -0.63603866 -1.0302993 0.8977278 0.20340282
0000a0 08 e4 ec be b9 ce d6 3f cb 7a 32 3f e1 0b 4c bf
       -0.46267724 1.6781837 0.6971862 -0.79705626
0000b0 43 cd c8 bf 93 7d d6 3f b4 ab 2c 3f 19 58 9c 3e
       -1.5687641 1.6757072 0.674495 0.30535963
0000c0 1e 96 99 bf a1 93 71 bd da 05 94 3f ab 06 39 3f
       -1.1998937 -0.05897868 1.1564286 0.722758
0000d0 cf da 05 bf a6 79 41 3f d9 e2 91 3e 06 70 86 bf
       -0.52287 0.75576246 0.28493384 -1.0502937
0000e0 a0 bf 85 3f 12 13 58 3f 18 ae 3a bf ff ab 83 bf
       1.0449104 0.844041 -0.72921896 -1.0286864
0000f0 35 66 1d be 87 fc 9f 3e 36 8a 2d be f0 a7 82 be
       -0.1537102 0.3124735 -0.16947255 -0.2551875
000100 f0 fd e8 be 66 7b 74 bf 17 54 ba be b1 46 48 bf
       -0.4550624 -0.9550079 -0.3639228 -0.78232867
000110 3e b1 99 bf 12 b9 b5 3d c7 85 5d 3f 72 80 2f 3f
       -1.2007215 0.0887319 0.86532253 0.68555367
000120 d3 c5 2f 3f be 62 88 bf 23 5e 64 3f 54 d6 48 3f
       0.6866123 -1.0655134 0.8920614 0.7845204
000130 a2 ed 27 bf eb 18 ee 3e 0a 2e 27 be 72 f2 aa 3f
       -0.65596974 0.46503386 -0.16326156 1.3355238
000140 3c 2f cd 3d fa 36 13 3e 03 76 81 bf f5 06 52 3f
       0.10018775 0.1437644 -1.0114139 0.82041866
000150 52 35 1e bc 6a 77 4f be bf 4e d0 3f 67 9a 4c 3f
       -0.009656267 -0.20260397 1.6274031 0.799231
000160 6d 31 1c 3e 07 c5 89 3f 83 ae 81 3f f0 4d b6 be
       0.1525323 1.0763253 1.0131382 -0.35606337
000170 ac 09 42 be 92 12 e8 be 75 97 06 3f 8c c8 8e bf
       -0.18949002 -0.45326668 0.52574855 -1.1154952
000180 d3 4c 84 3f 89 fd 14 3e d0 03 71 3e 1d 76 1a 3d
       1.0335945 0.14549841 0.2353661 0.037710298
000190 04 1a e5 3d 4b 42 7b 3f 93 7e e0 be 6e cf 84 be
       0.11186603 0.9814803 -0.43846568 -0.25939506
0001a0 48 61 4a 3d 23 af 34 3f 03 f2 98 3f b7 53 24 3f
       0.04940918 0.7057974 1.1948856 0.6419024
0001b0 5a 37 3c bf be f0 87 bf 75 6a df be 47 e2 7c bf
       -0.7352196 -1.0620344 -0.43635908 -0.9878277
0001c0 25 bf 2e 3e 8f 1b 81 be 9a c0 d0 be a2 e7 dd 3b
       0.17065103 -0.25216338 -0.40771943 0.0067719975
0001d0 69 60 cc be 8e 3f 85 bf 84 66 ae 3e 86 31 1d 3e
       -0.39917305 -1.041002 0.34062588 0.15350923
0001e0 a5 4b 04 bf 1d 18 42 be 89 e1 e6 bf a5 ab 81 3f
       -0.51677924 -0.18954511 -1.8037578 1.0130507
0001f0 ba 7d 0e be 8d 0e be be 97 2f 94 bf 14 eb 02 bf
       -0.13915148 -0.37120476 -1.1577023 -0.5113995
000200 ae 7a 30 3f e7 44 0d be 47 38 d1 be 7b e5 c8 bf
       0.68937194 -0.13795815 -0.4086325 -1.5695032
000210 94 b0 0a c0 95 ad b7 3d 8a 77 56 3f 28 6e 91 bf
       -2.1670275 0.08968655 0.8377615 -1.1361742
000220 f2 db 57 3f a2 4f eb 3e 23 89 68 be 07 ac 30 3e
       0.84319985 0.45959193 -0.22708564 0.17253123
000230 19 99 80 bd 0d 07 c0 be 46 9b 87 3f c1 85 95 bf
       -0.06279201 -0.3750538 1.0594261 -1.1681443
000240 41 1a 72 be 31 e1 9b bf 63 9b ae bf 3b aa ac 3e
       -0.23642828 -1.2178098 -1.364117 0.33723626
000250 35 a7 24 bf 69 b7 87 3f 70 46 4b bf 29 1c 82 3f
       -0.6431764 1.0602847 -0.79404354 1.0164844
000260 4e b8 01 40 80 c3 00 40 79 56 6b 3e 8c 9d 8a 3f
       2.026874 2.0119324 0.22982205 1.082933
000270 cf dd 23 be 6e 91 76 3f ea 8b 43 3f c6 e7 43 3f
       -0.16002582 0.9631566 0.76385367 0.76525533
000280 3e 75 dd 3f 60 89 13 bf 43 e2 d8 3d b7 94 75 3d
       1.7301404 -0.5763149 0.10590031 0.05995628
000290 0a 79 86 bf 0a e4 0b 3d b2 ed 59 3d 73 95 46 3f
       -1.0505688 0.034153022 0.0532052 0.7757179
0002a0 2b 93 12 40 82 b1 89 bf 09 65 da 3f c6 95 1b bf
       2.2902324 -1.0757296 1.7062083 -0.6077541
0002b0 19 81 04 be 52 0d 49 bf ff b6 cf bf 07 eb b3 3e
       -0.12939872 -0.7853595 -1.6227721 0.3514025
0002c0 12 70 bb 39 45 3c ef be 37 e6 55 bd 36 38 dd bf
       0.00035750918 -0.4672567 -0.052221503 -1.7282779
0002d0 2a 18 92 3d 82 8b b7 bb f1 97 26 be 36 5a 56 3c
       0.07133515 -0.0056013474 -0.16268899 0.013083031
0002e0 a6 46 5e 3e 26 ed 97 3f 5f ba 55 3c 3d c8 48 3e
       0.21706638 1.1869247 0.013044923 0.19607635
0002f0 17 09 9a bf 13 0b 84 3e 61 2c 17 be 45 b8 ed bf
       -1.2034024 0.257897 -0.14763023 -1.857186
000300 a4 53 a3 bf e3 c9 59 bf 72 e4 80 bf 6d d7 c6 3f
       -1.27599 -0.8507368 -1.0069716 1.5534493
000310 66 d2 84 3f 95 7d 43 3f a9 72 2b 3e 37 e6 3d 3f
       1.0376709 0.763635 0.16742958 0.74179405
000320 ed a2 38 bf 76 fc f5 3f b5 56 c2 be 24 81 5d be
       -0.72123605 1.921767 -0.37956777 -0.21631294
000330 f1 99 d5 be d0 c3 a9 be ff 6d d6 be b9 74 bb 3f
       -0.4171901 -0.33157206 -0.41880795 1.4644996
000340 dd ef c9 be 5b 9c 16 bf b1 66 8c 3f dd be fb 3f
       -0.39440814 -0.5883233 1.0968839 1.9667622
000350 6c 53 01 40 99 e0 f3 3d a9 cb b2 3f f9 56 a5 bf
       2.0207167 0.11908073 1.3968402 -1.2917167
000360 5d c2 7c 3f e5 0e 64 bf 14 9c 95 bf c5 25 be 3f
       0.98734075 -0.8908523 -1.1688256 1.4855276
000370 df 5d ae 3e ea c3 41 3e 65 87 f6 bf 8b e8 93 3d
       0.34055993 0.18922392 -1.9260069 0.072220884
000380 78 2c c5 3f 94 45 b0 bf 11 4e b1 bf 6e 0d f7 be
       1.5404196 -1.3771234 -1.3851949 -0.48252434
000390 46 32 96 3f 95 10 3d 3d 76 cb 93 be 4c a6 aa 3f
       1.1734092 0.046158392 -0.28866166 1.3332
0003a0 3d c4 1d bf 70 2c 98 3e 62 46 44 3f ac fd 84 be
       -0.6162756 0.29721403 0.76669896 -0.25974786
0003b0 be 1a 0b c0 19 42 82 bf 7e 30 70 bf fe e6 a9 3f
       -2.1735072 -1.0176421 -0.93823993 1.3273618
0003c0 c4 44 68 3e f1 15 17 c0 04 99 b5 be ff b5 95 bf
       0.22682482 -2.3607142 -0.35468304 -1.1696166
0003d0 f9 d6 63 be 01 58 12 bf 8d 09 df 3d ba cd f1 bd
       -0.22249974 -0.57165533 0.108904935 -0.11806817
0003e0 03 ae 49 3f fc af da be d6 2b 17 3f e8 d0 9c 3f
       0.78781146 -0.4271239 0.59051263 1.2251253
0003f0 ff 4b 0a 40 51 4e 10 40 b8 bb 2a 3d 05 3e 6a bf
       2.1608884 2.25478 0.04168293 -0.91500884

conv1.4.kernel f4 [64, 1, 3, 3]
000000 d2 6a d4 3e 95 cc 9d 3e f0 7a 3e 3f 40 f9 85 bf
       0.41487747 0.30820146 0.7440634 -1.046669
000010 0f 70 c7 bf 94 ba 07 be 99 12 4b 3f 37 90 93 3f
       -1.5581073 -0.13254768 0.7932525 1.1528386
000020 7f f2 d6 be be ab b3 be b0 24 46 bf b4 03 5d 3d
       -0.41981885 -0.35091966 -0.7739973 0.05395861
000030 73 60 c6 3f bc 7f 63 3e cc df 11 bf a4 69 1f 40
       1.5498184 0.22216696 -0.5698211 2.4908228
000040 01 93 1e be e6 77 8c 3f 54 25 13 3f b1 69 ea 3f
       -0.15485765 1.097409 0.57478833 1.8313504
000050 84 8b 86 3e c8 2d ef 3e ff 19 46 bf a5 a3 ac bf
       0.26278317 0.46714616 -0.77383417 -1.348744
000060 bb a6 23 bf 67 55 73 3f 06 c2 d8 bf a8 c6 ad bf
       -0.63926286 0.9505219 -1.6934211 -1.357625
000070 e9 f3 53 bf 8f 4b c1 3e dd 00 6c 3f 4d ca 8c bf
       -0.8279405 0.3775296 0.9218882 -1.0999237
000080 99 39 51 bf b6 64 b2 bf 65 b0 28 bf 5a 8b 6a 3e
       -0.8172851 -1.3936985 -0.65894157 0.22904721
000090 a5 d8 61 3f 09 89 8a bf 5e bc 4b 3f 06 8b b4 3b
       0.882212 -1.082307 0.795843 0.005509737
0000a0 e0 98 3b bd c9 7a de 3f 38 20 aa 3f ff f7 fa 3e
       -0.04580009 1.7381221 1.3291082 0.4901733
0000b0 dc 0e 18 3f 06 b4 74 3b ac a6 78 bf 46 66 ba be
       0.59397674 0.0037338748 -0.9712932 -0.36406153
0000c0 a0 d1 24 3f d8 91 61 3f 21 07 99 bf 47 97 b2 be
       0.6438236 0.88113165 -1.19553 -0.3488104
0000d0 3b d7 69 bf a2 b5 c1 3f 68 33 a9 be d5 81 2d bf
       -0.9134404 1.5133555 -0.33047032 -0.6777623
0000e0 10 23 df 3e 43 b7 04 3e d5 db 2d bf 3b bd d6 3e
       0.43581438 0.12960534 -0.6791356 0.41941246
0000f0 19 77 d0 be 49 20 8d 3f d5 18 12 be e6 09 5f 3f
       -0.40715864 1.1025478 -0.14267285 0.8712448
000100 90 10 ad 3f 17 e2 28 3f f1 ce 3f bf 28 70 eb be
       1.352068 0.65969986 -0.7492514 -0.45984006
000110 ea c2 bd 3e 68 b0 16 bf 60 9a 48 be 6e e5 39 bf
       0.3706277 -0.58862925 -0.1959014 -0.72615707
000120 e3 fe cd 3e 8f 2b 51 3f b9 f2 9a bd cc 0e b4 bf
       0.40233526 0.8170709 -0.07565827 -1.4067016
000130 10 c4 c0 3f 12 f9 cd be c9 b0 38 bd 13 fe eb 3f
       1.5059834 -0.40229088 -0.04509047 1.8436912
000140 6e 4a 43 bf 90 ee 23 3f b5 e8 04 be a7 8f a0 3f
       -0.76285446 0.6403589 -0.12979396 1.2543839
000150 30 71 b5 be 3c a3 3d bf 2e db f9 3f 74 c9 0e bf
       -0.35437918 -0.740772 1.9520013 -0.55776143
000160 ff 0f 0b c0 0d dd d9 bd 00 76 2d bf 88 fd c3 bf
       -2.1728513 -0.10637865 -0.6775818 -1.5311747
000170 64 1d fe 3f 02 4a 4f bf 5d 2a 35 be 26 99 61 3f
       1.9852719 -0.809723 -0.17691942 0.8812431
000180 fc d4 3d 3f 24 14 82 be 83 16 91 bd 0b c5 29 be
       0.74153113 -0.2540599 -0.07084372 -0.16579072
000190 00 40 6b 3e 80 ba cd bd 4a f6 e3 be d1 33 03 bf
       0.22973633 -0.10045338 -0.4452384 -0.5125094
0001a0 ad 0e 92 be 4b 10 32 3f b8 6d b7 3d 96 5e 61 bf
       -0.28526822 0.6955611 0.08956474 -0.8803495
0001b0 c8 55 a4 bf 11 d0 88 bf 9b 86 a9 3e 4d f6 83 3e
       -1.2838678 -1.0688497 0.33110508 0.2577385
0001c0 a8 67 f9 3e 03 fd e2 3f 80 78 23 3d 5e 55 f7 be
       0.48711896 1.7733463 0.03990984 -0.48307317
0001d0 fc 84 10 bf be 91 13 bf e6 86 8b bf b7 5c c3 3f
       -0.5645292 -0.5764426 -1.0900543 1.5262669
0001e0 a9 6a 33 bf e0 75 20 bf 9b d5 c9 be ae 57 a9 be
       -0.70084625 -0.6267986 -0.3942078 -0.33074707
0001f0 96 89 8b bf da 0b b9 3f 5f 96 2a bf d5 a6 54 bf
       -1.0901363 1.4456742 -0.666357 -0.83067065
000200 69 07 e9 be a8 be b4 3f f0 5d 89 3f d0 9e b5 3e
       -0.45513466 1.4120684 1.0731792 0.35472727
000210 35 66 5d 3f 51 de 91 be 1c 1f 27 3f 6e 40 ac bf
       0.8648408 -0.28489926 0.65281844 -1.3457162
000220 52 f3 d9 3f d4 d2 67 bd 51 31 ed 3f 67 4e 86 bf
       1.702738 -0.056597546 1.8530675 -1.0492676
000230 b7 18 2c 3e fc 2c 84 bf 3d f2 f9 bf 27 b8 fa bf
       0.16806303 -1.0326228 -1.952705 -1.9587449
000240 6d 28 97 3f 51 b9 b0 be d7 73 87 bf 03 42 34 c0
       1.1809212 -0.34516385 -1.0582227 -2.816529
000250 63 9c a8 be 2b 83 a5 3f de a1 f9 3e 56 34 77 3f
       -0.32931814 1.2930654 0.48756307 0.96564233
000260 1b 0f 72 be bc b0 88 3f ac 76 2c bf c9 35 19 3e
       -0.23638575 1.0678935 -0.6736858 0.14961924
000270 21 5b b4 3e 50 79 66 3d 16 f3 55 bf 21 68 f9 be
       0.35225776 0.056268036 -0.83574045 -0.48712257
000280 8a 62 af 3f dd 87 e0 be 14 07 9c 3d be 10 6e 3f
       1.3701947 -0.43853655 0.076185375 0.92994297
000290 f7 1c 85 3e a8 96 49 40 0e 1c ac bf 07 1e fb be
       0.2599866 3.1498203 -1.3446062 -0.49046347
0002a0 22 a9 44 bf 07 9c 5c 3e 8e 43 e7 bf 81 5d 02 be
       -0.76820576 0.21543895 -1.8067491 -0.12730981
0002b0 ec fe 57 bc 3e b9 1d bf 39 f5 6e bf a1 a5 55 bf
       -0.013183337 -0.6161078 -0.9334293 -0.83455855
0002c0 c7 24 c1 3e d9 6c 67 bf 26 d0 26 3f 27 66 4d bf
       0.3772337 -0.90400463 0.6516136 -0.80234
0002d0 c1 f6 54 bf be 9a 90 3e 39 3b 02 c0 20 ed ac bf
       -0.83189017 0.2824306 -2.0348647 -1.3509865
0002e0 db d0 d5 3f fc 36 24 40 ac 00 47 be 9c 95 6e bc
       1.6704363 2.565856 -0.1943385 -0.014562037
0002f0 29 dd 27 bf 60 87 9e be 08 0b 2d 3f 51 c7 13 bf
       -0.6557184 -0.30962658 0.6759496 -0.5772601
000300 5b 28 17 bf 62 82 80 bf 21 46 60 bf 26 5f d2 3e
       -0.5904595 -1.003979 -0.8760701 0.41088217
000310 45 41 a7 bf 50 b1 70 3f e9 d9 c9 bd 7d 0b 04 c0
       -1.3066794 0.9402056 -0.09856016 -2.0632012
000320 ae 8a 98 bf f6 ed 87 3e 1a 7c 27 3f 24 fd 42 3c
       -1.1917322 0.26548737 0.6542374 0.011901174
000330 ec cc 41 bf 9a 4d 13 bf 46 24 21 bd 84 48 3d bf
       -0.7570331 -0.57540286 -0.039341234 -0.73938775
000340 f7 a6 18 bf 09 15 a0 3f fe 41 98 be 5f ed b0 be
       -0.5962977 1.250642 -0.29737848 -0.345561
000350 f0 0e 6b 3f 36 2c 18 3f 1b 7b 9b bf 76 02 04 be
       0.9181967 0.5944246 -1.2146944 -0.12891564
000360 8e c7 c4 bd a1 79 f6 3f fc 05 fe bf 1a 58 8a 3d
       -0.096083745 1.9255868 -1.9845576 0.06755085
000370 4d 0b a5 bd 69 27 93 3f c7 55 9b 3e e7 37 c0 3f
       -0.08058796 1.1496402 0.3033888 1.501706
000380 5e 16 c2 bf 42 95 01 bf 1e 6d 17 be 6b 2f a3 bf
       -1.5163076 -0.50618374 -0.14787719 -1.2748846
000390 da 39 e9 3f ba 54 fc bf 8a a0 8a 3f 98 19 5c 3f
       1.822078 -1.9713356 1.0830243 0.8597655
0003a0 b2 17 1b 3f 15 75 c4 bd a4 a8 98 bf 5c e2 8d 3f
       0.6058303 -0.09592644 -1.1926465 1.1084704
0003b0 3c 26 97 bd 71 c7 eb 3f b0 df 1e bf c8 01 30 be
       -0.073803395 1.842024 -0.6206007 -0.1718818
0003c0 cb 9a b6 bd 9a 76 4f bf dd 59 bc 3e 4a 1c 8e be
       -0.08916243 -0.81040347 0.3678731 -0.27755958
0003d0 81 fa 9e be af 29 e4 3e ce cd 10 bf 36 97 26 bf
       -0.31050494 0.44563052 -0.56564033 -0.6507448
0003e0 1f 78 ea be b9 34 0e 3e 2e c0 98 3c 3e aa a0 3f
       -0.4579477 0.138873 0.018646326 1.2551954
0003f0 41 5a d4 3e 19 11 a1 3f a4 87 32 bc 06 5d 07 be
       0.41475108 1.2583343 -0.010896597 -0.1321908

conv1.5.kernel f4 [64, 1, 3, 3]
000000 78 8b eb be 7a 36 a6 3d 92 90 9d bc 22 05 72 3f
       -0.46004844 0.08115859 -0.019233976 0.9453908
000010 df 49 8c bf a1 ef 9b bf 64 90 99 3f 0b 9f c7 bf
       -1.0960044 -1.2182504 1.199719 -1.5595411
000020 16 ee 2a 3e 69 3d 21 c0 ed fc 41 be 8a b2 4e bf
       0.16692385 -2.5193732 -0.1894414 -0.8074118
000030 ae 7b 9b 3e aa ae 97 3f 02 1f f0 bd 7a f0 ee 3d
       0.30367798 1.1850178 -0.11724664 0.11666961
000040 0c b3 65 bf fe 7b 28 3f a1 49 9f 3f 95 08 a9 3f
       -0.8972633 0.658142 1.2444345 1.3205744
000050 fe ce f6 3e 52 8d 64 3e fb 16 82 bf ca 60 f8 bd
       0.48204798 0.22319534 -1.0163263 -0.12127836
000060 d5 8b 50 3f 95 97 d5 3f ba e5 c9 3f b2 4b da 3f
       0.81463367 1.6686884 1.5773232 1.705435
000070 b3 9f 19 3f 35 7c da 3e 7b 99 80 bf 72 6b a6 bf
       0.60009307 0.42672887 -1.0046839 -1.300154
000080 27 ce 13 3f 82 c9 04 40 2d 2c a0 bf c6 d8 15 bf
       0.5773644 2.074799 -1.2513481 -0.58533895
000090 da 85 cd 3e 10 7c de bf 3f 0b 91 bf f2 08 e9 3f
       0.40141183 -1.7381611 -1.1331557 1.8205855
0000a0 43 83 05 be c4 80 93 be aa 4a f0 3e 02 6c 17 bf
       -0.13038354 -0.28809178 0.46931964 -0.5914918
0000b0 82 41 c7 be 33 bd 1d bf ad 89 45 3f 37 57 66 3f
       -0.38917166 -0.6161682 0.771632 0.8997683
0000c0 0e fe 2c c0 66 2c 23 3f d5 db 9e 3f 1d a2 18 3f
       -2.7030063 0.6373962 1.2410837 0.59622365
0000d0 48 49 12 bf 05 b3 4d 3e 35 64 2f 3f 39 b4 c5 3e
       -0.5714307 0.20087822 0.6851228 0.3861406
0000e0 40 5e a7 3f 84 92 87 bf e1 74 e6 3d 6d 76 bf bf
       1.3075638 -1.0591588 0.11252762 -1.4958016
0000f0 dd 27 aa 3e 7a d5 50 be 74 b1 d6 3e 9e 76 63 3f
       0.33233538 -0.20393935 0.4193226 0.8885287
000100 1e 67 94 bf 8e 50 5f 3e 39 56 30 3f 04 a7 e0 be
       -1.1593969 0.21808073 0.68881565 -0.43877423
000110 57 0d 76 be f0 e7 f3 bd 98 eb b1 3d b2 61 2b bc
       -0.24028526 -0.11909473 0.08687514 -0.010460304
000120 f0 0a 03 3f 10 9e 4e 3d 42 54 c3 3f 9a e6 d1 3f
       0.51188564 0.05044371 1.5260088 1.6398499
000130 d8 66 56 3f 5d ed ad 3f cb 9d 26 3f e8 f7 c8 bf
       0.8375068 1.3588063 0.6508452 -1.5700655
000140 90 da ad 3f 0b e5 2c 3f 40 69 95 3f ab 10 3b bf
       1.3582325 0.6753699 1.1672745 -0.7307231
000150 66 a9 66 be 3f 06 f3 bf 3f ea 0c 3f e5 52 e2 bf
       -0.22525558 -1.8986281 0.5504493 -1.7681547
000160 76 ef 60 3f 6a 3e 11 3f cd f4 80 bc fb e7 b0 bf
       0.8786539 0.5673586 -0.01574173 -1.3820795
000170 6e e6 07 bd 6c ef f2 3e e4 72 f3 bf 8b 54 7c 3e
       -0.03317874 0.4744829 -1.9019437 0.24641626
000180 13 0b 71 be 1a d6 9c 3f 82 f3 b8 be 4a d8 a4 be
       -0.2353938 1.2252839 -0.36123282 -0.32196265
000190 e7 61 c0 bf 7c 31 50 3f 69 16 49 3e 46 9a 1e bd
       -1.5029877 0.8132551 0.19637455 -0.038721345
0001a0 66 87 23 40 bb f7 62 3f 46 11 a8 bf c4 85 7f 3a
       2.555139 0.88659257 -1.3130271 0.00097474107
0001b0 91 d5 a8 3f 5f cf 16 bf 16 62 57 bf 4d ff 2b bf
       1.3190175 -0.58910173 -0.8413404 -0.67186433
0001c0 6a 77 d4 3f 96 59 d2 3e b4 d8 5c be 79 91 fe 3e
       1.6598942 0.41083974 -0.2156704 0.49720362
0001d0 f7 8e a4 bf d0 10 8c bf 48 6a 38 3f 8d 1e 25 bf
       -1.285613 -1.0942631 0.7203717 -0.6449974
0001e0 0d 40 bb bf 7c 7d 9b bd 99 80 83 bf 4b 40 80 bf
       -1.4628922 -0.075922936 -1.027362 -1.0019621
0001f0 ff 33 e0 3e fc 20 a0 bc 5a 50 13 3f b1 28 3e 3f
       0.4378967 -0.019546978 0.5754448 0.7428084
000200 01 9c 98 3f ee ec f0 be 67 57 32 3d f0 96 b5 be
       1.1922609 -0.47055763 0.043540385 -0.3546672
000210 67 0f 5a 3f 2d 8a 9e be f2 dd c8 bf 01 c0 af 3f
       0.8517975 -0.30964795 -1.5692732 1.373047
000220 6c 1f d6 3e df 3f ff be 87 81 d9 be cd 79 92 bf
       0.41820848 -0.49853417 -0.42481634 -1.1443421
000230 40 d0 e6 3f 94 64 6a c0 ba 1b d2 3d ba ea a5 3e
       1.8032303 -3.6623888 0.10259195 0.32405645
000240 44 0d a2 be ce 9f 4b bf 2a 5c 22 bf c1 9c a5 bf
       -0.31650746 -0.7954072 -0.6342188 -1.2938462
000250 f6 01 35 bf db 5c 27 c0 6d 7b 2a bd b7 60 ad bf
       -0.7070612 -2.6150424 -0.041621614 -1.354514
000260 16 c8 60 3e 4c 10 93 bd a4 cd 6b be 93 1f 64 be
       0.21951327 -0.07180843 -0.23027664 -0.2227767
000270 ce ac bb bc 8f ad 04 3f 70 a6 4b be d0 6b 0a 3e
       -0.022909548 0.5182733 -0.1988771 0.1351769
000280 29 65 08 3f cd 5a ca bf 46 15 ad 3f 0b 1a f5 3f
       0.5327936 -1.580896 1.3522117 1.9148573
000290 65 a2 12 3f 2c 2e 9a 3f e3 af bb bf 1b c9 db bf
       0.57279044 1.204534 -1.4663051 -1.7170748
0002a0 a2 4b 6d bf e8 10 95 3e 6b e6 d8 bf 6d 14 08 3f
       -0.9269353 0.2911446 -1.6945318 0.5315617
0002b0 32 f1 f8 bf b1 3f ef 3d bb 96 ed be b6 cd af bf
       -1.9448607 0.1168207 -0.4640406 -1.3734653
0002c0 d7 4c 09 3f b6 15 3a 40 8f a1 a6 3f ae 65 dd bf
       0.53632873 2.9075751 1.3018054 -1.7296655
0002d0 f3 ec 2a bf 51 7e 28 bf 25 44 b8 3e 9f 1f 2c bf
       -0.66767806 -0.65817744 0.3598949 -0.6723575
0002e0 08 8b 50 bd 76 ba a3 bf 74 39 13 3e 44 fa c4 3e
       -0.05091384 -1.2791278 0.14377385 0.38472188
0002f0 fa 71 94 3e 60 20 1e be 16 fd 0f 3f b7 be c0 be
       0.28993207 -0.15442038 0.56245553 -0.37645504
000300 ee 88 d5 3e 06 87 fb be e1 42 21 bf a6 b2 83 3f
       0.41706032 -0.49126452 -0.62992674 1.0288894
000310 62 fc 88 3f 54 35 c2 bf 79 5e 08 3f 73 75 78 bf
       1.0702021 -1.5172524 0.53269154 -0.97054213
000320 29 a4 46 3d a5 6a 32 bf b8 62 78 3f e0 47 e9 be
       0.0484964 -0.69693977 0.9702563 -0.4556265
000330 57 89 a0 3d 8e 32 be 3d 44 5d 9b bf 3a e4 03 bf
       0.078386955 0.09286986 -1.2137837 -0.5152012
000340 e9 03 f0 3f 30 61 dd 3e 27 ed 67 3f 92 fd cf bf
       1.8751193 0.4323821 0.9059624 -1.6249259
000350 1e 50 15 c0 bf ad 0f bf 9b e4 b2 3f 11 4c 83 3f
       -2.333015 -0.5612449 1.3976015 1.0257589
000360 47 7a b6 bf 72 06 fc 3e e0 eb a7 3e 92 f8 bc bf
       -1.4256066 0.49223667 0.32797146 -1.4763358
000370 12 59 3d 3e 4d c4 a1 3f 33 1f c5 3f f8 fd c6 bf
       0.18491009 1.2638031 1.5400146 -1.5546255
000380 63 20 59 3f 5d df b6 3f 4e 93 8a 3f c0 6d 26 bf
       0.84815043 1.4286915 1.0826204 -0.65011215
000390 b3 9b 32 bf 3a 4a 2c c0 db 36 21 3f 3d ca 32 bf
       -0.6976883 -2.6920304 0.6297433 -0.6983984
0003a0 50 dc 31 3f 41 a0 ae be b9 db 8f be be 26 26 40
       0.69476795 -0.3410664 -0.28097323 2.5961146
0003b0 7f 3a 73 bf 05 a7 7f bf 67 8e 18 bf ef f8 8c be
       -0.9501113 -0.99864227 -0.5959229 -0.2753367
0003c0 1e 32 85 3f a3 4f 52 be 4b a9 6b bf 00 4d 61 3f
       1.040592 -0.20538191 -0.92055196 0.8800812
0003d0 de 06 39 3f 56 2b a3 3e 13 52 02 c0 c6 7e 0b be
       0.72276103 0.31869 -2.0362594 -0.13622579
0003e0 e7 f8 bd bf 9f e4 ef 3f c2 29 e2 3f e2 86 e9 be
       -1.4841584 1.8741645 1.7668993 -0.4561072
0003f0 89 78 9d 3f 94 80 d0 3f 06 30 bd 3f 1e 64 64 bf
       1.230241 1.6289239 1.478028 -0.89215267

conv1.6.kernel f4 [64, 1, 3, 3]
000000 e9 f9 f7 bf 0c 89 ed bd 89 00 ad 3e 30 e1 80 3d
       -1.9373142 -0.11598405 0.3378947 0.06292951
000010 a1 d6 99 3f 69 f7 99 be fe 97 95 bd d7 7a 3d bf
       1.2018625 -0.3007157 -0.07304381 -0.74015564
000020 4d 41 88 3f 62 82 0f 3f 10 5e 9b be f8 33 98 be
       1.0644928 0.56058323 -0.30345201 -0.2972715
000030 35 2c 23 3f 3c 3e af be 30 9e 05 3f 49 c4 4f 3e
       0.6373933 -0.3422717 0.521945 0.2028972
000040 de 60 0e 3f 60 91 ca 3f 0e 9e 9b bf a3 3c 48 bd
       0.5561656 1.5825615 -1.215761 -0.048885953
000050 b5 6e 05 3f a8 ed 73 3f e1 ac 96 bf 7e 35 03 3f
       0.5212205 0.9528451 -1.1771508 0.512535
000060 e3 f7 32 3f 31 e9 04 40 93 ce 16 bf 6a a0 dd bf
       0.69909495 2.0767329 -0.5890896 -1.731458
000070 60 e8 c1 be 7f a4 0d 3e 26 fe 24 3f 62 50 c4 bd
       -0.378726 0.13832282 0.644503 -0.09585644
000080 af 94 85 3f 16 2c a3 3f 08 3a 55 bf 7c 45 72 3f
       1.0436 1.2747829 -0.83291674 0.94637275
000090 2e ff 97 bf c7 3f 92 bf cb d5 b4 bf 96 30 0e bf
       -1.187475 -1.1425713 -1.4127744 -0.55542886
0000a0 d2 c2 95 bf 2a 60 8c 3e a3 9f 81 be a3 b1 38 bf
       -1.170008 0.27417117 -0.25317106 -0.7214605
0000b0 3f 1a 9c 3f 1d 7d 93 bf 3f 34 23 bf 37 1b d3 3e
       1.219551 -1.1522557 -0.63751596 0.412317
0000c0 a8 0c 43 bf 83 e4 8e bf 04 ce 30 3e b2 a8 2d bf
       -0.76191187 -1.1163486 0.17266089 -0.67835534
0000d0 9f 94 7c bd 07 bc 71 3e 95 e3 9f be 60 ff 00 3e
       -0.061665174 0.23606883 -0.3122832 0.12597418
0000e0 fb f5 26 c0 6b 8a 1c 3c 69 60 ea 3e 96 87 ff be
       -2.6087635 0.009554486 0.4577668 -0.4990813
0000f0 12 bc 8a be 63 1a d5 3f d5 46 0d c0 73 98 ec be
       -0.2709661 1.6648678 -2.2074482 -0.4621006
000100 aa 81 67 bf de 39 c1 bf 57 45 0e 3f 56 b4 ab 3c
       -0.90432227 -1.5095785 0.55574554 0.020960014
000110 dd 8d 25 be 0a 97 91 3f bf d3 8e 3e a5 ae 47 3e
       -0.16167398 1.1374218 0.27895924 0.19500215
000120 11 a0 56 3e 4d af 1a c0 50 05 82 3e 9e d0 04 bf
       0.20959498 -2.4169495 0.25394678 -0.51880825
000130 e8 cd be bf 72 8a 49 3e f5 45 7a bd bd 50 2b bf
       -1.4906588 0.19681719 -0.061101872 -0.6692007
000140 28 c3 67 3f a6 40 29 3f bc d6 da bd 81 3e e5 3f
       0.9053216 0.6611427 -0.106854886 1.79097
000150 50 44 ea be 28 aa 8b 3e 03 c0 d2 bf 11 ed 9b 3f
       -0.45755243 0.27278256 -1.6464847 1.2181722
000160 37 57 55 bf 70 ca 18 bf 7c 4b 0d 40 ea fb 15 3f
       -0.83336204 -0.59683895 2.2077322 0.58587515
000170 06 72 b9 bf c5 23 4f bf 6a 2e 7a bf 29 b5 e9 3d
       -1.4487922 -0.80913955 -0.9772707 0.11411507
000180 51 5e fd 3d 5e 70 68 bd 16 34 47 3f fb 5f 26 3f
       0.12371505 -0.056747787 0.7781385 0.64990205
000190 46 ca d3 3e a9 6e 52 be 61 d7 8b bf 0a 7c a1 bf
       0.4136526 -0.20550026 -1.0925103 -1.2615979
0001a0 ac fb 08 bf 63 74 68 3f d5 7d c1 bf 02 c1 2a bf
       -0.5350902 0.9080259 -1.5116526 -0.66700757
0001b0 e7 61 5c 3f 43 ea be bf b9 48 96 bf 14 d6 90 3f
       0.8608689 -1.4915241 -1.1740943 1.1315331
0001c0 8b 5d 80 3e f2 17 b3 be f5 af dc 3e 56 ad 94 3f
       0.25071368 -0.34979206 0.43102995 1.1615398
0001d0 14 b3 9b 3f 28 f3 77 be 1a c4 06 bf ea c4 fd bf
       1.2164025 -0.2421385 -0.5264298 -1.9825718
0001e0 8e 9c 3d bf 37 2d c3 3e 2d ab 00 3f ec 7a e4 3e
       -0.7406701 0.38120434 0.50261194 0.44625032
0001f0 5c 5c 8e 3f a6 da d1 be 99 36 74 3f 54 06 5c be
       1.1121936 -0.40987128 0.9539581 -0.21486789
000200 f3 de 7b 3f ff 15 aa 3f e4 f2 58 bf a3 77 79 3e
       0.9838707 1.3287963 -0.8474562 0.24362044
000210 cb 6c 78 3f 68 4e 17 c0 96 35 01 40 3b 8f 9c 3e
       0.97041005 -2.3641605 2.0188956 0.30578026
000220 b0 0a 1e 3f c2 a3 d2 3f 18 e8 92 3f 95 1f e0 be
       0.6173506 1.6456225 1.1477079 -0.43774095
000230 c7 8c 2e 3f fe 82 0f bf 53 4e ea be 05 02 e9 be
       0.6818356 -0.56059253 -0.45762882 -0.45509353
000240 1a 9f 0b c0 4c 59 e7 bc 71 c2 45 bf 0c 6a 30 bf
       -2.1815858 -0.028240822 -0.7724982 -0.68911815
000250 46 18 56 bf fa 5a 0c c0 90 93 41 3f 4b 55 de bf
       -0.8363079 -2.1930528 0.7561579 -1.7369779
000260 b6 5a 43 bf 78 a2 fa bf f4 be b7 3e 8b 09 63 bf
       -0.7631029 -1.9580832 0.35887873 -0.88686436
000270 47 bd 1e bf 2f 56 d8 3f f8 13 27 3c 2c 4c 8b bf
       -0.62007564 1.6901301 0.010197632 -1.0882621
000280 3f 91 92 bf 61 c6 98 bf 72 8e 8a 3f 7a 25 f5 bd
       -1.1450576 -1.193554 1.0824721 -0.11970039
000290 14 19 a5 bd 04 67 b3 be 9a e1 1e bf 52 06 08 be
       -0.08061424 -0.35039532 -0.6206299 -0.13283661
0002a0 8a 02 93 3e e4 2f 3b 3f ff ef e3 bf 7b c5 99 be
       0.28712875 0.7311995 -1.7807616 -0.30033478
0002b0 7f 00 e1 bd 9f f0 11 bf 5e d7 38 bf aa 00 a1 3f
       -0.10986423 -0.57007784 -0.72203624 1.2578328
0002c0 45 75 dc be e5 86 19 3f 21 bf ad 3e 6f da 08 c0
       -0.4305822 0.5997146 0.33934882 -2.1383321
0002d0 85 71 88 3f ca a8 0a 3f de e1 f3 3e 31 90 33 3f
       1.0659643 0.541638 0.4763326 0.70141894
0002e0 53 ab 0e bf 52 b0 6c 3f 41 60 07 bf e2 6e 02 3f
       -0.5573017 0.92456543 -0.52881247 0.50950444
0002f0 32 f1 a3 be b3 ce 91 3f b2 98 9d 3f b7 71 0c bf
       -0.32019955 1.1391205 1.2312224 -0.54861015
000300 d8 04 0b 3f 96 fd 94 3e f6 7d 45 3f 1f 50 86 bd
       0.54304266 0.2909972 0.77145326 -0.06558251
000310 15 59 bb bf aa f7 91 3f 52 4a f5 3e 14 e4 82 3f
       -1.4636561 1.1403706 0.47908264 1.0225854
000320 a2 22 37 3e b9 a8 10 40 7b e2 a2 be 5c a7 9a be
       0.17884305 2.260298 -0.31813416 -0.3020581
000330 e2 e7 cf 3d cb 48 82 3e 6a d8 9d 3f 83 0d a9 3f
       0.1015165 0.25446162 1.2331669 1.3207248
000340 be df 2d 3d 2a 75 cf be a8 8a 89 3d a0 41 7a 3f
       0.042449705 -0.40519077 0.067159 0.97756386
000350 e1 66 4e bf 66 77 b5 3f 10 7a 92 3f 96 b0 98 3e
       -0.8062573 1.4177063 1.14435 0.29822224
000360 48 8d 64 bf 27 2b 30 3e ae 02 99 bf 4f c6 16 3f
       -0.8927808 0.17203961 -1.1953943 0.58896345
000370 e1 f1 a9 3f eb 6a 9d 3f d2 39 0a 3e b4 b9 44 3f
       1.327694 1.2298254 0.13498619 0.7684586
000380 ca cf cb 3f 41 a2 e2 bf 54 b1 5b 3d 0c d5 03 3f
       1.5922787 -1.7705766 0.05363591 0.5149696
000390 92 80 9d 3e 9f 43 f1 bd 1a ff ef 3e c2 ef 64 3e
       0.30762154 -0.11780476 0.46874315 0.22357085
0003a0 e3 26 c9 bf 09 e3 58 bf 33 af 95 3e 15 5c 01 3e
       -1.5714992 -0.8472143 0.2923523 0.12632783
0003b0 c9 c8 32 3e ff 45 eb bd ed 85 f4 3b f2 af 07 3f
       0.17459406 -0.1148796 0.0074622543 0.53002846
0003c0 4f 64 bd 3f 41 63 ff 3f 18 6e c5 be 70 55 d0 3f
       1.4796237 1.9952165 -0.38560557 1.6276073
0003d0 af e6 c1 bf 0f 34 1c 3d 90 35 05 3e c7 77 b3 bf
       -1.5148524 0.038135584 0.13008714 -1.4020928
0003e0 0d 56 ac 3f ca 48 70 3f 2e 32 6c 3f 8f bd 7d be
       1.3463761 0.9386107 0.9226407 -0.24779342
0003f0 7f 54 f3 3f c9 f3 0f bf 10 11 96 bf c5 9b 54 be
       1.9010161 -0.5623136 -1.1723957 -0.20762546
