Train_result/Thu_Jun_12_22_07_30_2025_Encoder_Detail_Train.model (torch, 55036 bytes, 10 tensors)

conv2.0.kernel f4 [64, 1, 3, 3]
00000000: 873b f0bf 390c 913f 4f5d e6bf 8284 b2bf
00000010: 3d84 afbf bf09 2f40 6a50 04bf 9b6e babe
00000020: 4954 b13f 7149 04bf 9ae4 813e af79 423d
00000030: 9900 3abf 09ff 1d3f 14fe 493d fd4f e5bf
00000040: d650 923e 9caf a13f 80c1 ac3f 4aa1 2cc0
00000050: dc54 b7be f1e8 8f3f 7c84 50bf bbec 07c0
00000060: d8e5 283f 42f9 50be 66dc 8d3c 5d32 293f
00000070: 4355 1e3f ff1b 8e3e d730 563f 2eb8 d5bf
00000080: 4006 243f ebdb 02bf 32bc bc3f adab c7be
00000090: e4c6 f1bf 4110 ac3f 5c7c 14bf ea9a 4b3f
000000a0: 01c7 c0bf 9eea be3f c3ad 7a3f 350c 30bf
000000b0: b6f8 6fbf 8579 febe 0512 26bf 29ba 273f
000000c0: 73a8 873e e934 05c0 9f03 a73e 0c0d 3abe
000000d0: df53 87be af25 3640 82ae b53e 3879 323f
000000e0: 8659 573e 91d4 4abe 8bab 9d3f 29b4 a0bf
000000f0: 7c30 3bbf 931e f73e a77f d7bd c15e a0bf
00000100: 2205 863b 01c4 31be 61f4 8cbe 2cd5 173e
00000110: 0c26 36bf efff a8bf 50ad b53f 2854 1a3f
00000120: 3fc6 c63f 2e83 a2bd dfee 23bf b2c1 69be
00000130: 04aa 3e3f b384 e63f 733f 8e3f d35c 31bf
00000140: 730a 15c0 6705 763e c17d 11bf c2f1 0640
00000150: 1059 7a3f f7ed 2d3d 9b8b c83f b270 3e3f
00000160: 75d3 cb3e 5305 cdbe e16d 87be 2322 ccbe
00000170: 45df d93f da18 8ebe be19 9c3e ccf7 adbf
00000180: f344 9c3f 057f e03f b706 90bf 2434 20bf
00000190: 8253 52be c9a1 a83f 89af 183e 9a19 45bf
000001a0: f7f8 943f 46ea 9f3f 69e4 b13f bab9 ef3d
000001b0: 91f5 6bbc 4e1f 8dbd a8cd 88bf 72fe a4be
000001c0: e449 843f 964c 2b3c e131 993f 9bc7 c1be
000001d0: c1f1 fcbf a491 743f 1402 2dbf 4eff bfbd
000001e0: 7462 173e 901e f2be 012e 383d 862e 9f3e
000001f0: 5d7b 403f dcf6 123f bd9f 05bf d0bc 02be
00000200: 3c59 83bf efaf a23d 458d 91bf cd73 4bbe
00000210: ddc1 233f 9a67 34bf 677c 9c3f c6e2 71bf
00000220: 3a24 c7be cad4 a3bf 8c93 f1be a66d 8cbf
00000230: e404 403f f693 843f e3e5 f4be 8816 523f
00000240: c1f5 a03f 184b 1c40 c8bf a5bf 53df 8a3d
00000250: 06e8 30bf 0347 73bd e97f 54c0 f414 d23f
00000260: 33b7 983e 34cc ce3f 4cf6 cbbc 1779 22bf
00000270: 8088 5cbd 4641 3040 2b47 aebf a9de 1840
00000280: 85f8 febe 62df a4be 75ed 813f f494 21bf
00000290: 709c edbf d69a 34bf 5d81 2d3e 9e44 ba3f
000002a0: f601 033f f9d8 c2bf 97f8 523f f250 ffbe
000002b0: 594c 933d 2d9a 60bf 2a2a be3f 26a5 603f
000002c0: 3d85 a73d fe0f 2e3f 4922 eebf 048b e8be
000002d0: ae08 69bf 6237 5cbd ddcb 0cbf b8f8 733d
000002e0: 1f60 363d e67b 863f 6953 033f 3799 003f
000002f0: 46b0 713e b430 d3be c337 d9bf 2c5d 41bf
00000300: abd6 f33e 023d 3e3d 534c 87bf 9ea4 093f
00000310: 538d 1c3f 1a26 b93f c388 71bd 4993 a33f
00000320: db20 d5bf cf1c adbf fffb 473f 8790 a1bf
00000330: 3b70 12bd 7c0a 2c3b 1d8f 25c0 3b6b c0be
00000340: 2de4 cc3d 3789 f53f 9f03 97bf 0e8a b939
00000350: 88f0 e0bc 1704 e83e eb2e 0bbe b46f a43c
00000360: 2d9d 52bf f000 f83e 65d1 a93e 451a a6bf
00000370: e45d 963e bcfb 73bd 13a8 2dbf f7b1 28bf
00000380: 69a2 cfbe 94cb 863f 8e88 7c3f 6c3e 0440
00000390: de8d 06bf 9b86 44bf c344 20bf 36ae 7e3f
000003a0: 4c73 b83f 6909 643f f074 8fbf 5ca8 cbbf
000003b0: 0029 11be 8bc9 2abf 3a10 abbe de00 b1bf
000003c0: c68f e63e 728e 5d3f b3b7 703f cd22 df3d
000003d0: dcee 3bbf 8219 d83e b7f7 7a3f 0f0f 093e
000003e0: a808 db3f a00b 9bbf 0979 22c0 71cf aa3f
000003f0: 6ba4 9abf f7be 37bd 2d71 d6bf 379a a5bf
-1.8768166 1.1331855 -1.7997226 -1.3946688 -1.3712231 2.7349699 -0.516852 -0.3641251
1.3853847 -0.5167456 0.25369722 0.047479328 -0.7265716 0.6171728 0.049314573 -1.7915035
0.28577298 1.2631717 1.3496552 -2.6973443 -0.3580693 1.1242963 -0.81452155 -2.123824
0.65975714 -0.20407584 0.017317008 0.66092473 0.6184885 0.27755734 0.83668274 -1.6696832
0.64072037 -0.5111682 1.4744933 -0.38998166 -1.8888822 1.344246 -0.5800226 0.79533255
-1.5060731 1.491535 0.9792139 -0.68768626 -0.9373888 -0.49702087 -0.64871246 0.6551843
0.26495704 -2.0813544 0.3261995 -0.1816904 -0.26431176 2.84605 0.354847 0.69716215
0.21030244 -0.1980765 1.2317976 -1.255498 -0.73120856 0.48265514 -0.105223946 -1.2528917
0.0040899673 -0.17359926 -0.27530196 0.14827412 -0.71151805 -1.3203105 1.4193516 0.6028466
1.552925 -0.07935177 -0.64036363 -0.22827795 0.74478173 1.8009247 1.1113113 -0.69282264
-2.3287628 0.24025498 -0.5683251 2.1085057 0.9779215 0.04246327 1.5667604 0.7439071
0.39809766 -0.40043125 -0.26451018 -0.39869794 1.7021261 -0.27753335 0.3048839 -1.3591247
1.2208542 1.7538763 -1.1252049 -0.6257956 -0.20539668 1.3174373 0.14910711 -0.7699219
1.1638478 1.249337 1.389783 0.117053464 -0.014401809 -0.068907365 -1.0687761 -0.32225376
1.033505 0.010455271 1.1968347 -0.378476 -1.9761277 0.9553473 -0.67581296 -0.093748674
0.1478365 -0.47288942 0.044965748 0.31090182 0.7518824 0.5740793 -0.52196866 -0.12767339
-1.0261607 0.07943713 -1.1371237 -0.19868393 0.63967687 -0.70470583 1.2225465 -0.94486654
-0.38894826 -1.2799313 -0.47182882 -1.0970962 0.7500746 1.0357654 -0.4783164 0.8206563
1.2574998 2.4420834 -1.2949152 0.06780877 -0.6910404 -0.059393894 -3.320307 1.6412644
0.2982727 1.6156068 -0.024897717 -0.6346602 -0.053841114 2.753984 -1.3615469 2.38859
-0.4979898 -0.32201678 1.0150591 -0.6311791 -1.8563366 -0.7054876 0.1694388 1.455219
0.5117487 -1.5222465 0.8241057 -0.49866444 0.071922965 -0.87735254 1.4856617 0.87751997
0.0817971 0.6799315 -1.8604213 -0.4541856 -0.9102887 -0.053763755 -0.5499857 0.05956337
0.044525262 1.0506561 0.5129915 0.5023379 0.23602399 -0.41248095 -1.6970142 -0.75532794
0.47624716 0.0464449 -1.0570167 0.5376681 0.61153144 1.4464753 -0.058968317 1.2779323
-1.6650652 -1.3524417 0.7811889 -1.2622231 -0.035751563 0.0026251366 -2.58686 -0.3758181
0.100044586 1.91825 -1.179798 0.00035388808 -0.027458444 0.4531562 -0.13592117 0.020072795
-0.8227108 0.48438215 0.33167568 -1.2976767 0.29368508 -0.059566244 -0.67834586 -0.6589655
-0.40553597 1.0530877 0.98645866 2.06631 -0.5256022 -0.7676789 -0.6260492 0.99484575
1.4410186 0.8907686 -1.1207561 -1.5910754 -0.14175797 -0.6671378 -0.33410817 -1.382839
0.45031565 0.8654548 0.940303 0.108953096 -0.73411345 0.4220696 0.9803423 0.1338465
1.7112017 -1.2112923 -2.5386374 1.3344556 -1.2081426 -0.044859853 -1.6753289 -1.2937688

conv2.1.kernel f4 [64, 1, 3, 3]
00000000: 6d53 eebf 697e 863f 8668 95be da1f df3f
00000010: dbec aabe a32e b5bf 1f45 dcbf dce1 123f
00000020: 75bc 223f 06f4 973e 9507 74bf e32c febe
00000030: 68bc 1c3e 6a84 82be b163 e63f 367e 98bf
00000040: 8996 6fbf e065 9ebf 2ae2 da3f cfe5 353f
00000050: 66e1 8bbe f1d2 6abf ed4d ff3f b38c 61bf
00000060: 7269 8abf 5111 d13f 9c10 81bf bda5 c13e
00000070: a2b5 1fbf ab92 353f da89 9a3f 21d6 c93e
00000080: 0ea0 48bf 0be9 a83e ecb8 51bf 2e84 6c3f
00000090: 5c44 313f ab8d d93e e3b4 fdbe 3a31 01bf
000000a0: 2ff8 a1bf 1246 95be 4188 8bbf 8c8f b6bf
000000b0: 3639 bebc 8f01 90be 731e cabf 31fa 4b3f
000000c0: e2d5 c33f 4be5 dbbf aac1 d0bf 2caf 783f
000000d0: 49b2 9ebf 52fa debf b2cd ee3f bd14 4ebe
000000e0: a7be e33e 47a6 3fbf c08a 98be c814 36bf
000000f0: 02cf 50be af75 933f 598e 6f3e 5118 e5bd
00000100: 327f 92bf 197a 183f dfe6 1540 1ff2 10be
00000110: d8de 98bf a3f8 7a3f 0f7a b03e cb89 6fbf
00000120: 3f0e 5e3f b9c6 cc3e fc41 e5bf 075c c13c
00000130: 5406 abbe e142 adbf e800 a03f 68f5 b13f
00000140: 4905 40bf cef3 22bf 2246 513f ba09 d5be
00000150: 0328 46be 0d6f 4fbd 13ab 3ebf 88fa fe3e
00000160: 39e0 7ebf ea76 d6be 9852 7e3e d318 b0be
00000170: e5f1 33bc 200b 2740 99aa 4fbf 50a7 f63f
00000180: f80d 3cbe 9b3e 3dbf 1d10 82bf 69a5 833f
00000190: 7353 de3f 0845 4b3f 2c77 cfbe 3fb5 0ebf
000001a0: 511b ffbe 4a28 a03f 37f7 96bf 6bf7 80be
000001b0: dc1f 85be ac38 e43d a800 933f 17c6 a5bf
000001c0: 54cf 2bbf d151 0abf 0707 b0bf a636 4e3f
000001d0: fdc5 d9bf 72ef 5d3f 25b9 75be 8b20 61bf
000001e0: ef8d fd3f 1f8d 8f3d ba00 fe3e fa20 d5be
000001f0: 12be 913f dc6b 6fbf 18dc 85bf 4873 dfbc
00000200: 172c 333f fe6f 1dbf 27e3 74bf 5334 063f
00000210: 08d9 b93f b88b c9be 5f85 cd3f 4938 1bc0
00000220: 535d 9d3f 23d0 d93f 3632 5ebd 8431 1cbf
00000230: 17a4 c6be 11fe c5be 0327 623e 2bfc f03d
00000240: ef10 e83d ede4 28bf 90ce a6bf 1d71 f4bf
00000250: cc6f 7dbe 8072 b73d 18f5 aabf 60fb 503f
00000260: 678e ba3e 76b1 a3be 2b49 8cbf 65dd 2b40
00000270: f28e c7be 578d bc3f c2d2 903e e510 59be
00000280: a7d4 55bf 7ee5 8d3f 323b 9ebe 9f42 8fbf
00000290: a3be 9abf bba1 473f a7e0 313f 91af 23c0
000002a0: b1b0 fa3e c060 0ebe 3948 8cbd 6717 ebbe
000002b0: 6170 063f 5029 0dbf 5fb3 80bf 80b7 383e
000002c0: 4bd3 89bf da7b 29bf e1a6 ab3e 38bc f8bf
000002d0: 5ac0 36be ef77 9dbf f028 e03f c249 edbd
000002e0: fec9 31bf 3f28 98be 611b 0abe 5fda 75bf
000002f0: e801 5c3f a014 4ebe 1222 99be 1177 38bf
00000300: c255 9abf a0f3 853f f440 ac3f 0d6b c9bc
00000310: ea92 393f bab5 cb3f 9cba fc3d 7c29 a1be
00000320: 5483 7c3f 7db0 9d3f dbfd 4d3e 34eb 93bf
00000330: 7b21 b2bf 7ef9 163e 469b 1840 8bc5 77be
00000340: 997e 73bf 3503 713d 8b0a 00c0 8f40 85be
00000350: fcbb d8be 3b0d 85bf 3120 533f 6f12 fcbe
00000360: 835d 503f 8e1e 1bbf bccb ee3e d79b 4cbd
00000370: 5af3 d83f de75 a5be 2ef3 45bf 5282 213f
00000380: f7a1 7f3e e4f1 193f 3d2c b33f 6184 00bf
00000390: 707c cf3e c9dd 6c3f 8d25 ec3f 168f 673f
000003a0: 46a3 0fc0 f695 15c0 a951 a23f 3a6f 0b3e
000003b0: b34a c43d 60c1 a8bf 2207 36c0 c757 23be
000003c0: f3a1 ac3e 04fb 913f 4983 ebbf 87b9 8cbd
000003d0: 7f13 4740 a6d1 cb3f cce1 31be 6d98 90bd
000003e0: 8425 12c0 fd1e 8abf d709 07c0 5aa8 b7bf
000003f0: 063a 163f d918 263e fc87 14c0 04bc f9bd
-1.861921 1.0507327 -0.29181308 1.7431595 -0.3338383 -1.4154857 -1.7208594 0.57375884
0.6356881 0.29678363 -0.9532407 -0.4964362 0.15306246 -0.2549165 1.7999173 -1.1913517
-0.93589073 -1.237484 1.710027 0.71053785 -0.27320403 -0.9172812 1.9945656 -0.88105315
-1.0813429 1.633341 -1.0083194 0.3782176 -0.62386525 0.7092692 1.2073319 0.3942118
-0.78369224 0.32990298 -0.81922793 0.9238919 0.69244933 0.42490897 -0.49552068 -0.5046574
-1.2653865 -0.29155022 -1.0900956 -1.4262557 -0.02322064 -0.2812619 -1.5790542 0.79678637
1.5299647 -1.717935 -1.6309102 0.9714229 -1.2398158 -1.7420142 1.8656523 -0.20125099
0.44481394 -0.74863094 -0.29793358 -0.7112546 -0.20391467 1.1520289 0.23394145 -0.111862786
-1.1445067 0.59561306 2.3422163 -0.14154862 -1.1943007 0.9803564 0.34468123 -0.9356963
0.8674049 0.39995363 -1.7910762 0.023603452 -0.33403265 -1.3536035 1.2500277 1.3903017
-0.75008065 -0.63653266 0.8174764 -0.41608983 -0.19351201 -0.050643016 -0.7447979 0.49800515
-0.99560887 -0.418876 0.24836195 -0.3439394 -0.010982965 2.610054 -0.81119686 1.926981
-0.18364704 -0.73923653 -1.0161167 1.0284854 1.7369217 0.7940221 -0.40520608 -0.5574531
-0.49825528 1.2512295 -1.1794194 -0.25188765 -0.2600087 0.11143622 1.1484575 -1.2951077
-0.6711323 -0.5403109 -1.3752145 0.80552137 -1.7013546 0.8669349 -0.23996408 -0.8794028
1.980894 0.070093386 0.4960993 -0.41626722 1.138613 -0.93523955 -1.0457792 -0.02727665
0.6998915 -0.6149901 -0.95659107 0.5242359 1.4519358 -0.3936441 1.6056327 -2.4253104
1.2294105 1.7016643 -0.054247104 -0.61013055 -0.38797066 -0.386704 0.22085194 0.11766847
0.11331355 -0.65974313 -1.3031788 -1.909702 -0.24749678 0.08957386 -1.3356047 0.8163357
0.3643677 -0.3197133 -1.0959829 2.6853878 -0.38976246 1.4730633 0.28285795 -0.21197851
-0.83527607 1.108566 -0.30904537 -1.1192206 -1.2089428 0.77981156 0.6948342 -2.5575907
0.4896293 -0.13904095 -0.06849713 -0.45916292 0.52515227 -0.5514116 -1.005474 0.1803875
-1.0767606 -0.6620461 0.33525756 -1.943244 -0.17846814 -1.2302226 1.7512493 -0.11586334
-0.6944884 -0.29718205 -0.13487007 -0.9603633 0.8594041 -0.20125055 -0.29908806 -0.7205668
-1.2057421 1.0464973 1.3457322 -0.024587179 0.724898 1.5914834 0.123402804 -0.31476963
0.9863789 1.2319485 0.2011637 -1.1556153 -1.3916467 0.14743611 2.3844771 -0.2419645
-0.9511505 0.05884095 -2.0006435 -0.26025817 -0.4233092 -1.0394663 0.82470995 -0.49232814
0.8139269 -0.605935 0.46639812 -0.049953308 1.6949265 -0.32316488 -0.7732419 0.6308948
0.24964128 0.6013472 1.3997875 -0.50201994 0.40524626 0.9252592 1.844896 0.90452707
-2.2443404 -2.337278 1.2681171 0.13616648 0.0958456 -1.3184013 -2.8441854 -0.15951453
0.33717307 1.1404729 -1.839944 -0.06871324 3.110565 1.5923355 -0.17371291 -0.07060323
-2.2835398 -1.0790707 -2.1099756 -1.4348252 0.58682287 0.16220416 -2.3207998 -0.12194064

conv2.2.kernel f4 [64, 1, 3, 3]
00000000: c2ca a0bf ed65 11bf 1031 733f 1bcc 67be
00000010: 4b6c 9fbe 230f c03e 9fff 49be 2924 60be
00000020: 74fb 19bf a1f4 84bf 7fe4 d83d c761 673f
00000030: bf91 c43f 5e4d 5f3f 6c58 b13e 9878 1abf
00000040: eba5 853e 9f9c 72be 4a7c 0e3f 72b5 41bd
00000050: 123d 42bf 7f61 653e 7a45 0c40 9cd2 243f
00000060: c53e 403f c168 d53f 0a07 cabe 8d4d b43f
00000070: 021f 85bf cb80 5e3e d549 bf3f ec46 703f
00000080: 1989 063f f617 a4bf ef51 31bf 1f59 a73f
00000090: 2691 17c0 2d6a b6bf 9e31 543e d492 97be
000000a0: 9ddb ddbf 2b05 b8be aacc a73e 5994 863e
000000b0: 0f7c 9c3f 8201 33bf 5bc9 d83e 7dce 593f
000000c0: 1fc7 4ebe 07c2 52be bfcb 86bf 6c1a b73f
000000d0: 5ce3 2fbf 74fc 7e3c 99f8 f6be 9e2a bc3f
000000e0: 55db 50bf 60f6 f6be a661 8fbe 02df 1dbf
000000f0: cf1f 8e3f 07d8 dfbe 1dbb eebf 6b40 febe
00000100: a2a3 b0be 4af0 52bf c097 78bf c49e 953f
00000110: 20af 723e 070a 6ebd c880 d63f 21e6 813f
00000120: 8ae4 263f ed4d 423e 1bcf b83e f5f6 c73e
00000130: 68fc a5bf 15da cbbe de50 1dc0 06a7 993f
00000140: 6716 873f d88f 753f ea12 d5bf d3f5 d03f
00000150: afd7 ff3e 107e b0be de5b d7be fe2b a03f
00000160: bbbf 4ebf 9fc8 e7bf e3d5 d7bf ddc2 073e
00000170: 9084 05bf ec90 f2be 08c3 80be 7d13 243f
00000180: 1e96 3f40 1319 803d 6537 cfbe 3c72 bfbf
00000190: 12f7 0440 a489 4b3e f06a ce3e 395f dcbd
000001a0: 5cbd f6bf 3764 a73e 6ef1 b33e b945 853e
000001b0: 7de8 963f e59f 11bf d1f7 e93e a5a5 aa3f
000001c0: 53ad 813d 0d13 643e 8dba 9d3e b2e5 8ebf
000001d0: 1fc0 923f 8f6d c2be e50f 673f 7c8e c2bf
000001e0: dba5 3440 b55e 6ebf f7a0 51bd ad6d 1ebf
000001f0: 7320 bdbe 4217 4b3e 2e65 9b3f 658e 6dbf
00000200: 35d8 1bc0 3caf 36bf 7fe0 163e fad9 843f
00000210: 9843 abbd 6528 99bc edcc 433f 2062 ffbd
00000220: a54e 90bf b6e6 1d3e 220b 8b3f 12c4 273f
00000230: 761a e43f 9bd6 ce3e ecdc 3fbf b795 dd3f
00000240: 827a 03bf 366d 97bf 0c13 93bf 4659 2f3f
00000250: 219e 283f 6259 5d3f b9ea a0bf 55ac 56be
00000260: 9111 acbf d691 babf 5cd6 1dbe d4ee 2dbf
00000270: bab3 e9be 7c82 3a3e d903 f6bc cdb3 f5bf
00000280: aba0 d83e ba71 8d3f 322d 3f3e 9c91 483f
00000290: a730 6abf 3048 2dbf f724 153e 71a8 463f
000002a0: 1982 983e 5f93 2ebe 1a5a b13f 4b70 98bf
000002b0: 76b5 bb3f c451 0840 8478 6b3f e4d6 a6bf
000002c0: 2b62 debf 48a7 563e 7acb 7b3f e0ac 2abf
000002d0: d221 d83e fc96 cd3e a998 fd3e a143 96be
000002e0: 2de5 2bbf 423a 86bf 43a3 a9be 4e54 093d
000002f0: 85ad 193f 1088 073e 5caf 79bf 2f56 a7bd
00000300: 6250 853f 90ad 07c0 2462 0d40 1a60 4d3f
00000310: 87fc 32be f464 85be 8401 923f 9656 ec3f
00000320: d1e6 8abe 167a 093f 96f1 3f3f fe99 683f
00000330: 3914 9bbe 3481 5cbf b859 8b3e 914e 3cbf
00000340: fdd7 6a3d fdfa f43f 0dd3 913e 0234 033f
00000350: c8ca 583d 6819 d03f c7b5 c93f d51b 883f
00000360: aa6d 193f 79ae fb3f a543 a4be 0635 d5bf
00000370: 6184 fe3f cc42 253f 6ec4 ac3f 8acb 7f3c
00000380: cb63 0c3f 0419 c83e d8f3 7b3e d4da 44be
00000390: f9ca 7cbf c495 a3be 3451 d93f 6cb6 d3be
000003a0: 786e 833f 403e abbf 2f2c d03e 8e98 e83e
000003b0: 2530 ad3f 4bde 2cbf 5a13 01bf f553 13bf
000003c0: 376c a13c 2fd5 d03f 27e3 7cbf 24a2 193e
000003d0: f78f 83bf 3e8a 943f 3cdd 5a3f adf6 ba3e
000003e0: f6de 34bf 3d4b f0be 50d0 3a3f af6b 943f
000003f0: 5d1c 803f 27c2 3f3f 0dd3 fabe 55d3 01bf
-1.2561877 -0.5679615 0.9499674 -0.22636454 -0.31137308 0.37511548 -0.19726418 -0.21888794
-0.6014931 -1.0387155 0.10590457 0.9038357 1.5356978 0.8722743 0.34637773 -0.6034026
0.26103148 -0.23692559 0.556584 -0.04729218 -0.75874436 0.22400473 2.1917405 0.64383864
0.7509578 1.6672593 -0.39458495 1.4086167 -1.0400088 0.21728818 1.4944407 0.9385822
0.52552944 -1.2819812 -0.69265646 1.3074073 -2.3682342 -1.4251152 0.20722052 -0.29604208
-1.7332646 -0.35941443 0.32773334 0.26285055 1.222536 -0.69924176 0.42341122 0.850807
-0.20193146 -0.20581828 -1.0530928 1.4304938 -0.687063 0.015563119 -0.4823654 1.4700506
-0.81584674 -0.48234844 -0.28004187 -0.6166841 1.1103457 -0.43719503 -1.8650852 -0.49658522
-0.34499842 -0.823979 -0.9710655 1.1689076 0.23699617 -0.05811503 1.6758051 1.0148355
0.6519247 0.18975039 0.3609551 0.390556 -1.2967653 -0.3981482 -2.4580607 1.2004097
1.0553712 0.95922613 -1.6646397 1.632502 0.4996924 -0.34471178 -0.42062277 1.2513425
-0.8076131 -1.81081 -1.6862148 0.13257928 -0.521554 -0.47376192 -0.25148797 0.64092237
2.9935374 0.062547825 -0.4047195 -1.4956737 2.07758 0.19876724 0.40315962 -0.1076035
-1.9276538 0.32693645 0.35145134 0.26029757 1.17897 -0.56884605 0.4569688 1.3331801
0.06331887 0.22272892 0.3080639 -1.1163847 1.1464881 -0.37974212 0.9025863 -1.5199733
2.822623 -0.9311326 -0.0511789 -0.618861 -0.3693882 0.19833091 1.2140253 -0.927954
-2.4350712 -0.71361136 0.14734076 1.0379021 -0.08362502 -0.01869602 0.76484567 -0.12469888
-1.1274 0.1542004 1.0862772 0.65533555 1.7820575 0.40398106 -0.74946475 1.7311314
-0.5135881 -1.1830204 -1.1490188 0.68495595 0.65866286 0.8646451 -1.2571632 -0.20964177
-1.3442861 -1.4575756 -0.15413803 -0.6794255 -0.45644933 0.18213838 -0.030031132 -1.9195496
0.4231008 1.1050332 0.18669584 0.7834718 -0.9148049 -0.67688274 0.14564882 0.7760077
0.29786757 -0.17048405 1.3855622 -1.1909269 1.4664752 2.1299906 0.9198077 -1.303433
-1.7373708 0.2096225 0.98357356 -0.66670036 0.42213303 0.40154254 0.49530533 -0.29348472
-0.6714657 -1.0486529 -0.3313237 0.033527665 0.60030395 0.13235497 -0.975332 -0.08170735
1.0415156 -2.1199684 2.209115 0.80224764 -0.17479144 -0.26053584 1.1406713 1.8463924
-0.27129224 0.53701913 0.74978006 0.90859973 -0.30288866 -0.8613465 0.27216887 -0.7355738
0.05733489 1.9139096 0.2848133 0.5125123 0.052927762 1.6257753 1.5758599 1.0633494
0.5993296 1.966262 -0.3208286 -1.6656806 1.9884149 0.6455505 1.3497446 0.015612492
0.5483977 0.39081585 0.24604738 -0.19224101 -0.9874721 -0.319502 1.6977906 -0.41350114
1.0268087 -1.3378372 0.4065871 0.4542889 1.3530318 -0.6752669 -0.50420153 -0.57549983
0.019704921 1.6315058 -0.98784107 0.15003258 -1.027831 1.1604688 0.85493827 0.36516324
-0.7065271 -0.46932402 0.7297411 1.1595362 1.0008656 0.7490563 -0.48989144 -0.5071309

conv2.3.kernel f4 [64, 1, 3, 3]
00000000: 4844 523f e03d e2bf 8d01 afbf 8e94 d8bd
00000010: 06df 1340 2740 823d 67cb b13e 4983 a03f
00000020: ed03 533f 89db c73d 5777 a23e 29e5 313f
00000030: 5955 c2bf 577e e4be c82a 5cbe 82f9 6ebf
00000040: 1ce0 9b3f 52da 21be e9e7 8ebf 765e 33bf
00000050: 1d86 c3bf e143 963f 80c7 6bbf fe43 6b3d
00000060: 91da 31bf fbd5 eabf 184d 3d3f 5bdb 7ebe
00000070: 65c0 32be b30d 203f da6b 913c 0e89 5c3e
00000080: e554 45bf d417 ff3e 2899 8e3f 9dae 153f
00000090: 17d6 efbf 3d7d 963f 7420 3bbe b658 963f
000000a0: dbd6 193f e8fb 6c3f e5ec ab3e 9af5 173e
000000b0: 5575 3ebd c46a c4be 013f c93d 4228 3040
000000c0: e49f c53f d581 0bbe 55d7 8ebe ee2e 1ac0
000000d0: 00d5 2abe 7dc4 ccbf d96d 59be 7d03 62bf
000000e0: 92fa d63f 4207 9a3f b734 6abf 7a9d 38bf
000000f0: 52b5 1f3f 504a f1bf 1c0b 22bf 1552 c7bd
00000100: 01fc 723e 7163 4e3f de7c c93e 58e9 a2bf
00000110: a5c0 e7bf f485 80be 1065 a63f 6939 21bf
00000120: f2ea 673f 2dd7 1540 fdd4 593f 1c26 703e
00000130: 7f66 1940 b7cd dfbd c026 00c0 44ea 643e
00000140: 7bec b0bf 963b 193e 87ad c2be f5a8 f23e
00000150: c91c 923f b7db aa3f 2d90 0b3f 0361 083f
00000160: 1a7a 013f 7828 cabf d09a 2cbf d2fd 90bf
00000170: 086c 01be e1fa aebe 67c3 a7bf 1971 47bf
00000180: 40c3 af3f b2ea 2fbf 4913 f7be afdc a63f
00000190: 700c fe3e 9c74 0840 ced2 4f3e 1fb4 94bf
000001a0: c967 d1bd e6e1 6dbf 354e 23bf 603c e63e
000001b0: 1676 693f 796c ae3f 6489 1bbf fece 433f
000001c0: e5c4 adbf 36f5 da3e 4b72 e1be 2992 c4bf
000001d0: fda8 78be 8de1 f7be bee2 313f 822d 2f40
000001e0: 8836 7dbe 87f4 24c0 3933 973e 9a66 5e3f
000001f0: e4f9 97bf 7dde a9bf 6494 3f3d fc45 c9be
00000200: 1375 943f 8551 083f e423 023e 1fc8 5fbf
00000210: efdd a4bf 4651 d53f 5c72 d33f f465 9e3d
00000220: 5056 07c0 a238 b8bd 209f 03bf ac2a 513f
00000230: 08d2 40be db69 913e 1c6e 22bf 091e 883f
00000240: 39d1 853f f62c edbe d51b b1bf 72ed e4be
00000250: 9640 0cbf ffb0 703f b730 19bf a51f e93d
00000260: b29f 88be f73a 9bbf 5ad0 b0bf db38 bc3f
00000270: cfbe bdbf cde6 82bf 6b34 bd3f 980c 623e
00000280: 6d78 84bf 5d7d 2dbd 525b f83e 968e d3bf
00000290: 3331 18bd 5abe 9fbf 712a d73e 7386 b0bf
000002a0: 650d 8a3e 3969 13c0 5af8 71be 3641 6f3f
000002b0: 1aa8 3839 32f7 303f c0c6 69bf d973 c53e
000002c0: 5745 753f f914 f9bb 2562 be3f 64ac 53be
000002d0: dbe0 4f3f a4f7 9a3f 929c 15bf 1fc9 783f
000002e0: 0bce 523f 2758 023f 30d7 20bf 93eb 89bf
000002f0: 6e99 b13e 6322 cc3f 4971 433f d4fe 6f3f
00000300: c738 833f 9a51 3dbd f196 863f 3a0c f6be
00000310: aff1 7cbe e485 1bbf 7df9 c0be f8c6 9bbf
00000320: a11a f4be e5fd 35bf c450 6fbf 2076 7d3f
00000330: 0d32 253e 0be3 2340 08c2 7c3e 5195 013e
00000340: 3c9f d23f bc12 7dbf aa59 9ebf b7ae 37bf
00000350: 8480 73bf bf44 7b3e 59e6 97bf c121 c53e
00000360: 9178 083f d808 d03b b0ad 8b3e d37c a9bf
00000370: b1bb e23f da88 6f3e 0431 17bf f492 00bf
00000380: cff7 c5bd d600 8c3f 7cde 9f3f 803a 943f
00000390: 2113 76bf d986 aabf 4512 f83d 9ce7 9f3f
000003a0: a961 993f 1e4c a3bf ebcf 563f 1e28 18bf
000003b0: bca3 6f3f 2db0 0ebf a21a 7ebf eda7 82bc
000003c0: 2fbc 1c3e a846 e6bf d131 22c0 d977 b93f
000003d0: 750f f83e 4521 e03f da4e 3bbe 5149 c93e
000003e0: de34 94be cf1c 603d 5751 0940 db91 063f
000003f0: a6cd 18bf f0ce b2be 86ef 3d40 97a1 2abe
0.8213544 -1.7675133 -1.3672348 -0.105752096 2.3104873 0.06359892 0.34725496 1.2540065
0.82427865 0.0975867 0.31731674 0.69490296 -1.5182296 -0.4462764 -0.21500695 -0.9334947
1.2177768 -0.15805939 -1.1164523 -0.7006601 -1.5275303 1.1739465 -0.9210129 0.05743789
-0.6947413 -1.8346552 0.7394576 -0.24888365 -0.17456205 0.62520903 0.017751623 0.21536657
-0.77082664 0.49822867 1.114049 0.58469564 -1.873721 1.175697 -0.18274099 1.1745822
0.6009347 0.9257188 0.33579174 0.14839783 -0.046498615 -0.38362706 0.0982647 2.7524571
1.543942 -0.13623746 -0.2789866 -2.4091144 -0.16682816 -1.5997463 -0.2123331 -0.8828657
1.6795218 1.2033465 -0.91486686 -0.7211529 0.6238605 -1.8850803 -0.632982 -0.09732453
0.23728944 0.80620486 0.3935308 -1.2727461 -1.8105665 -0.25102198 1.2999592 -0.62978226
0.90592873 2.3412583 0.8509062 0.23452038 2.3968809 -0.10927909 -2.002365 0.2235499
-1.3822168 0.14964136 -0.38023016 0.4739453 1.1415035 1.3348302 0.5451687 0.5327303
0.5057694 -1.57936 -0.67423725 -1.132746 -0.12638867 -0.3417578 -1.3106507 -0.7790695
1.373146 -0.6871749 -0.482569 1.3036097 0.49618864 2.1321173 0.2029526 -1.1617469
-0.102248736 -0.9292282 -0.6379121 0.44967937 0.9119581 1.3626853 -0.60756516 0.7648772
-1.3575712 0.42765206 -0.4403251 -1.5357105 -0.24283214 -0.4841427 0.69486606 2.7371526
-0.24727833 -2.5774248 0.29531267 0.8687531 -1.1873136 -1.3271023 0.046772376 -0.39311206
1.1598228 0.5324939 0.12709004 -0.87414736 -1.2880229 1.6665428 1.6519275 0.0773429
-2.114643 -0.08995177 -0.5141468 0.8170574 -0.1883012 0.28401074 -0.63449264 1.0634166
1.0454475 -0.46323365 -1.3836619 -0.44712406 -0.5478605 0.94020075 -0.5983996 0.11382989
-0.26684338 -1.212737 -1.3813584 1.4704851 -1.4823855 -1.0226685 1.4781622 0.22075117
-1.0349251 -0.042355884 0.48507172 -1.6527889 -0.037156295 -1.2479966 0.42024568 -1.3791031
0.26963344 -2.3032973 -0.23629895 0.9345888 0.0001761023 0.6912719 -0.91318893 0.38564947
0.9580893 -0.007601377 1.4873701 -0.2067123 0.8120248 1.2106824 -0.5844203 0.97181886
0.82345647 0.5091576 -0.6282835 -1.0775017 0.3468737 1.5947994 0.76344734 0.9374821
1.0251702 -0.0462204 1.0514814 -0.48056203 -0.2470157 -0.60751176 -0.37690344 -1.2170095
-0.47676566 -0.7109054 -0.93482614 0.9900837 0.16132374 2.5607326 0.24683392 0.12654616
1.6454844 -0.9885671 -1.2371113 -0.7175097 -0.95117974 0.24537943 -1.1867172 0.38502315
0.5330897 0.0063487105 0.2728095 -1.3241218 1.7713529 0.23392048 -0.59059167 -0.5022423
-0.09666406 1.0937755 1.2489772 1.1580353 -0.9612294 -1.3322402 0.1211286 1.2492557
1.1982929 -1.2757604 0.8391101 -0.59436214 0.93609214 -0.5573757 -0.9925939 -0.015949214
0.15306161 -1.7990313 -2.5342906 1.44897 0.48449293 1.7510153 -0.18291798 0.39313748
-0.28946584 0.054714974 2.1455896 0.5256631 -0.59688795 -0.34923506 2.9677444 -0.16663204

conv2.4.kernel f4 [64, 1, 3, 3]
00000000: 207b 37bf d520 dbbe 6e78 eb3f a673 4e3f
00000010: a49f 5b3d 06b8 923e 51e0 28bf c29b 63bf
00000020: 841f 64bf 8d62 c1bf ad29 92bf cb91 0b3f
00000030: d41a bcbe b572 bdbf 5678 c0be 7849 6e3f
00000040: c4b3 58bf 07e2 33be 7f89 c43f 3baa 413f
00000050: bc13 7dbf 5dca 573f 1aa7 a0be 3ea0 9b3f
00000060: 3be9 9fbf 047e 3c3f ed05 60be 95e2 a3ba
00000070: 7853 cd3f 0997 a3bf 6701 bcbe 996d b5bd
00000080: 242c 64bf 581b 7c3e c096 923c 15d3 f2be
00000090: a73e ff3e dc2a 9abd 7b86 5a3e 3139 c63f
000000a0: 2e5c 6bbe afc5 cabe ae0d 8f3e 4908 bf3e
000000b0: 7183 e0bf 0cc7 80bf dd1b 88bf 06d6 96bd
000000c0: d53f cc3f 942b a53e e965 23c0 94d8 d03e
000000d0: 18e5 783f c40c 81bf 98c4 0d3e 4627 09bd
000000e0: dc5b 9ebf 0de7 46bf 2dd3 d43f f18e c23e
000000f0: b41c 823d 4588 14be 17cb 9e3e 1177 863e
00000100: da76 683f 850d 163f 7ed1 d63f b31e da3f
00000110: 649b 9dbf 6bb6 e6bd ef40 03bf a71c 12be
00000120: 1947 12c0 129e c03f 48d8 b5be 3672 c0be
00000130: dab2 d8bf f37c 17bf 36ec 993f b037 1c3f
00000140: 85ab 3d3c e519 c4bf 768e d73f b8a0 e13f
00000150: e2ce ab3e 12a2 6b3f c79c bf3f ee83 123e
00000160: 193e 10be d35a 05be 91fc cf3d 8111 093f
00000170: d0ae 293e a235 85bb 022e b33f 863d 4dbf
00000180: bd41 663e df5b 0d40 7c72 d13f b209 9b3f
00000190: 24cb 87bf 4d7a 683f 58b1 92bf 0146 df3d
000001a0: 0d5e a7bf 0340 b13e 5c51 833f 8bb1 c53e
000001b0: 84b4 1c3e ef7b b2be 44c5 0d3f 7cf7 c73f
000001c0: 9eec b5bf b649 02be 2ba5 41be 4e41 723f
000001d0: fb69 653f 80e4 383f d6a1 7f3f 3b3b eebd
000001e0: 2e05 29be eb66 3f3f 74fc 6b3f 791c cdbf
000001f0: f3d6 31be 7232 553e d255 44bf e39c ba3f
00000200: a59d 1d3f ad07 8a3f cc16 253f d263 bdbe
00000210: 7819 633f 4701 9dbf 23a0 debf 3be8 2e3e
00000220: 0178 2c3e a819 88bd 932e 2fbe 405f fcbf
00000230: cee7 b03f 8671 84bf 8886 24bf 28a8 533f
00000240: 41d3 c13f ebf1 ff3f f10c fc3d a22a 21c0
00000250: dc15 4dbf f26e e9be a2e4 8fbf 8007 d63e
00000260: 9475 953d 8470 92be 17af eabe 2a2b 59bc
00000270: 0bd6 493f 2d36 0bbf 983a f0bf 3261 0bbf
00000280: bbbf 753e 142e 2740 9d2c 22bf 6b63 ccbd
00000290: ce36 7b3f a9c2 06bf a044 1dbf 2c7d d23f
000002a0: fd60 6c3f 9ac7 c5be e0a2 9abe 68a6 623c
000002b0: 3b2d 8abd 1764 313f e6c9 e03e 9679 8bbd
000002c0: 5267 b8be 2f9b abbd 26e1 84bd cd77 8cbe
000002d0: fac6 07bd 172d af3f 1b49 43bf 5239 983f
000002e0: 2b1d 32bf 42ed cd3e 2cff 29bf da4f cd3e
000002f0: 408b 963e e857 793f 723f 36bf d878 273e
00000300: 29b9 1fbf 79ee 893f 2704 c3be 40a4 00be
00000310: 06a9 c53f 2684 a8be 4b58 83be 4e54 6fbf
00000320: 2045 c03e 3dc3 513f 76dd 963e 18ec 14be
00000330: 62a9 d13f c7ee 67be c817 af3e 68c5 463f
00000340: 6c2c aa3f 8b9a f03d 53cd b1be 40df 4dc0
00000350: 0da3 71bf a46a b13f 478d 8abf 0cff 683e
00000360: 31fb bd3f ab1d 01be 0cf0 56bf bc22 70bf
00000370: 7fdf 20c0 e8f8 23bf e7e3 02c0 7d46 863f
00000380: 408a 173f 1f5d 9f3f 911a 2d3f b014 d3bd
00000390: 1fa7 0740 d490 2b3f 9df9 653f c4a8 94bf
000003a0: 3b28 713f a103 c93e 0900 d43f 5a79 74be
000003b0: b13a 583f 00ce 97bf ab9b c53e 277d dcbf
000003c0: 2b2a b8bc 83c0 b6bf 44c7 843f ca32 d43d
000003d0: d717 d53e a802 8bbe 4ab3 8e3f 6487 3abf
000003e0: d685 983f d2e6 7f3e a4d6 eb3e ad3a 09be
000003f0: cf65 4dbe 9657 af3d f8b1 27be 35b2 1b3c
-0.7167225 -0.42798486 1.8396127 0.80645216 0.053619042 0.28656024 -0.6596728 -0.8890954
-0.8911059 -1.51082 -1.1418968 0.5451934 -0.36739218 -1.4800631 -0.3759181 0.93080854
-0.846493 -0.17566691 1.535446 0.75650376 -0.9885824 0.84293157 -0.31377488 1.2158277
-1.2493051 0.73629785 -0.2187726 -0.001250344 1.6041098 -1.2780467 -0.3671982 -0.08858795
-0.89129853 0.24619806 0.017894149 -0.47426668 0.49852487 -0.07527706 0.21340363 1.5486203
-0.22984383 -0.39603946 0.27940124 0.3731101 -1.7540113 -1.0060744 -1.0633503 -0.073650405
1.595698 0.3225981 -2.553095 0.40790236 0.9722457 -1.0082021 0.13844526 -0.03348472
-1.2371783 -0.77696306 1.6626946 0.3799968 0.06353131 -0.14505108 0.3101432 0.26262715
0.90806353 0.5861438 1.6782682 1.7040619 -1.2313046 -0.11265262 -0.51270956 -0.14268743
-2.2855895 1.5048239 -0.35516572 -0.37587136 -1.6929581 -0.5917503 1.2025211 0.6102247
0.011576538 -1.5320402 1.6840351 1.7627172 0.33556277 0.92044175 1.496972 0.1430814
-0.14086188 -0.13022928 0.10155595 0.53542334 0.16570592 -0.0040652314 1.3998415 -0.80172
0.22486015 2.2087324 1.6363063 1.2112334 -1.0608869 0.90811616 -1.1460371 0.10902024
-1.3075577 0.3461915 1.0259204 0.38612017 0.15303236 -0.3486018 0.5537913 1.5622401
-1.4212835 -0.12723431 -0.18910663 0.946309 0.8961484 0.72223663 0.9985632 -0.11632391
-0.16505882 0.74766415 0.9218209 -1.6024314 -0.17367153 0.20820025 -0.7669345 1.4579128
0.6156867 1.0783592 0.6448791 -0.3699022 0.8871074 -1.2266015 -1.739262 0.17080776
0.16842653 -0.066455185 -0.1710761 -1.9716568 1.3820741 -1.0347145 -0.6426778 0.8267846
1.5142595 1.9995703 0.12307156 -2.518227 -0.8011148 -0.45592457 -1.1241648 0.41802597
0.07297817 -0.28601468 -0.45836708 -0.01325492 0.7884223 -0.5437954 -1.8767881 -0.54445183
0.2399892 2.6121874 -0.63349324 -0.099799 0.981305 -0.5264078 -0.6143284 1.644445
0.9233549 -0.38628846 -0.3020239 0.01383362 -0.06746908 0.6929335 0.43904036 -0.068103
-0.36016327 -0.08379208 -0.06488256 -0.2743515 -0.033148743 1.3685635 -0.76283425 1.1892493
-0.69575757 0.40220076 -0.66404986 0.40099984 0.29403114 0.9739976 -0.7119056 0.16354692
-0.62391907 1.0775901 -0.38089105 -0.12562656 1.5442207 -0.3291332 -0.256533 -0.93488014
0.37552738 0.81938535 0.29465836 -0.14543188 1.6379817 -0.2264968 0.3419783 0.7764497
1.3294806 0.11748227 -0.34726962 -3.216751 -0.9438942 1.3860669 -1.0824364 0.22753543
1.4842283 -0.12608974 -0.8396003 -0.93803 -2.513641 -0.64051676 -2.04516 1.0490261
0.5919533 1.2450293 0.6761866 -0.1030668 2.1195753 0.67017865 0.89834005 -1.1614003
0.9420201 0.3926058 1.6562511 -0.23874417 0.84464556 -1.1859741 0.38595328 -1.7225693
-0.022481045 -1.42775 1.0373311 0.1036125 0.4161975 -0.27150464 1.1148465 -0.7286284
1.1915843 0.24990395 0.46062195 -0.1340129 -0.20058368 0.085616276 -0.16376483 0.009502937

conv2.5.kernel f4 [64, 1, 3, 3]
00000000: 6e3b 1d3f e405 3fbd 7c03 0640 ddd1 3dbf
00000010: 46de 28bf 9747 29be a492 7b3e 9ffb 8a3f
00000020: 3b7c 87bd 2959 dcbe 3c6a 0abe 45d6 9cbe
00000030: f1d6 d63f 997c 87be 5dcc a23f 81d2 70bf
00000040: e690 213f 005e a2bf 7e69 ebbf 04b7 7b3f
00000050: ae90 053e e1ae cf3d 30d1 c93f cc41 7b3f
00000060: 991e fb3f b1f4 9d3f 84c6 3b3d 5823 773f
00000070: f1af 9bbf 91c2 283f 20fb 1a40 a632 10bf
00000080: 798b b1bf 2e72 fc3e a41f a5bf ea71 3c3f
00000090: 89b2 42bf f663 e53f 5678 64bf 0af7 ba3e
000000a0: e96a af3f 5a42 dd3f 1427 cbbf f74b febd
000000b0: ff8b 303e bb75 34bf 6904 183e 3fec bcbf
000000c0: a704 10bf 9ae8 82bf dbfa c2bd 2d95 8f3f
000000d0: 0481 593f d2bc b2be f10b 5fbf bad5 7b3e
000000e0: 94bb 8c3f eb1d 743f 35f4 d1bd 9555 c43f
000000f0: cdcd 3ebd 94cf f33c f4f8 073f 7b02 16c0
00000100: 5fdf 31be 16f2 6d3f 57ae 863e 1a9f 8fbf
00000110: efcb f43e 0636 673e 38ac b83f e7d6 e4bf
00000120: 9d78 8f3e 3d1d afbf f95e c5bf d0fb f0be
00000130: cbb1 9cbf 88bc 00bf bc41 693f b7c7 b9bf
00000140: 5516 afbf fb46 1bbf 6ab8 e03d 095d 9d3f
00000150: f3a9 35bf 396a 443f 4786 f83e 08c7 eebe
00000160: 02ba a43e 18d2 0e40 4fd4 2c3e 251e d13e
00000170: 180c 8e3d e189 a9bd 62c1 803e 89c4 5fbf
00000180: 0336 f4bf 589b 8d3f 9d0a 93be b45c c0bf
00000190: 5247 e8be eb0a 563f 1f07 1a3e 1fb4 013f
000001a0: 9798 86bf 99c0 633f 4158 f8bf 1d6e 263f
000001b0: 1011 d8be ed89 b13e 4182 e83e e6ae a63f
000001c0: ba8f a3bf dbff fc3e bdad 2e3f d90f a3bf
000001d0: 1651 b83e a682 013f 665d 8a3f 22f1 c63f
000001e0: a8b8 683d 1880 3dbf 3849 6f3e 64cb 923f
000001f0: d063 85bf 7cbe 083f 6397 663f 8afd 1cbd
00000200: 670c 01be 22c7 2cbf 4287 7c3e 73b7 34be
00000210: e338 04bf 3ae6 c7be 97b7 963e c5b9 cb3e
00000220: 37fa 92bf b7fc c9bf 4ae2 293f 3233 7cbe
00000230: a7a8 413f ae81 7b3d b0b7 7b3f e491 96be
00000240: 3e28 27be feaa 81be 1493 febf d7c8 e4be
00000250: d721 6abe 9fda c03e 0ad3 973e f4ec b73f
00000260: 0f8c 5bbe 5f66 c4be 00a3 7f3c 9cf1 8f3f
00000270: 6a51 9abf 01da 033f e46e 12c0 ac72 a53f
00000280: f0e3 77bf 6b68 ea3f 77e0 18bd fe3a 323f
00000290: c2a6 c3bf 6995 5a3f 7042 53be c2e6 e4bf
000002a0: d65d 58be 2b55 f13d 07d9 68be e1e5 e4be
000002b0: ad2e 05bf bd1f 95bf b5c8 19bf 298b 1f3f
000002c0: b0ee 01bf 829a ad3d c01f f03e 764d 29be
000002d0: 1753 e6be fc4e f1bf 6309 513f 63a0 873e
000002e0: c4cb c7bf c862 45be ed21 18be 5408 10be
000002f0: 3f8c 403f b962 043f baab 8f3f ec81 97be
00000300: a31e 803f dbc4 d939 2239 a73f a62c b7be
00000310: b85c 5fbf 8fea 45bf 5e3b d3bf 2295 383f
00000320: 67fd ed3e d511 4d3e 3a90 273f 8854 3ebf
00000330: 6de4 3b3f 695b 66bf 2e4d 183f 1172 7bbf
00000340: 1634 11c0 79e1 dabf 7be4 8b3e ff7a 54be
00000350: 6101 4c3d 38ec b5bf 7b82 61bf 1b7c 093f
00000360: 85aa e93e 3d5f 1c40 012d 673f dc9e babe
00000370: cb93 4ebf 3241 c23f 1ac3 813e cff7 a83f
00000380: 7fd8 38be ab12 8a3f 9787 b2bf 60ec 03bf
00000390: 0dd7 973f 4a54 8d3d 41ca e63f c7d5 d5bf
000003a0: d20d 8bbf 350b 01bf dd2a c63f c005 82bf
000003b0: 2d23 8a3d 28cb b6bc 3157 f83f 5a2e f93d
000003c0: 2e35 173f 931b 12c0 7397 c7be 045c 1b3e
000003d0: 1872 c6bf d8fa ac3e ff56 1d40 cca1 5e3f
000003e0: d84a 99bf d9ca 3dbf aa4e b53e 8d61 213f
000003f0: b9d5 c0bf 00e9 d13f 8b40 21be df27 f93d
0.6141881 -0.046636477 2.0939627 -0.7414835 -0.6596416 -0.16531216 0.24567658 1.0858039
-0.06615492 -0.43036774 -0.13517088 -0.30632225 1.6784345 -0.26462248 1.2718617 -0.94071203
0.6311172 -1.2684937 -1.8391569 0.98326135 0.13043472 0.101407774 1.5766964 0.98147273
1.9618713 1.2340299 0.045843616 0.96538305 -1.2163068 0.65921885 2.4215775 -0.56327283
-1.3870689 0.49305862 -1.2900281 0.7361132 -0.76053673 1.7921131 -0.8924612 0.365166
1.3704501 1.7285874 -1.5871301 -0.12416833 0.17240904 -0.7049214 0.14845432 -1.4759597
-0.562571 -1.0227234 -0.09520503 1.12174 0.8496249 -0.34909683 -0.87127596 0.24593249
1.0994744 0.9535815 -0.10251657 1.5338618 -0.046582986 0.029762067 0.5311425 -2.3439014
-0.17370366 0.9294752 0.26304886 -1.1220429 0.4781184 0.22579202 1.4427557 -1.7878083
0.28021708 -1.3680798 -1.5419608 -0.47067118 -1.2241758 -0.50287676 0.9111593 -1.4514073
-1.367869 -0.6065518 0.10972674 1.2294017 -0.70962447 0.7672458 0.48539945 -0.46636224
0.32173163 2.231573 0.16877864 0.4084331 0.069359004 -0.082782514 0.2514754 -0.87409264
-1.9078983 1.1063032 -0.28719035 -1.5028291 -0.45366913 0.8361041 0.15041779 0.5066547
-1.0515317 0.88965756 -1.9401933 0.6501177 -0.42200518 0.34675542 0.45411876 1.3022125
-1.2778237 0.49413952 0.68233854 -1.2739211 0.35999364 0.5058998 1.0809753 1.5542338
0.056816727 -0.7402358 0.23367774 1.146832 -1.0421085 0.53415656 0.9007475 -0.03832773
-0.12602387 -0.6749135 0.24660972 -0.17648105 -0.516493 -0.39042836 0.29436943 0.39790168
-1.148261 -1.5780247 0.66360915 -0.24628904 0.7564797 0.06140297 0.9832716 -0.2940818
-0.16323945 -0.2532577 -1.9888635 -0.4468448 -0.22864471 0.37666795 0.29653198 1.4369187
-0.21440147 -0.38359353 0.015602827 1.1245608 -1.2056096 0.5150452 -2.2880182 1.292562
-0.9683218 1.8313116 -0.03732344 0.69621265 -1.5285265 0.8538423 -0.20630813 -1.7882922
-0.21129546 0.117838226 -0.2273904 -0.44706634 -0.52024347 -1.1650311 -0.6007188 0.62321717
-0.50754833 0.08476736 0.46899223 -0.16533455 -0.44985268 -1.8852229 0.8165495 0.26489553
-1.5609059 -0.19275963 -0.14856692 -0.14065677 0.75214 0.5171314 1.1224282 -0.2959131
1.000935 0.00041536134 1.306431 -0.35776252 -0.8725085 -0.77311033 -1.6502492 0.7210256
0.46482393 0.20026334 0.6545445 -0.74347734 0.73395425 -0.8998323 0.59492767 -0.98220927
-2.268804 -1.7100059 0.27322754 -0.20750044 0.049806003 -1.4212713 -0.8808972 0.53704995
0.4563791 2.443313 0.90303046 -0.36449325 -0.80694264 1.5176146 0.25344163 1.3200625
-0.18051337 1.0786947 -1.3947629 -0.51532555 1.1862503 0.069008425 1.8030473 -1.6705865
-1.0863593 -0.50407726 1.5481831 -1.0158005 0.067449905 -0.02231367 1.9401609 0.12167044
0.5906552 -2.282933 -0.38982734 0.1517182 -1.5503569 0.3378513 2.4584348 0.8696563
-1.1975965 -0.74137646 0.35411578 0.63039476 -1.5065223 1.6399231 -0.15747277 0.12165808

conv2.6.kernel f4 [64, 1, 3, 3]
00000000: 49bc b73f 1cfa 8c3e f6b1 f03e 5da4 633f
00000010: d1fc efbf 60b4 95bf 1d39 3e3f 4f3c 553f
00000020: 8251 a8be 6c18 ae3f 18ed 173f 4ae0 ccbf
00000030: 786c babf 682f 013f 27e8 923e 0bf8 04c0
00000040: 4cf4 3fbe f617 b2be 650a 37bf e721 393f
00000050: b21e 02c0 8a3d 65bf b58d 88bf 8aac 0dc0
00000060: 416f c7be adc9 3a3f c573 aabf d0bc a3bf
00000070: d38e f43e bb03 b63d ddaa 91bf b6db dcbd
00000080: d4a2 4c3f 8989 d5bf a03b 0a3f 17e0 16c0
00000090: 8ee4 543f 78f7 c7be 751b b63d 481a 423f
000000a0: d880 753e d3c6 ec3e 1f1a d23f 6f25 153d
000000b0: c5b8 2abe bc55 52bf 31b6 7d3f c800 d23c
000000c0: 7b0f 80bf 4d02 683f 2ec5 003e cf01 423f
000000d0: 14e3 3dbf 33b7 e43f 1379 35bf c00e 64be
000000e0: 4164 b43e a951 c3bd 32bf 25bf e5d3 763f
000000f0: 8573 f8bf 8117 42be 0af5 2cbe 04a2 f1be
00000100: 9735 f53b fc4f 20bf 2703 ccbe 7a0b be3d
00000110: d4c5 943f 9d2f c83e c7ec 223f ca86 9abf
00000120: c6cb dd3f b597 30bf 5e26 12bf d320 fe3e
00000130: a7af 993d e030 e8be ec61 bbbe eb96 46be
00000140: 94fd c8bf 68fa 953f 844c 24bf 3f06 82be
00000150: 4969 e7be 4390 aa3f 64d5 27bd 163b 5cbf
00000160: 07f5 e0bf 547b febf 4e54 0cc0 b2e0 12bf
00000170: a9b8 e03f 4a8e 2abf 8ed8 babe 0874 813f
00000180: 495d cdbe f74e 3cbf 6666 b3be cc20 743f
00000190: b55a 1f40 9500 0fbf 0acf 0abf dbd7 c5bf
000001a0: 9821 7b3f 4a14 25bf fa23 8b3f 77fd 15bf
000001b0: 4091 e63e 121c ecbe 06b8 963f 1e2b 8e3f
000001c0: 3e58 a6be 3a9e 81be d0fe 6a3f 3de7 2ebe
000001d0: b2a6 a33e 6dbf 83bf 72b4 6c3f 8439 9e3e
000001e0: 0ff7 abbf 0d6f 54bf 50c4 bdbf 4979 96bf
000001f0: 8c42 053e 542d 86bf fb83 c0bf 8f8c 71bf
00000200: 508c 9d3f 937e 71bf 23e9 f03e 826c 773f
00000210: 51ca 9bbf 665d 2e3f 5a3b a6be 9a68 783d
00000220: 7948 9cbe dc69 ba3f e3c4 3c3f aa71 113e
00000230: f031 b0be 392e dabd 1bf2 a8be 431a 8fbf
00000240: 69d0 8abe 0b3d 55bf 9d68 193d e023 aebf
00000250: 90c7 93bf 9960 cd3e 87f6 2340 7c55 e3bf
00000260: 9a6e 66bf 2263 aabe 9350 483f 53ad 1a3f
00000270: b01b 58bf b120 a0bf b298 833f a40b 08c0
00000280: fee7 0f3f 3d2d fe3e 4c54 903f fd00 213f
00000290: 2707 d2bf ab54 fb3f fb3f 29bf b7cf bcbf
000002a0: 0266 3240 e5d8 9dbe cf23 923e e930 75bf
000002b0: 49ed 5abf 0316 6c3f 5c60 07bf 6815 01bf
000002c0: 605f 77bf 8dd0 d63e fe55 173f 4971 f3be
000002d0: bbbe 80bf c36b 1ebf 034e 303f b27e 8a3e
000002e0: 8c1f cbbf 8dc3 813e 135e b2be bc05 96be
000002f0: 33cd ad3e de9c 5c3e 1dea 99be 0b93 c5bc
00000300: 92ea f73d f5ea 47be f6e5 f9bf a867 ffbf
00000310: 527d c4be e8c8 173f 4642 1440 f865 0fbf
00000320: 8d11 5dbf 6ad4 4dbf 80dd d1bf ff1e 113e
00000330: a7d3 183f ee07 803e c998 aebf bca7 b6bf
00000340: 61a5 14bf 2c21 913f a7d2 33be 515e 2fbe
00000350: aa2f 32bc 9ce3 5c3e addd ba3d 4d48 073f
00000360: 014f 1bbf f399 9d3e 4e18 a63e c712 a63e
00000370: d670 d73f 156a 93be ae1e 7abf b1b2 40bf
00000380: 615a df3e e7cd 9fbe 22ff c5be 13f4 063f
00000390: a291 623f a2aa 2e3f 226b 15c0 ad82 ab3e
000003a0: 6c87 e2bd 48b7 2b3f 02e7 ab3d 54cd 9abf
000003b0: 75d6 753f f33a b8be 8877 b7bf 7209 d13f
000003c0: 7529 13c0 5226 b03f 17f1 30bd 10c8 c3bf
000003d0: bd71 d53f 21f9 1d3f e825 72bf a51a 3d3e
000003e0: 3a44 173f 5aa9 ad3e f65f 99be 3c46 c63f
000003f0: 8fbc d8bd 690f 2b3f 0acb 3cbf 0b12 c6be
1.4354335 0.27534568 0.47010773 0.88922673 -1.8749028 -1.1695671 0.743059 0.8329515
-0.32874686 1.3601203 0.5934615 -1.6005948 -1.4564352 0.5046296 0.28692743 -2.0776393
-0.18745536 -0.34783906 -0.71500236 0.72317356 -2.0331235 -0.89547026 -1.0668246 -2.213656
-0.38952067 0.7296398 -1.331658 -1.2791996 0.47765216 0.0888743 -1.1380268 -0.10784094
0.79935956 -1.6682597 0.5399723 -2.3574274 0.83161247 -0.3905599 0.08891956 0.7582135
0.23974931 0.4624544 1.6414222 0.036412653 -0.16672046 -0.8216207 0.9910613 0.025635138
-1.0004724 0.9062851 0.12575218 0.7578401 -0.7417462 1.7868408 -0.7088787 -0.22271252
0.35232738 -0.0953706 -0.64744866 0.96417075 -1.9410254 -0.18954279 -0.1689035 -0.4719392
0.007483195 -0.62622046 -0.39846155 0.09279533 1.1622872 0.39098826 0.63642544 -1.2072384
1.7327812 -0.68981487 -0.57089794 0.49634418 0.07504206 -0.4534979 -0.36598146 -0.19393508
-1.5702386 1.1717043 -0.64179254 -0.2539539 -0.45197514 1.3325275 -0.04097499 -0.8602766
-1.7574776 -1.9881387 -2.1926455 -0.5737411 1.7556354 -0.66623366 -0.36493343 1.0113535
-0.40110233 -0.7355799 -0.3503906 0.95362544 2.4899113 -0.55860263 -0.54222167 -1.5456499
0.98098135 -0.64484084 1.0870354 -0.5858988 0.45032692 -0.46115166 1.177491 1.1106908
-0.32489198 -0.2531603 0.91795063 -0.17080398 0.31963116 -1.0292794 0.9246284 0.30903256
-1.3434771 -0.8298195 -1.4825535 -1.1755763 0.13013667 -1.0482583 -1.5040277 -0.943551
1.2308445 -0.9433376 0.4705287 0.96649945 -1.2171117 0.68111265 -0.32467157 0.06064663
-0.30524042 1.4563556 0.73737925 0.14203516 -0.344131 -0.106533475 -0.32997212 -1.117989
-0.2711213 -0.8329627 0.037453283 -1.3604698 -1.1545277 0.4011276 2.5619218 -1.7760463
-0.90012515 -0.33278757 0.78247947 0.6042072 -0.8441725 -1.2509977 1.0280974 -2.1257105
0.56213367 0.4964389 1.1275725 0.62892133 -1.6408433 1.9635214 -0.6611325 -1.475089
2.787476 -0.3082954 0.28542945 -0.95777756 -0.8551832 0.9222109 -0.5288141 -0.5042329
-0.96629906 0.41955987 0.5911559 -0.47547367 -1.0058206 -0.6188318 0.68869036 0.27049786
-1.5869002 0.25344506 -0.34837398 -0.2930125 0.33945617 0.21544215 -0.30061427 -0.024117967
0.121052876 -0.19523223 -1.9523304 -1.9953508 -0.38376862 0.59290934 2.316545 -0.56014967
-0.86354905 -0.80402243 -1.6395721 0.1417198 0.59697956 0.2500605 -1.3640376 -1.4269938
-0.5806485 1.1338248 -0.17560826 -0.17125823 -0.010875622 0.21571201 0.091243125 0.528447
-0.60667425 0.30781516 0.32440418 0.324362 1.683131 -0.28791872 -0.97703063 -0.7527266
0.4362364 -0.3121178 -0.38671213 0.5271618 0.8850347 0.68229115 -2.3346639 0.33498135
-0.11060986 0.6707654 0.083936706 -1.2093911 0.9603036 -0.35982475 -1.4333353 1.6331007
-2.2994053 1.3761694 -0.04319867 -1.5295429 1.6675335 0.61708266 -0.9458909 0.18467195
0.5908848 0.33918267 -0.29956025 1.5490184 -0.1058284 0.6682039 -0.73747313 -0.3868564

conv2.7.kernel f4 [64, 1, 3, 3]
00000000: 9738 8dbf 78fb 25bf dbd8 a73d 4966 e3bf
00000010: baed fdbf 4d25 703e 6142 d3be 3343 03bf
00000020: 59ef 35bf ca0a 4d3f 2359 bfbf 9cc5 b93f
00000030: c469 bf3f 8533 bb3f e907 1e3e e51b 2f3f
00000040: 6b6e db3f 7a70 a7be bcbb 063f bcab 933f
00000050: 2a1d b6bd 8933 a63f 4d6a 26c0 2605 cabf
00000060: e8f7 86bf f9fa 43bf f76a cc3d 5a23 22bf
00000070: 297d 5cbd 28e3 853f 91dd 593e c96b 31bf
00000080: 5275 16bf e2ad 26bf 28e0 d13e 8c80 083f
00000090: 6095 713f 98ba 89be 4525 d5be 159a ee3f
000000a0: 0e79 53be 8b76 e93d 76f7 1c40 4d26 52bf
000000b0: 5240 3b3f f6ff 92bf 2be8 57bb d9e1 4a3e
000000c0: 3604 023f 2e85 65bf c3a8 debf 1d46 1c3f
000000d0: bda9 793f 20f0 a3bf c076 2b3f 946c f3bf
000000e0: c230 b2bf 19f7 b3bf 821e 86be e2bd c4bf
000000f0: b99a 853e ee9f dc3e 2b3e 653f 939a eabe
00000100: 6b65 c1bc c4f6 66bb 758f babd 4597 14bf
00000110: b8fe 1abf 3fce 36be 0fdc d1bf 2e7d a5bf
00000120: 631f 483e 7901 0abe f0da 9c3e 1776 16bf
00000130: 2b26 4cbf 55ce 593f fb47 043f bafe 94bf
00000140: f054 9a3f 3095 bfbe b351 8e3e f74a b73d
00000150: b34b f43f ea85 ebbd 254d 9d3e 6887 eebe
00000160: ea47 183d c75f 01bf 33b3 ba3e 1966 723f
00000170: 26f2 1f3f 3683 2b3f f995 b33f 2834 d6bf
00000180: 58b2 8cbf 8863 10bf e328 17bf 604a cd3e
00000190: 25fa 7abf 7560 ad3f e02e 1d3e 614a 88be
000001a0: 87e0 0c3e fa5a f6bf e64b 09c0 e4e9 473f
000001b0: b587 393f a8e1 f5be c08a fb3f 6e8b 413d
000001c0: f058 563f 11a6 233f 12d2 febe bc06 a5be
000001d0: 2ff0 31bf c0ba 25be 68a1 cb3e d1d9 86bf
000001e0: 4bb0 973e 376d 15bf 2943 42bf 0866 81bf
000001f0: 6e0a f6be 3a0f ce3e 84b0 ac3d 7010 e23e
00000200: ae04 7f3e fc9e 203f cf20 0040 15cb babf
00000210: 8adc 1bbf 3b74 073f 8b21 7f3f 2ab3 cc3f
00000220: 35a3 29be f3f4 c43f d36c 523f 6aca 4bbe
00000230: 5974 ddbf b63d 8b3f 5d15 5b3f ad49 78bf
00000240: 332b d8be 8a19 0940 4175 363f cd52 ba3f
00000250: fdde 38bf 53b7 9abf ce7b 32bf 750e bbbf
00000260: ba91 b13b 4d42 253e 2ef7 413f 3f43 26bf
00000270: d5a2 09bf 19eb b6bd 1922 88bd dd18 953f
00000280: a2ca 233f e9a8 babf 70d0 cb3f 20a7 1a3e
00000290: 2413 c3bd d70f 763d 1a5e 313f 9370 c8bf
000002a0: e526 943f d5f3 57bf 131c e4bd be6d 05be
000002b0: 4b55 38bf 7f0c b8bf fe97 1dbf aa50 d83e
000002c0: 745b 893e 490d b03e 3707 9e3e 98ab 1b3e
000002d0: d25d 30bf dd72 ddbf ddaa 09c0 3c71 dabf
000002e0: 1463 17be 2ea1 9f3f 7345 393f ea7f b5bd
000002f0: f097 0abf 7654 d33e bd15 9bbf 7d60 a73f
00000300: 0c58 4cbf 65f9 2bbd fa5c 283e b2c5 23be
00000310: a4ed b6be d387 d2bf f97a 653f e996 8bbe
00000320: dd54 5e3e 1982 f43e 4571 083e 8748 4bc0
00000330: c8ea 8c3f 6797 683e bf98 52bf 00ad b23d
00000340: 1f7a 29bf 6bfd 3f3f ea70 36bf 56ce 10bf
00000350: 209f b53e fa0d d03f e691 82bf 8445 ea3f
00000360: 9989 203f 6d92 ec3e 12f0 01bf 5890 7fbe
00000370: 2ad2 6f3e 7fc0 c4be 57e7 7e3f f693 e43e
00000380: d307 1d3e 5123 5bbd f128 9fbf 3e03 1abf
00000390: 362d 143e 9354 2dbf 44bd 6d3e f8ea 653f
000003a0: f68c cabf 249a b23e ebab 763f 254f a73f
000003b0: ed85 e6bf ea8c c73e a363 83be 857a 953f
000003c0: b3c0 ad3e f1a1 1fc0 0a43 5c3e 2cb5 35bf
000003d0: 8494 3d3f 30c2 c53e bad3 cd3d 3313 233f
000003e0: 0087 933e 77f9 39bf e402 223e adf3 78bf
000003f0: b912 793e 7a95 cb3f 81c6 243f 91fc 13c0
-1.1032895 -0.64836836 0.08195659 -1.776559 -1.9838173 0.23451729 -0.4126158 -0.5127441
-0.7106834 0.8009459 -1.4949077 1.451343 1.4954152 1.4625098 0.15432705 0.6840194
1.7143072 -0.32703 0.5263021 1.1536784 -0.08892281 1.2984477 -2.600238 -1.5782821
-1.0544405 -0.7655483 0.099813394 -0.6333519 -0.0538303 1.0459948 0.21275927 -0.6930509
-0.58772767 -0.65109074 0.4099133 0.53321147 0.94368553 -0.26900172 -0.41629997 1.8640772
-0.20651647 0.113995634 2.4526038 -0.8208969 0.7314502 -1.1484363 -0.003294478 0.19812717
0.50787675 -0.8965634 -1.7395252 0.61044484 0.97524625 -1.2807655 0.66978073 -1.901751
-1.392113 -1.4059783 -0.2619515 -1.5370448 0.26094607 0.43090767 0.89547986 -0.45821056
-0.02360793 -0.0035242299 -0.091093935 -0.5804332 -0.6054492 -0.17852114 -1.6395282 -1.2928827
0.19543223 -0.13477124 0.30635786 -0.5877394 -0.7974574 0.8508046 0.51672333 -1.1640236
1.2057171 -0.3741851 0.27796707 0.08949845 1.9085602 -0.115001515 0.3072292 -0.46587682
0.037177958 -0.5053677 0.36464843 0.9468704 0.62478864 0.66997087 1.4030143 -1.6734667
-1.0991926 -0.5640187 -0.59046763 0.40095806 -0.9803794 1.3545061 0.15349913 -0.26619247
0.13757525 -1.9246514 -2.1452575 0.78091264 0.724727 -0.48023725 1.9651718 0.04725211
0.8372946 0.6392527 -0.49769646 -0.322317 -0.69507116 -0.1618452 0.3977158 -1.0535222
0.29626688 -0.58369774 -0.7588373 -1.0109262 -0.48054832 0.40245992 0.08432105 0.44153166
0.24904129 0.6274259 2.0020025 -1.4593226 -0.6088339 0.5291173 0.9966056 1.5992177
-0.16566165 1.5387253 0.821973 -0.19901434 -1.7301131 1.0878208 0.8557947 -0.9698742
-0.42220458 2.1421838 0.71272665 1.4556519 -0.72215253 -1.2087196 -0.6972016 -1.4613787
0.0054189833 0.16138573 0.7576779 -0.6494636 -0.53764087 -0.0893156 -0.066471286 1.1648213
0.6398107 -1.4582797 1.5922985 0.15102816 -0.09525135 0.0600737 0.6928421 -1.5659355
1.157437 -0.84356433 -0.11138167 -0.13030145 -0.72005147 -1.4378814 -0.61560047 0.42249042
0.26827586 0.34385136 0.3086488 0.15202177 -0.6889316 -1.7300678 -2.1510537 -1.7065806
-0.14783889 1.2471063 0.72371596 -0.08862288 -0.5413809 0.41275376 -1.2116009 1.3076321
-0.7982185 -0.041985888 0.16441718 -0.15993384 -0.3572818 -1.64477 0.89640766 -0.27263573
0.2171206 0.47755507 0.13324459 -3.1763017 1.100915 0.22714005 -0.8226432 0.087244034
-0.66201967 0.7499606 -0.71266043 -0.56564844 0.35472965 1.6254265 -1.0200775 1.8302464
0.6270996 0.46205464 -0.50756943 -0.24957407 0.23420015 -0.38428113 0.99571747 0.44644135
0.15335016 -0.053500477 -1.2434369 -0.601612 0.14470372 -0.67707175 0.2321673 0.8981166
-1.5824268 0.34883225 0.96356076 1.3071028 -1.8009621 0.38974696 -0.25661954 1.1678015
0.3393608 -2.494259 0.21509948 -0.7097957 0.7405474 0.38624716 0.10050149 0.6370117
0.28813934 -0.7264628 0.15821415 -0.9724682 0.24323548 1.5904992 0.6436539 -2.3122904
