Models/TCSVT_Encoder_Base.model (torch, 54848 bytes, 10 tensors)

conv1.0.kernel f4 [64, 1, 3, 3]
-1.2861587 -1.0026242 -0.97226983 -0.51576716 1.8820753 -0.0129149 -1.4107488 0.37708396
-2.1989193 0.9538892 0.88416916 0.31524697 -0.20491986 -1.1434637 0.45683253 1.3844618
-0.56248844 1.3151177 -2.5208297 0.45721376 -2.1393564 -0.33987218 1.9977129 0.09542418
-1.2153065 -0.8702335 -2.0297854 0.97628766 -0.018510176 -0.0039184988 -0.25555378 -0.30266485
0.18429476 0.22387841 -0.049641307 0.7560324 -0.5900574 -0.11725946 -0.86586934 -0.0858849
0.19964075 0.53899455 -0.8599641 0.49641353 -1.1988008 1.2132313 0.25635964 0.82439524
-0.9163935 -1.1051629 1.0542787 1.933435 0.011671369 0.3066704 -1.263869 0.4008581
-0.89482135 0.0054392037 0.8316531 -0.11917785 -0.44668084 -0.57861423 -0.6868754 -0.98511255
-0.16230434 -1.0798465 0.36339802 1.0876752 -0.5256893 -1.5551937 -0.09305465 -0.53035176
1.5299642 0.03314213 1.8752292 0.002485612 -1.420744 -0.015804255 1.8255777 0.082616605
1.4767666 1.8637787 -0.0127990395 1.8585616 -0.64875656 -0.88704824 -0.02651452 2.4018562
-0.491412 1.7413421 1.9137368 -0.14319268 2.4352076 0.013379361 -1.8669732 0.079638325
2.1393127 0.46306455 1.530366 -0.040382337 -0.63600093 0.6442213 0.6254887 -0.15565304
-0.45354402 -0.6382368 0.8046045 -0.21008429 -0.66778487 -0.14627616 -1.3783188 -0.35119933
0.6039375 0.6675831 -1.1173798 0.36557823 -1.4238273 -0.2360046 -0.53777194 -1.0958173
-0.47467363 1.1858611 0.07866091 -1.0980583 0.026636915 -0.78532106 -1.841779 -0.16398488
-1.2281938 0.82462007 0.55984753 -0.036175046 -2.1721246 0.85555804 -1.8738656 1.3849686
1.3170552 0.53833693 -0.44143683 -1.7896436 0.8838948 2.2614014 -0.765906 1.712904
-0.30317387 -0.2955429 0.61336774 0.6517243 0.7494392 -1.4141936 -0.33760068 -0.4742824
0.85090923 -0.6872108 -1.6555672 -1.0558667 -1.1108845 3.0026476 -0.49686822 -1.5590664
-0.036560155 -1.7734594 0.46573752 0.2639401 2.2035823 0.64443356 -0.4857204 -1.3952298
1.7585392 -0.90159005 2.066476 2.1042867 -0.5011868 1.461189 -0.5418118 -1.1585679
0.42873687 1.4275753 0.496522 1.0683126 2.3176403 0.13997233 1.176109 -1.3980414
-1.3066531 1.2019271 2.6638505 -0.23038349 1.1257521 -1.1679938 0.06130817 -2.2243745
-0.21546748 1.6711696 -0.059681434 -1.8419428 -0.50406003 -0.9170187 -0.760603 -1.3279594
0.0066125705 -0.5652774 1.6399567 -0.22206593 -0.758463 0.5087632 -1.8379829 -1.5484521
0.5937339 -1.3934487 0.56410563 1.0530092 -0.6356747 -1.2804478 -0.78712314 -0.21761186
0.76811475 -1.0723811 1.4112387 0.6349853 0.100491546 -1.1805599 -0.34573144 0.56018466
0.86726886 1.1297567 0.31573868 1.8422922 0.76123196 -1.7814089 -0.32753542 1.3529733
0.17078069 1.7251973 0.9759217 0.15708324 0.991777 0.72293264 -0.74464893 -0.8538494
0.3837902 -0.24380471 1.9632168 -0.6980199 -0.3967688 -1.0000285 -0.063728034 0.80111223
0.13967513 -1.2833815 0.37317032 -1.1650189 -0.9454812 -1.5440156 -1.4375983 -1.764446
00000000: d9a0 a4bf fd55 80bf ade6 78bf 5109 04bf
00000010: d8e7 f03f 0499 53bc 6b93 b4bf 2611 c13e
00000020: 18bb 0cc0 1532 743f e958 623f 0d68 a13e
00000030: 83d6 51be 055d 92bf f4e5 e93e 0b36 b13f
00000040: 3eff 0fbf c755 a83f 4655 21c0 ec17 ea3e
00000050: 37eb 08c0 ba03 aebe 0eb5 ff3f c16d c33d
00000060: 2a8f 9bbf 9fc7 5ebf 01e8 01c0 fded 793f
00000070: a7a2 97bc c066 80bb f2d7 82be e3f6 9abe
00000080: c4b7 3c3e 6240 653e af54 4bbd 578b 413f
00000090: 000e 17bf ba25 f0bd 9da9 5dbf 6ce4 afbd
000000a0: a06e 4c3e 8cfb 093f 9b26 5cbf ea29 fe3e
000000b0: 4e72 99bf 2a4b 9b3f 9241 833e 910b 533f
000000c0: c498 6abf fa75 8dbf 9bf2 863f cc7a f73f
000000d0: 4539 3f3c e703 9d3e 76c6 a1bf 463d cd3e
000000e0: 0313 65bf 593b b23b 38e7 543f 8413 f4bd
000000f0: 5ab3 e4be 1020 14bf 11d7 2fbf 5630 7cbf
00000100: 1c33 26be 6938 8abf 4e0f ba3e f138 8b3f
00000110: 9393 06bf 9610 c7bf 7093 bebd 22c5 07bf
00000120: ded5 c33f 0bc0 073d 8307 f03f a6e5 223b
00000130: f0da b5bf ed77 81bc 88ac e93f e532 a93d
00000140: b006 bd3f 4d90 ee3f 10b3 51bc 59e5 ed3f
00000150: e914 26bf 9815 63bf fb34 d9bc 03b8 1940
00000160: 5b9a fbbe 4ce4 de3f 54f5 f43f 1aa1 12be
00000170: 71da 1b40 1b35 5b3c faf8 eebf 6b19 a33d
00000180: 80ea 0840 cc16 ed3e 08e3 c33f f367 25bd
00000190: f5d0 22bf b0eb 243f 0720 203f 8363 1fbe
000001a0: ec36 e8be 7d63 23bf 8ffa 4d3f 5620 57be
000001b0: f3f3 2abf 6bc9 15be c06c b0bf 66d0 b3be
000001c0: a69b 1a3f bae6 2a3f 4d06 8fbf 122d bb3e
000001d0: f93f b6bf 31ab 71be 6cab 09bf be43 8cbf
000001e0: 6c08 f3be 4cca 973f f918 a13d 2d8d 8cbf
000001f0: a935 da3c cd0a 49bf 6abf ebbf a7eb 27be
00000200: 7435 9dbf 4d1a 533f 2b52 0f3f 492c 14bd
00000210: 1704 0bc0 da05 5b3f d4da efbf a746 b13f
00000220: 4495 a83f 73d0 093f 0204 e2be 0b13 e5bf
00000230: ee46 623f cdba 1040 6a12 44bf 7040 db3f
00000240: 9b39 9bbe 6651 97be ab05 1d3f 67d7 263f
00000250: 3fdb 3f3f 4c04 b5bf ffd9 acbe 25d5 f2be
00000260: 30d5 593f 0ced 2fbf a0e9 d3bf a426 87bf
00000270: 7731 8ebf 612b 4040 8365 febe 7d8f c7bf
00000280: 1ac0 15bd b800 e3bf 2675 ee3e 2823 873e
00000290: 7e07 0d40 99f9 243f 58b0 f8be e496 b2bf
000002a0: d017 e13f 9bce 66bf 2541 0440 a2ac 0640
000002b0: c74d 00bf 3e08 bb3f 2eb4 0abf f44b 94bf
000002c0: 6683 db3e caba b63f 2238 fe3e 78be 883f
000002d0: 3854 1440 e854 0f3e bd8a 963f 05f3 b2bf
000002e0: 6940 a7bf bfd8 993f 877c 2a40 a6e9 6bbe
000002f0: a518 903f d280 95bf 471e 7b3d 275c 0ec0
00000300: 82a3 5cbe e3e8 d53f 8574 74bd c8c4 ebbf
00000310: 140a 01bf bdc1 6abf e1b6 42bf 93fa a9bf
00000320: 43ae d83b 05b6 10bf 1aea d13f 4065 63be
00000330: a22a 42bf 4e3e 023f 0643 ebbf ae33 c6bf
00000340: f2fe 173f 875c b2bf 3a69 103f 01c9 863f
00000350: 94bb 22bf b7e5 a3bf e780 49bf a5d5 5ebe
00000360: 2ba3 443f c943 89bf 78a3 b43f 668e 223f
00000370: 83ce cd3d 961c 97bf b603 b1be 4368 0f3f
00000380: 5505 5e3f de9b 903f 80a8 a13e 3bd0 eb3f
00000390: 19e0 423f 3505 e4bf b9b2 a7be 3b2e ad3f
000003a0: 22e1 2e3e 44d3 dc3f 01d6 793f 6eda 203e
000003b0: 19e5 7d3f 1d12 393f 50a1 3ebf e095 5abf
000003c0: 2680 c43e f1a7 79be b04a fb3f 6fb1 32bf
000003d0: 4825 cbbe ef00 80bf d883 82bd b115 4d3f
000003e0: ff06 0f3e d845 a4bf 2e10 bf3e 571f 95bf
000003f0: 0e0b 72bf 4ea2 c5bf 3903 b8bf 5ed9 e1bf

conv1.1.kernel f4 [64, 1, 3, 3]
-0.16848254 0.46341756 -1.5478591 0.5100984 -1.5941505 -1.7361468 -0.62700605 -2.3860402
1.2603837 -1.2197856 1.8614057 0.12697336 -1.6526062 1.4072393 2.0081027 -0.12833612
1.4742757 1.6828856 1.8943824 -1.6566184 -2.0067422 1.2876872 -1.5622113 -1.556782
1.261208 -0.94494295 -2.5604305 1.8914998 -0.11267136 -0.24048337 0.956624 1.4933022
-1.4559443 1.9180653 0.654188 1.6698726 1.3467907 -0.50252235 0.576468 0.91341364
2.9288447 -1.2307956 0.6914434 0.6931594 0.78263545 0.32524207 -0.390574 -1.0472536
0.9969975 -0.590405 0.2698677 0.4620646 -1.4543791 -0.73860365 -1.1417415 1.4428508
-1.7961577 -0.55575776 2.7129824 0.35751966 0.857056 -0.6527054 0.00060872093 1.1190804
0.4988467 1.8449033 -0.53560084 -0.14515428 1.4196252 0.47029606 0.65391237 0.1384665
1.0792831 -0.30730188 0.20584321 0.5635568 0.44850004 -3.204172 -0.21180618 -0.7145711
-1.3514532 -0.38504916 0.60284203 1.7350698 0.7484925 1.653809 0.23390813 0.8214745
1.5073764 0.51370203 0.5384779 1.629683 -0.65423983 0.17117207 -2.35001 3.0051348
0.75909746 2.1861188 -1.6393985 0.39050362 1.3371463 0.35115847 -0.9286739 1.1432471
0.09758148 2.6021695 0.7309216 -1.0573597 0.028510036 1.4007534 0.9980878 1.1396443
-1.1817601 0.31876007 0.65626395 0.17331165 1.6947455 -0.78006697 1.6304288 -0.42613894
0.9183489 0.5595312 -0.028445216 -0.634151 0.022168506 0.5162293 0.046975885 1.3155093
-0.8734966 1.5337722 2.0055232 0.5055552 1.3948073 2.1231706 1.8589114 0.828863
-1.0895255 -0.71311677 0.42587784 -0.36704877 -0.8513543 0.64923286 -1.1790463 -0.5948694
-0.15395176 -0.00053432194 1.0085168 2.8341987 1.9227873 -2.3324604 1.7453163 0.11834897
-0.9905138 -2.598661 -0.3424724 2.0029128 0.024026966 0.70536566 -0.26072776 1.4556131
0.15023161 0.1583111 0.057931285 0.032206204 0.8301713 -0.97226596 0.6426303 1.1045597
-0.5533105 0.8679156 -1.2161565 1.1337951 0.93854934 0.48181015 1.8044472 1.3737724
0.8879139 0.5730858 0.070280686 0.2510949 -0.52626693 2.501288 0.6085849 1.7237908
2.1433887 -0.48962834 -0.70938694 0.019810904 0.0111683225 0.14037758 -1.4875431 -0.1031403
-2.096155 -0.5632226 1.1737272 1.752677 -1.2819362 1.0008413 -0.7057951 0.85173184
-0.29998308 0.5065957 0.6861438 2.125164 2.2068348 1.7243595 0.040431343 -1.468778
1.6211879 -1.5460835 -0.34104693 -2.5372455 -0.46055463 0.28069603 -1.0624589 0.9468028
1.2998312 -0.22672357 -0.26314557 -0.16641918 -0.80373526 -1.617481 -0.42076793 -0.4539381
-3.7070458 -0.734488 -1.6199188 1.9935862 -1.214367 3.2633262 0.2396177 0.019729078
0.4224839 0.49846137 1.2947747 -0.59913045 -0.29784405 -0.26545018 0.20152362 1.4093424
-1.7751937 0.6827501 -1.5426662 1.0903949 -0.64203936 0.5601659 -1.7636062 -0.39222127
-0.4181264 -1.1123399 -0.6361602 -0.06558532 0.8822804 0.35867867 -0.6342648 -0.65255105
00000000: b086 2cbe 1145 ed3e 3f20 c6bf cf95 023f
00000010: 200d ccbf 0f3a debf 7883 20bf e2b4 18c0
00000020: 4154 a13f ef21 9cbf 8b42 ee3f 4e05 023e
00000030: 9a88 d3bf 6b20 b43f c184 0040 8b6a 03be
00000040: 11b5 bc3f cc68 d73f 1f7b f23f 120c d4bf
00000050: 776e 00c0 efd2 a43f 8af6 c7bf a244 c7bf
00000060: 446f a13f c8e7 71bf 18de 23c0 aa1c f23f
00000070: 3ec0 e6bd 4641 76be 4fe5 743f 8724 bf3f
00000080: 625c babf 2a83 f53f dd78 273f 63be d53f
00000090: a363 ac3f 4ea5 00bf 6893 133f 7ad5 693f
000000a0: 3172 3b40 b68a 9dbf 6f02 313f e572 313f
000000b0: cc5a 483f 2186 a63e 51f9 c7be 680c 86bf
000000c0: 3a3b 7f3f c824 17bf 192c 8a3e bb93 ec3e
000000d0: 1829 babf 2115 3dbf 9624 92bf 56af b83f
000000e0: 7fe8 e5bf 2446 0ebf 81a1 2d40 d10c b73e
000000f0: 0668 5b3f b317 27bf 9292 1f3a 073e 8f3f
00000100: d668 ff3e cb25 ec3f 231d 09bf 53a3 14be
00000110: 47b6 b53f a5ca f03e cd66 273f 2aca 0d3e
00000120: f325 8a3f ac56 9dbe 90c8 523e 4245 103f
00000130: cca1 e53e 2711 4dc0 b8e3 58be 22ee 36bf
00000140: 6bfc acbf 2a25 c5be db53 1a3f c416 de3f
00000150: 349d 3f3f 03b0 d33f 9d85 6f3e 274c 523f
00000160: b6f1 c03f fa81 033f b0d9 093f 7499 d03f
00000170: 437c 27bf bb47 2f3e 9066 16c0 2154 4040
00000180: 3654 423f 5fe9 0b40 cfd7 d1bf 17f0 c73e
00000190: 9c27 ab3f 0bcb b33e 93bd 6dbf ec55 923f
000001a0: cdd8 c73d f289 2640 ae1d 3b3f 9057 87bf
000001b0: e18d e93c e34b b33f af82 7f3f dddf 913f
000001c0: ea43 97bf 8534 a33e ea00 283f 9c78 313e
000001d0: 6ced d83f 78b2 47bf e4b1 d03f e22e dabe
000001e0: ea18 6b3f 703d 0f3f f105 e9bc b857 22bf
000001f0: ba9a b53c 9a27 043f c969 403d 9c62 a83f
00000200: 799d 5fbf a652 c43f 7e5a 0040 116c 013f
00000210: 0c89 b23f 07e2 0740 cff0 ed3f 5e30 543f
00000220: 9275 8bbf d28e 36bf a90c da3e d1ed bbbe
00000230: 5bf2 59bf 2034 263f fdea 96bf 5c49 18bf
00000240: 88a5 1dbe bd11 0cba 1417 813f 8363 3540
00000250: e51d f63f 0847 15c0 8666 df3f f260 f23d
00000260: 5092 7dbf 7650 26c0 8b58 afbe b92f 0040
00000270: 33d4 c43c d892 343f 1c7e 85be 8851 ba3f
00000280: 51d6 193e 4e1c 223e 5b49 6d3d a7ea 033d
00000290: 1b86 543f 6ce6 78bf 6b83 243f 3662 8d3f
000002a0: c2a5 0dbf b72f 5e3f 04ab 9bbf 3320 913f
000002b0: c544 703f d2af f63e 20f8 e63f c6d7 af3f
000002c0: 534e 633f c0b5 123f 52ef 8f3d 838f 803e
000002d0: 6eb9 06bf 1a15 2040 38cc 1b3f 2da5 dc3f
000002e0: 482d 0940 91b0 fabe 629a 35bf 7a4a a23c
000002f0: 57fb 363c 24bf 0f3e d067 bebf 393b d3bd
00000300: 6727 06c0 5b2f 10bf b13c 963f b857 e03f
00000310: 7c16 a4bf 911b 803f fdae 34bf 190b 5a3f
00000320: 6297 99be 41b0 013f 1fa7 2f3f b002 0840
00000330: c83c 0d40 d0b7 dc3f 569b 253d eb00 bcbf
00000340: 1683 cf3f 10e6 c5bf b49d aebe 3b62 22c0
00000350: d1cd ebbe 64b7 8f3e a7fe 87bf ab61 723f
00000360: de60 a63f 392a 68be 04bb 86be ca69 2abe
00000370: 98c1 4dbf 9e09 cfbf e56e d7be 936a e8be
00000380: 3d40 6dc0 6807 3cbf 8059 cfbf d52d ff3f
00000390: 6170 9bbf 56da 5040 585e 753e e09e a13c
000003a0: cf4f d83e 5436 ff3e 2dbb a53f 9d60 19bf
000003b0: 047f 98be 16e9 87be 355c 4e3e 5565 b43f
000003c0: 8c39 e3bf b6c8 2e3f 1676 c5bf 0f92 8b3f
000003d0: b15c 24bf 0867 0f3f d9bd e1bf 3ad1 c8be
000003e0: aa14 d6be 2761 8ebf 65db 22bf 9951 86bd
000003f0: 21dd 613f bba4 b73e 2e5f 22bf 960d 27bf

conv1.2.kernel f4 [64, 1, 3, 3]
-0.9057667 0.9387746 -1.619397 -0.96656364 0.112967215 -2.0255601 -0.4764185 0.43198502
-0.5219632 0.19896942 1.4929726 1.4850992 0.62067765 -0.77561253 -1.3875092 0.033005677
0.0661155 0.41941428 -0.7868222 1.622654 1.6598964 -0.18791439 0.012360839 1.418867
-0.2056943 1.7853863 0.6109423 -0.41183096 0.86047494 -0.28691658 -0.07812922 -0.23532
-2.432573 -0.81255066 -0.59010243 0.41806054 -1.4128736 -0.04182038 0.13900469 1.3999097
-0.8138649 -0.41507968 -1.7797722 0.6737252 0.11603106 -0.23997329 1.6345234 -1.2689984
-0.023526603 -0.62649226 0.5685471 -0.851075 -0.025979647 1.4515082 -0.64338154 -1.9405936
-1.7809883 1.0928354 0.16075201 2.1100912 -1.9387877 -1.4497383 -1.9436096 1.0310191
-0.31796592 0.016523097 -0.66606027 0.40776193 -1.1597707 0.67867213 -0.57338536 1.5392306
0.2587415 1.1753467 -0.85436565 -0.5168776 -0.55881464 0.5463641 0.11103694 0.30605462
0.15812485 -0.14755172 -0.79713666 0.28048182 -0.6102088 0.4370489 -0.7511276 0.9463195
0.21070607 -1.7067717 -1.0623511 1.2239873 -0.25411084 1.3975406 0.01843027 1.1070997
0.27481362 -1.6855396 1.2601666 -1.7223876 -0.74217933 -0.3556327 -0.89570636 -0.27988115
-1.873166 -1.6576743 -0.66258574 0.4190371 -0.81920296 -0.99339706 -1.0134649 -2.3382194
1.0729754 0.51915574 -1.3246549 -0.28710178 -0.23731686 0.5851096 2.7619777 -0.113147885
-1.1926757 -0.39398694 -0.0032140594 1.3260293 -0.40242672 -1.1177763 -1.968108 0.64745086
1.0562633 0.6280657 -0.82075727 -0.022467306 -1.0614117 -0.45484835 -1.3629239 -1.2610209
-0.53194773 -1.1984068 -1.8282031 -0.03908301 -1.0638967 -0.23974067 -0.99757934 -0.5588232
1.5767872 -0.11044428 -1.3709271 0.8559785 0.02917055 -1.2450149 1.4080993 -1.1263279
-0.80019206 0.7365801 -0.9159816 0.86284816 1.3041319 -0.42772475 1.3813288 0.6520928
0.8123393 0.35699305 -1.4485819 -1.1997242 -1.5060349 0.38815913 1.2227142 -0.36077645
-0.9156053 -1.1509058 -1.1725227 0.54826874 -0.48034462 -1.0269297 -1.1408111 -0.78107744
-1.3134387 -0.022005288 0.53477573 -0.81145513 0.25872657 -2.4562764 0.21866605 1.6408833
-0.26805282 2.4804826 0.5867012 0.41759127 -0.37015897 -1.6890516 -0.8241405 -0.8253235
1.8066251 0.6306226 -0.9622912 -1.1132396 -1.476733 -1.3353672 1.1844755 1.4541756
-1.7781718 -0.4836412 -0.43374103 0.28096217 0.94664043 0.07775792 1.1042289 -1.646544
0.5239466 -0.5863248 0.3128668 0.15261364 0.3129022 0.28751525 -2.0370505 -0.6010822
-0.9975458 -0.6074522 -1.522083 0.62171394 0.2086962 0.5477158 0.019231357 -0.53394336
-2.0673742 0.6248961 0.17710625 -0.21279937 -0.7381044 0.8644807 0.19946256 0.16285476
0.49919662 -0.7165099 -0.03208582 0.56162864 2.3514895 0.18329617 0.76066184 -0.8877253
0.8872933 0.11878244 1.3537055 0.25974056 -0.34628823 0.7408972 -0.37236053 -0.51916087
0.11408215 0.6383141 0.7192262 0.44802836 -1.1838685 -1.3295037 -0.3390739 1.8296824
00000000: 54e0 67bf 8853 703f 6748 cfbf b770 77bf
00000010: 5b5b e73d c7a2 01c0 20ed f3be 242d dd3e
00000020: 619f 05bf a4be 4b3e ba19 bf3f bb17 be3f
00000030: bbe4 1e3f 8b8e 46bf e799 b1bf f630 073d
00000040: 9067 873d 78bd d63e 2e6d 49bf 20b3 cf3f
00000050: 7c77 d43f a16c 40be 1e85 4a3c 6f9d b53f
00000060: 87a1 52be 8a87 e43f b766 1c3f 82db d2be
00000070: 1648 5c3f bbe6 92be 3602 a0bd baf7 70be
00000080: 47af 1bc0 5203 50bf f410 17bf 080c d63e
00000090: 0bd9 b4bf d94b 2bbd 3f57 0e3e 3e30 b33f
000000a0: 7359 50bf 5385 d4be 93cf e3bf 4179 2c3f
000000b0: b1a1 ed3d 8fbb 75be 1038 d13f 8a6e a2bf
000000c0: ddba c0bc cc61 20bf 4e8c 113f 0de0 59bf
000000d0: 45d3 d4bc 05cb b93f a7b4 24bf 5f65 f8bf
000000e0: 6df7 e3bf 08e2 8b3f 2d9c 243e bc0b 0740
000000f0: 322a f8bf 0691 b9bf 33c8 f8bf 6ff8 833f
00000100: 6ecc a2be 725b 873c ed82 2abf 2cc6 d03e
00000110: 5e73 94bf 75bd 2d3f 62c9 12bf 8205 c53f
00000120: c479 843e c371 963f b5b7 5abf 1752 04bf
00000130: 7a0e 0fbf 85de 0b3f 5667 e33d 31b3 9c3e
00000140: 7beb 213e cc17 17be 2611 4cbf 509b 8f3e
00000150: a536 1cbf e0c4 df3e e649 40bf ff41 723f
00000160: 55c3 573e 7f77 dabf 1ffb 87bf 9eab 9c3f
00000170: d11a 82be 9ce2 b23f 14fb 963c 71b5 8d3f
00000180: 5fb4 8c3e c3bf d7bf 244d a13f 3277 dcbf
00000190: 77ff 3dbf 7d15 b6be 034d 65bf 954c 8fbe
000001a0: e7c3 efbf ac2e d4bf 389f 29bf 088c d63e
000001b0: 49b7 51bf 454f 7ebf 38b9 81bf 63a5 15c0
000001c0: 4257 893f 64e7 043f 4b8e a9bf 01ff 92be
000001d0: 3103 73be bec9 153f 3ec4 3040 14ba e7bd
000001e0: 99a9 98bf a8b8 c9be f8a2 52bb 54bb a93f
000001f0: e00a cebe 4b13 8fbf f7ea fbbf 57bf 253f
00000200: a333 873f eac8 203f 261d 52bf 5b0d b8bc
00000210: 57dc 87bf e2e1 e8be 4a74 aebf 2269 a1bf
00000220: ba2d 08bf 6565 99bf 8f02 eabf 8215 20bd
00000230: c42d 88bf 947e 75be 5c61 7fbf 0a0f 0fbf
00000240: 2ad4 c93f 9c30 e2bd 8a7a afbf 6821 5b3f
00000250: 14f7 ee3c a65c 9fbf 993c b43f 832b 90bf
00000260: 63d9 4cbf 8390 3c3f c57d 6abf 9ee3 5c3f
00000270: cbed a63f bdfe dabe 62cf b03f 8eef 263f
00000280: 78f5 4f3f cbc7 b63e 226b b9bf 9090 99bf
00000290: c0c5 c0bf cbbc c63e e681 9c3f b1b7 b8be
000002a0: 1c65 6abf e250 93bf 3915 96bf 575b 0c3f
000002b0: bbef f5be 6f72 83bf 1906 92bf b1f4 47bf
000002c0: c21e a8bf 6f44 b4bc 10e7 083f 86bb 4fbf
000002d0: cf77 843e a233 1dc0 fee9 5f3e 7708 d23f
000002e0: 383e 89be 3ac0 1e40 0d32 163f 86ce d53e
000002f0: 7a85 bdbe d832 d8bf dffa 52bf 6748 53bf
00000300: 7e3f e73f 7c70 213f b758 76bf a37e 8ebf
00000310: 9605 bdbf 50ed aabf e59c 973f 6d22 ba3f
00000320: 229b e3bf d29f f7be 4e13 debe 46da 8f3e
00000330: 0757 723f 8b3f 9f3d 5f57 8d3f f4c1 d2bf
00000340: 5d21 063f 6219 16bf 1430 a03e c046 1c3e
00000350: b834 a03e 3335 933e 095f 02c0 86e0 19bf
00000360: 295f 7fbf fd81 1bbf 9ed3 c2bf a528 1f3f
00000370: 75b4 553e 1a37 0c3f 148b 9d3c 83b0 08bf
00000380: dc4f 04c0 31f9 1f3f 575b 353e 14e8 59be
00000390: 69f4 3cbf 9b4e 5d3f ea3f 4c3e 66c3 263e
000003a0: b396 ff3e 316d 37bf 6c6c 03bd e5c6 0f3f
000003b0: ce7e 1640 feb1 3b3e bcba 423f f741 63bf
000003c0: a725 633f 3544 f33d 3946 ad3f b7fc 843e
000003d0: b14c b1be 70ab 3d3f 0aa6 bebe bae7 04bf
000003e0: e7a3 e93d 8e68 233f 351f 383f f963 e53e
000003f0: 0189 97bf 2d2d aabf 189b adbe 0833 ea3f

conv1.3.kernel f4 [64, 1, 3, 3]
0.20474857 -0.35152435 0.87543 -1.0042477 -0.15069844 0.22675225 -2.6218786 -2.1450596
0.11574744 1.1621343 0.38494876 1.1289036 -2.8651977 -0.5725785 1.00622 -1.3354115
-1.8207272 -0.634982 0.72865564 -1.4453298 -0.35154343 -0.19642474 0.0785472 -1.0091949
-2.1024144 -0.6557177 -0.08111234 0.4598055 -1.3443741 -0.23826076 -1.1262882 0.24667138
0.11743008 0.9850758 1.2970275 -0.3470181 0.13952835 -1.3878086 -2.43986 1.2169038
-1.4588656 -1.7135067 0.5787872 1.3864888 -0.09725 0.16394012 -0.70415527 0.026828622
-1.618712 2.4473839 0.64210796 -0.4630171 0.36013374 0.86652774 2.1704772 0.78958297
-0.713333 -0.41529164 0.4566612 -0.7810597 -1.1007494 1.4289485 -2.2876894 -0.8298914
0.8765232 -0.72932214 0.43553576 -3.038573 0.38185155 0.407465 0.686281 0.9343011
0.07679092 -0.7739087 -0.1889098 0.16926198 -1.7239783 0.012418274 -0.06798768 -0.16670728
-0.20047554 -0.38428542 -1.7621499 -1.2050862 -1.3177178 0.1705836 -3.3650398 2.5742247
-0.13868289 0.92519885 0.6390418 -3.065055 -0.3815034 0.7418288 0.3495023 -1.2404908
1.9195013 -1.220012 -1.8497144 0.32585016 0.77191854 -1.1559147 0.03519102 0.075866625
0.2238057 0.8799278 0.19170548 -0.7512636 0.92769045 0.77156997 -1.31388 0.14172527
0.32321507 -1.1674947 1.8291397 -0.9204394 -1.4591861 -1.6737931 -0.94339633 0.53785866
-0.9412995 0.0060053957 -0.42964026 2.6619911 0.5788378 1.9301032 -2.5327768 0.6220938
0.46320856 0.08479213 0.1815374 -1.0765892 -0.1512609 -0.31202766 -0.3230476 0.24522953
0.972228 0.25886583 1.0739897 0.8277275 0.68679065 -1.1641309 1.0592061 -0.46095794
0.08622239 -0.8539432 1.0240997 -0.40696254 1.7597796 -1.4546872 1.801547 -0.39846694
-0.34720358 0.42185912 -0.28458965 0.002138123 -0.6341886 2.5895846 0.749568 -0.826784
-1.6639746 -0.06753942 0.85452044 -0.6455235 0.29080117 -0.16963133 -1.0898374 -0.55305725
-0.7551649 -0.4118284 -0.52977246 2.1573973 1.0709207 -0.07169639 0.3700905 2.0523834
0.79455155 -0.1612373 -0.6467667 -1.8932077 0.6705601 -2.00193 1.038946 1.0892521
-1.4248149 0.022129983 -0.2974685 -1.021566 -0.14068067 -0.89041615 -0.7805327 -0.45476446
-0.54617786 0.7854642 0.5924656 -0.072185926 1.2874585 3.6951568 0.06432406 0.53912795
-0.6697541 -1.0485393 0.4534294 -1.3457824 0.5822498 -0.31748876 0.7030181 1.3048422
0.51781344 0.90703887 0.9258832 -1.3695747 -3.3061273 -1.7524669 -2.238935 -0.39158493
0.3962015 -0.66628927 1.8573354 -2.6398206 1.3014644 -0.16728218 -1.7065364 -0.6159378
-0.28281623 -0.32462198 -1.4557036 0.66635823 -0.7813628 2.8283522 0.47140756 0.63983154
0.21773152 0.41452113 -1.0306222 -0.2276689 -0.07698408 1.3426627 1.1265688 -0.20106336
0.54696023 0.51239526 0.95558804 -1.548363 0.29073298 -1.4110762 2.3863075 -0.16287336
1.0471619 -0.10044873 -1.0613875 0.5068833 1.1029108 0.4399992 -1.6371762 1.2576821
00000000: 9ca9 513e 00fb b3be 2e1c 603f 308b 80bf
00000010: b150 1abe be31 683e dccc 27c0 a848 09c0
00000020: fe0c ed3d d1c0 943f 0118 c53e ea7f 903f
00000030: 665f 37c0 8194 12bf d1cb 803f c4ee aabf
00000040: 970d e9bf 2e8e 22bf 2d89 3a3f 9100 b9bf
00000050: 80fd b3be 9123 49be 5bdd a03d 4c2d 81bf
00000060: f58d 06c0 1ddd 27bf 3a1e a6bd a06b eb3e
00000070: 7314 acbf a1fa 73be 362a 90bf 6c97 7c3e
00000080: 2f7f f03d ed2d 7c3f ff04 a63f 5bac b1be
00000090: 85e0 0e3e b6a3 b1bf ab26 1cc0 81c3 9b3f
000000a0: 1cbc babf 3054 dbbf 662b 143f 7778 b13f
000000b0: 022b c7bd ebdf 273e 8543 34bf b3c7 db3c
000000c0: f431 cfbf f0a1 1c40 3061 243f 9410 edbe
000000d0: 7363 b83e c3d4 5d3f 19e9 0a40 1c22 4a3f
000000e0: fe9c 36bf 1ba1 d4be 7fcf e93e 87f3 47bf
000000f0: 5be5 8cbf c9e7 b63f 8169 12c0 c373 54bf
00000100: d363 603f dbb4 3abf 8bfe de3e fb77 42c0
00000110: 0c82 c33e 419f d03e 1db0 2f3f 5b2e 6f3f
00000120: 8f44 9d3d e11e 46bf 9271 41be 0353 2d3e
00000130: 52ab dcbf 0476 4b3c 203d 8bbd 50b5 2abe
00000140: 7649 4dbe 0fc1 c4be 218e e1bf 4440 9abf
00000150: faaa a8bf 78ad 2e3e d05c 57c0 19c0 2440
00000160: e302 0ebe d5d9 6c3f 3e98 233f dc29 44c0
00000170: 6a54 c3be 7ee8 3d3f f7f1 b23e 67c8 9ebf
00000180: 38b2 f53f 5a29 9cbf 71c3 ecbf d5d5 a63e
00000190: 749c 453f 03f5 93bf 7624 103d f65f 9b3d
000001a0: 522d 653e f342 613f 714e 443e d052 40bf
000001b0: 1f7d 6d3f 9c85 453f 382d a8bf 6e20 113e
000001c0: 727c a53e 7770 95bf 4021 ea3f eba1 6bbf
000001d0: 9cc6 babf da3e d6bf 6c82 71bf 1bb1 093f
000001e0: 01f9 70bf e9c8 c43b cff9 dbbe 105e 2a40
000001f0: b72e 143f 9f0d f73f 0419 22c0 8a41 1f3f
00000200: ac29 ed3e 7fa7 ad3d f1e4 393e adcd 89bf
00000210: 23e4 1abe 17c2 9fbe 7f66 a5be 731d 7b3e
00000220: efe3 783f 108a 843e 7f78 893f f3e5 533f
00000230: 83d1 2f3f 3e02 95bf 1194 873f ae02 ecbe
00000240: 5d95 b03d 069c 5abf b315 833f 655d d0be
00000250: 7540 e13f 3133 babf 1899 e63f dc03 ccbe
00000260: abc4 b1be ebfd d73e bcb5 91be c01f 0c3b
00000270: 2f5a 22bf c1bb 2540 b0e3 3f3f 1ea8 53bf
00000280: 1ffd d4bf 1c52 8abd dac1 5a3f 0741 25bf
00000290: e4e3 943e d6b3 2dbe cb7f 8bbf 2995 0dbf
000002a0: 7d52 41bf 2cdb d2be 2b9f 07bf cc12 0a40
000002b0: ee13 893f 8fd5 92bd 817c bd3e 405a 0340
000002c0: bb67 4b3f 641b 25be 8192 25bf a154 f2bf
000002d0: d4a9 2b3f 9f1f 00c0 2ffc 843f 9d6c 8b3f
000002e0: 5660 b6bf f049 b53c cb4d 98be adc2 82bf
000002f0: 980e 10be 50f2 63bf fed0 47bf e3d6 e8be
00000300: 50d2 0bbf 2f14 493f d3ab 173f 37d6 93bd
00000310: 71cb a43f 737d 6c40 55bc 833d 4a04 0a3f
00000320: 0175 2bbf 8936 86bf e627 e83e 9942 acbf
00000330: 530e 153f e38d a2be fff8 333f 1205 a73f
00000340: 6c8f 043f b333 683f ae06 6d3f 394e afbf
00000350: 9797 53c0 d650 e0bf b64a 0fc0 d27d c8be
00000360: ecda ca3e ef91 2abf 2bbd ed3f d2f2 28c0
00000370: 6396 a63f 054c 2bbe c96f dabf 1aae 1dbf
00000380: 4acd 90be da34 a6be 7f54 babf 7496 2a3f
00000390: 6407 48bf b903 3540 555c f13e 00cc 233f
000003a0: 03f5 5e3e 1d3c d43e 6eeb 83bf 0922 69be
000003b0: d4a9 9dbd 5fdc ab3f 6833 903f 8ee3 4dbe
000003c0: 9605 0c3f 562c 033f 6ba1 743f c230 c6bf
000003d0: f4da 943e 259e b4bf 43b9 1840 46c8 26be
000003e0: 6709 863f 10b8 cdbd 8cdb 87bf 1bc3 013f
000003f0: 2e2c 8d3f 9347 e13e fd8e d1bf bafb a03f

conv1.4.kernel f4 [64, 1, 3, 3]
0.5614438 0.29236284 1.3348057 -1.8874842 -0.10745516 0.14655511 2.1033182 0.5763941
1.1642658 0.8517257 1.1254828 1.112658 -1.2220695 -0.65461737 0.09631363 0.8516183
-0.3554352 1.0164574 0.5296204 -1.3327274 -0.6751905 0.013155093 1.4093995 -0.64528775
0.12775463 0.47026378 -0.86472654 -0.052785102 -1.091079 -1.5281174 -0.7384704 0.34738645
-0.7995618 -0.64104795 0.30320677 -1.6709895 -0.67484105 1.5876938 0.06432513 -0.7607467
0.20991097 -1.5198495 1.6257306 0.24283376 -0.82442087 -0.5964819 0.83366686 0.8768179
-0.7693577 -0.20294586 -0.9229858 -0.42798123 1.4104437 0.5815579 0.5486675 -1.2995403
2.4017744 0.49651513 0.5811949 0.49808428 0.1177182 -0.31244913 0.5188094 1.4106952
-0.4658598 -0.32904124 -0.6491232 -1.0645454 1.318746 -2.384732 -2.5239367 0.15353803
1.8591549 -0.98973143 0.48941702 -0.32432362 -0.2544638 -0.010042227 1.1690654 1.4268115
0.5418352 1.038803 -0.18190093 -0.43941715 0.45084146 0.85738605 1.2803282 -0.6389318
-1.49531 0.75270927 -0.0017288832 -0.7253747 1.6710094 1.3240436 0.0070695286 -1.6296992
-0.55784106 -1.637389 -0.6710717 -0.14010379 1.0764985 1.3501005 -0.30712163 0.7954557
1.1956711 0.00548916 0.58122426 1.2916319 0.19266276 1.2585644 -0.5537987 0.97103864
-1.1445901 0.61889625 0.09103892 0.093408406 -0.45518962 -0.9816782 -1.1034539 -1.2682958
0.40919134 1.2571372 0.7678901 -0.06951206 -2.6855059 0.91118175 1.0237436 3.248673
0.6781535 0.028086418 -0.5094016 -0.16280796 -0.11566983 -0.51651984 0.63215154 0.55232084
0.6258654 0.48306507 0.60361785 0.8135777 2.2982423 -1.3722568 0.0021848716 -0.7177492
-0.9387436 -1.3989565 -0.16893803 -1.4593917 -0.88078564 0.68116844 -0.81418884 -0.2773637
-0.28475118 -0.537046 -0.410463 0.7394711 0.712705 0.5773924 -1.3182983 -0.14468043
-0.4640257 0.6355445 -2.2201931 -0.17498581 0.61296946 1.9211035 0.9995462 0.9561286
2.3092892 0.9391077 -0.17796652 1.7382177 0.39275384 -1.5711695 -1.8883389 0.13759877
-0.2423284 -0.21664919 -0.7242307 -0.4940962 1.4897116 -0.7846231 3.5769162 1.038102
-0.5497587 -2.0918822 0.5536075 0.9010643 0.6761162 0.6574419 1.319777 -0.8587635
1.0337405 -1.0798675 -1.6065552 1.3760369 1.0018467 1.0012478 -0.45359492 0.44083315
1.4296919 -0.22691743 0.34446746 -0.25943926 -0.7868634 0.54084283 0.24318406 -1.1670567
0.15866737 -1.6333215 -0.4645674 0.38730448 0.5783304 -1.2754503 -1.0606618 0.008585681
0.3487095 -0.63481814 0.96784145 -1.3142555 0.40886837 -1.1420754 -0.6981851 1.4363757
-0.21814692 -0.06962343 -0.053248923 -2.3800943 -1.2132921 -1.9738102 0.7864501 1.3742602
-1.4105148 0.22072917 -1.7271657 1.8626659 -1.5208673 -1.0589443 1.0096195 0.22963132
0.15441705 -1.4288963 -0.16636628 -0.2743823 -0.18662086 1.3505088 0.0061562355 -0.5719622
0.32160574 -0.54467547 1.2665445 2.368599 0.58669925 -1.0074364 0.1945894 -2.0059075
00000000: c8ba 0f3f 95b0 953e eada aa3f 1599 f1bf
00000010: 7311 dcbd 8b12 163e c49c 0640 908e 133f
00000020: a906 953f b20a 5a3f d20f 903f 946b 8e3f
00000030: c66c 9cbf 0195 27bf 1540 c53d a803 5a3f
00000040: 9afb b5be 471b 823f 3495 073f d096 aabf
00000050: 49d9 2cbf 7688 573c 3467 b43f 9431 25bf
00000060: 1cd2 023e 6ac6 f03e b85e 5dbf 3135 58bd
00000070: 7aa8 8bbf 5a99 c3bf 650c 3dbf a3dc b13e
00000080: 15b0 4cbf b81b 24bf eb3d 9b3e fce2 d5bf
00000090: 62c2 2cbf 8d39 cb3f e5bc 833d 4cc0 42bf
000000a0: e7f2 563e 6e8a c2bf f117 d03f 6aa9 783e
000000b0: 3f0d 53bf 0ab3 18bf 316b 553f 2377 603f
000000c0: a0f4 44bf 0ad1 4fbe cc48 6cbf 5b20 dbbe
000000d0: 6b89 b43f fbe0 143f 7975 0c3f 5657 a6bf
000000e0: acb6 1940 3b37 fe3e 30c9 143f e704 ff3e
000000f0: 3d16 f13d 55f9 9fbe b1d0 043f a991 b43f
00000100: 2d85 eebe 1878 a8be f02c 26bf 0643 88bf
00000110: abcc a83f 739f 18c0 2e88 21c0 1339 1d3e
00000120: caf8 ed3f 0a5f 7dbf de94 fa3e bf0d a6be
00000130: 1449 82be 2788 24bc efa3 953f c2a1 b63f
00000140: b6b5 0a3f 7ff7 843f 3d44 3abe 49fb e0be
00000150: b1d4 e63e a77d 5b3f cbe1 a33f 0991 23bf
00000160: 5166 bfbf 8eb1 403f b29b e2ba 28b2 39bf
00000170: a3e3 d53f 437a a93f 81a7 e73b fc99 d0bf
00000180: acce 0ebf f695 d1bf 5bcb 2bbf 5e77 0fbe
00000190: b4ca 893f 18d0 ac3f 0c3f 9dbe fca2 4b3f
000001a0: c00b 993f 69de b33b 1dcb 143f 3254 a53f
000001b0: 6349 453e a318 a13f c0c5 0dbf fd95 783f
000001c0: ee81 92bf fc6f 1e3f 9d72 ba3d e84c bf3d
000001d0: 9d0e e9be 434f 7bbf fa3d 8dbf 8457 a2bf
000001e0: 8781 d13e dfe9 a03f 7294 443f 575c 8ebd
000001f0: 54df 2bc0 3543 693f 080a 833f 42ea 4f40
00000200: 789b 2d3f 7d15 e63c 2568 02bf 21b7 26be
00000210: 4ee4 ecbd a53a 04bf afd4 213f e664 0d3f
00000220: b738 203f 4e54 f73e b386 1a3f a146 503f
00000230: 6716 1340 1ca6 afbf 1030 0f3b 69be 37bf
00000240: 8051 70bf 0211 b3bf 17fe 2cbe 59cd babf
00000250: 2b7b 61bf 0e61 2e3f ae6e 50bf 9d02 8ebe
00000260: e8ca 91be d97b 09bf 3528 d2be fa4d 3d3f
00000270: d673 363f fdcf 133f 00be a8bf 1b27 14be
00000280: c794 edbe 0bb3 223f a517 0ec0 7b2f 33be
00000290: 91eb 1c3f b8e6 f53f 42e2 7f3f d8c4 743f
000002a0: 65cb 1340 5d69 703f db3c 36be eb7d de3f
000002b0: 0817 c93e 151c c9bf 17b5 f1bf b1e6 0c3e
000002c0: f024 78be 49d9 5dbe 2f67 39bf 2dfa fcbe
000002d0: dfae be3f 0fdd 48bf 32ec 6440 87e0 843f
000002e0: fcbc 0cbf 66e1 05c0 39b9 0d3f 26ac 663f
000002f0: f415 2d3f 1d4e 283f 74ee a83f edd7 5bbf
00000300: 9c51 843f 1939 8abf 9aa3 cdbf fa21 b03f
00000310: 833c 803f e328 803f 983d e8be e2b4 e13e
00000320: 2500 b73f 0b5d 68be 0a5e b03e 39d5 84be
00000330: e16f 49bf ad74 0a3f 3e05 793e 1d62 95bf
00000340: b379 223e ae10 d1bf c7db edbe c64c c63e
00000350: 760d 143f f541 a3bf c4c3 87bf f5aa 0c3c
00000360: 0d8a b23e 7183 22bf 75c4 773f 8639 a8bf
00000370: 3257 d13e 872f 92bf 42bc 32bf 29db b73f
00000380: e861 5fbe bb96 8ebd 8b1b 5abd 7753 18c0
00000390: 284d 9bbf d0a5 fcbf cb54 493f c2e7 af3f
000003a0: c08b b4bf d406 623e c413 ddbf d66b ee3f
000003b0: c8ab c2bf 7d8b 87bf 363b 813f 7924 6b3e
000003c0: 811f 1e3e 13e6 b6bf ec5b 2abe d67b 8cbe
000003d0: 8a19 3fbe 79dd ac3f 3fba c93b 1d6c 12bf
000003e0: 82a9 a43e da6f 0bbf 211e a23f 2097 1740
000003f0: ec31 163f adf3 80bf 7242 473e ca60 00c0

conv1.5.kernel f4 [64, 1, 3, 3]
-0.13370478 0.64965016 0.60065746 -0.1520646 -1.759845 -1.4619532 0.29475364 -1.6772705
-0.17966565 1.0068532 -0.94348687 -1.6723489 -0.26225573 0.16872895 -0.12529488 1.7886684
1.1004012 0.8277655 -0.104969844 0.007881831 -0.8784324 -0.2658733 -3.4720526 0.54589
-1.5799613 -1.1171019 2.5055676 0.904558 1.1954972 0.5404899 0.47452843 0.15258811
0.16304849 0.7891754 -0.74348176 -1.1117103 -1.427355 -2.220638 -0.37765083 -1.8724911
-2.3099387 0.9293159 1.8623787 -0.046659395 0.71302307 0.92513424 0.23872624 0.106917486
1.3078465 1.8306457 -0.34890053 -0.44723383 0.5786959 1.3974078 0.24433301 1.371315
-1.2365727 -0.20568888 -1.3629597 -1.518456 -2.1142511 -1.161248 -0.20790051 0.48472574
0.7747458 0.29479432 2.799972 1.0746273 -0.206982 0.074312925 -1.0734239 -0.74660975
0.32982242 3.6714127 0.08643431 0.6116256 -0.8813944 -0.7187788 -0.77060145 -0.40266973
-0.17669292 -0.14835683 -0.6389446 0.48568186 -0.25743467 0.08311078 1.3395954 -0.8689566
0.70221996 0.64971536 0.104486145 0.18012325 0.34094593 -0.59370905 -1.4289974 -1.9753379
0.069608934 1.1871474 -0.35181287 -0.6578389 0.089931235 0.2399704 1.6034013 -0.076753475
0.2729077 0.07774125 -0.047866225 -0.55603635 -0.39393383 0.7643823 2.0809305 -1.9115562
-0.23805647 0.9697551 0.17010237 -0.66474897 0.5895008 0.13204311 2.5046797 -1.270019
-0.4816613 0.20978627 -1.0259058 0.42034316 -0.5178234 -0.22679901 1.0637388 0.6238675
-0.4782186 -0.25040397 0.6599865 0.2856457 0.24714202 -1.8742757 -2.0588863 3.524303
1.1084632 -1.854503 0.200827 0.006020889 -0.44231924 -0.0056521115 0.63966084 0.25344068
-0.33472085 1.0999995 1.9331018 -0.9962377 0.20533575 1.0553535 -0.8542784 -0.89135665
0.031146847 0.56627977 -1.7468314 -0.70981646 1.1281903 0.36859843 -1.9733049 0.40100262
0.3034705 0.3392909 -0.0287448 -0.06453315 -0.07131136 0.21935265 -0.61501926 -0.16952679
1.4180759 0.4167089 0.4679882 -0.41167912 -0.33591366 -0.25653103 2.5992436 -1.8342807
-1.3710124 0.79537433 0.2622398 -0.3349551 -0.14844766 -0.652617 -1.2747769 -0.6033795
-0.35097116 0.4047262 0.5012752 0.15725851 0.47608882 0.8067507 0.19732644 0.41101345
1.3260808 -0.49540102 -1.1989278 -0.7815136 -2.3083282 -0.08969515 0.19843939 -1.0192127
0.24590838 -0.16637568 -0.7129103 -0.6594368 0.3526666 -0.15628499 0.42650366 0.23584442
0.8309764 -1.1529456 1.6144712 0.3172712 0.9367358 0.5290333 0.93224853 -2.7608516
-1.2132448 0.09818984 0.2747379 -1.1746736 -1.105041 1.0786991 -0.2006614 0.6637197
-0.22352368 -0.5372792 0.35244042 -0.58384216 0.32671162 0.621373 0.30521667 2.434513
1.3016725 0.71281624 0.9805281 1.1120358 -0.015515667 0.024615902 -0.4844016 0.33166727
-3.0112803 -0.7690613 0.8901993 -1.4023011 -0.16939178 0.28500542 0.24618316 -1.3508766
-1.5946867 0.337086 0.98710775 0.3381949 0.86135954 -2.1092467 -0.3741262 -1.4117782
00000000: e8e9 08be 794f 263f b0c4 193f d3b6 1bbe
00000010: 9a42 e1bf 4821 bbbf f3e9 963e cdb0 d6bf
00000020: 46fa 37be 91e0 803f 5b88 71bf 870f d6bf
00000030: 6246 86be 48c7 2c3e 4d4d 00be 16f3 e43f
00000040: f2d9 8c3f 71e8 533f 6efa d6bd cc22 013c
00000050: f2e0 60bf 8c20 88be 1c36 5ec0 72bf 0b3f
00000060: 2c3c cabf 32fd 8ebf 385b 2040 1d91 673f
00000070: 0d06 993f 8c5d 0a3f 64f5 f23e 0f40 1c3e
00000080: 2ff6 263e 6607 4a3f d254 3ebf 864c 8ebf
00000090: 92b3 b6bf ef1e 0ec0 735b c1be caad efbf
000000a0: 09d6 13c0 a6e7 6d3f 6d62 ee3f ec1d 3fbd
000000b0: ae88 363f 99d5 6c3f a774 743e 8ef7 da3d
000000c0: 8467 a73f 9952 ea3f 17a3 b2be d5fb e4be
000000d0: 6a25 143f 42de b23f 6f32 7a3e 4087 af3f
000000e0: 0448 9ebf 1ba0 52be 7775 aebf c45c c2bf
000000f0: e44f 07c0 c6a3 94bf dfe3 54be f92d f83e
00000100: be55 463f 48ef 963e be32 3340 638d 893f
00000110: 17f3 53be 6031 983d f465 89bf d121 3fbf
00000120: 7cde a83e 6df8 6a40 7904 b13d 7f93 1c3f
00000130: 10a3 61bf e301 38bf 2346 45bf ba2a cebe
00000140: fdee 34be daea 17be e091 23bf 4bab f83e
00000150: 7ace 83be fc35 aa3d dd77 ab3f f173 5ebf
00000160: b0c4 333f bf53 263f d5fc d53d 3b72 383e
00000170: 7790 ae3e 51fd 17bf 63e9 b6bf dfd7 fcbf
00000180: 218f 8e3d 72f4 973f d120 b4be 2168 28bf
00000190: de2d b83d cdba 753e 413c cd3f ed30 9dbd
000001a0: 8fba 8b3e ce36 9f3d 600f 44bd 6658 0ebf
000001b0: b2b1 c9be 8fae 433f f72d 0540 e0ad f4bf
000001c0: 13c5 73be df41 783f 512f 2e3e fd2c 2abf
000001d0: 86e9 163f 4f36 073e ac4c 2040 fc8f a2bf
000001e0: 4f9c f6be 36d2 563e e250 83bf 3837 d73e
000001f0: 1390 04bf 003e 68be 9828 883f c8b5 1f3f
00000200: 11d9 f4be f334 80be e0f4 283f 2740 923e
00000210: cc12 7d3e 44e8 efbf cbc4 03c0 2e8e 6140
00000220: 1fe2 8d3f 5b60 edbf 98a5 4d3e e14a c53b
00000230: ab77 e2be 5935 b9bb d0c0 233f fac2 813e
00000240: 8860 abbe c9cc 8c3f e16f f73f 6f09 7fbf
00000250: 8943 523e d315 873f fdb1 5abf f32f 64bf
00000260: ac27 ff3c b6f7 103f 2c98 dfbf 88b6 35bf
00000270: 8a68 903f efb8 bc3e 4195 fcbf 3750 cd3e
00000280: 7c60 9b3e 89b7 ad3e 377a ebbc f529 84bd
00000290: b10b 92bd fb9d 603e e771 1dbf 6e98 2dbe
000002a0: 8383 b53f de5a d53e 269c ef3e 9bc7 d2be
000002b0: e0fc abbe 0958 83be 025a 2640 b6c9 eabf
000002c0: 567d afbf a79d 4b3f 4c44 863e 3c7f abbe
000002d0: aa02 18be e811 27bf e42b a3bf 1477 1abf
000002e0: 7eb2 b3be 4638 cf3e 9253 003f 6008 213e
000002f0: eac1 f33e 3787 4e3f f10f 4a3e 5b70 d23e
00000300: 04bd a93f 34a5 fdbe 7776 99bf 4611 48bf
00000310: a6bb 13c0 17b2 b7bd b233 4b3e 9075 82bf
00000320: 68cf 7b3e 635e 2abe 4a81 36bf dad0 28bf
00000330: b790 b43e 2c09 20be b05e da3e 3381 713e
00000340: dfba 543f b993 93bf fea6 ce3f 5f71 a23e
00000350: ebcd 6f3f ba6e 073f d7a7 6e3f cbb1 30c0
00000360: 9b4b 9bbf c117 c93d 72aa 8c3e b45b 96bf
00000370: fc71 8dbf d012 8a3f 2f7a 4dbe 89e9 293f
00000380: 64e3 64be 218b 09bf 1273 b43e ae76 15bf
00000390: bf46 a73e 4d12 1f3f 5c45 9c3e 10cf 1b40
000003a0: 349d a63f 207b 363f e403 7b3f 3057 8e3f
000003b0: 6d35 7ebc 4aa7 c93c 7d03 f8be 4bd0 a93e
000003c0: d1b8 40c0 34e1 44bf 1ae4 633f 9a7e b3bf
000003d0: 0a75 2dbe 3bec 913e 7017 7c3e 86e9 acbf
000003e0: b21e ccbf 8996 ac3e 18b3 7c3f e227 ad3e
000003f0: 0f82 5c3f e6fd 06c0 788d bfbe 26b5 b4bf

conv1.6.kernel f4 [64, 1, 3, 3]
-1.7013645 0.53617877 -0.07481975 0.12725045 0.01758705 0.5195642 1.3889823 -0.36994174
-0.9250243 1.7316276 0.8382436 -0.43272033 -0.6084227 1.4429966 2.3693163 -0.21319233
-1.8550395 -0.017772367 1.173196 1.2001143 0.6294099 1.075543 -0.049674112 -0.63566077
-2.0351436 -0.74431527 1.5496974 0.048143838 0.40198675 -2.1791532 2.399091 1.7721277
-0.7275044 -0.4190153 0.79579973 -1.3708116 -0.73463297 -0.569984 1.8741754 1.3973436
-1.5690864 0.14312169 0.030837681 1.4125049 0.94440174 0.48923898 0.790821 0.1636304
1.1886274 0.16920467 -0.444976 0.11957247 1.4768329 -0.33237377 -0.8655629 0.32139552
-2.3008862 1.03603 -0.43831334 -0.6270559 1.6571407 1.8025222 -0.39148307 -1.3724443
2.038464 0.4156552 -2.4143472 0.8698271 1.4918573 0.58824325 0.0882058 -0.17000963
1.7245518 -0.858991 -0.16668047 0.9689149 -1.4534553 -0.9722398 -2.1968057 0.46084958
-0.6324914 -2.1304476 -0.45034948 0.25736573 1.5205909 0.27538836 -0.33812308 2.409375
-3.1402254 -0.89705014 -1.7605809 0.6195748 -0.91772485 0.05835628 -0.020454278 -0.60485536
0.21312694 -0.5829434 -0.7022285 -1.0014067 0.57813454 0.14952742 -0.16624174 0.37745544
1.6312928 1.0104977 0.7083606 -0.171307 1.8977462 -0.3870731 -1.063191 1.4791846
-1.3707287 0.7195352 0.66265935 -2.0814104 -0.70761144 -0.5315107 -1.059744 -0.49206766
-1.6663278 0.14223787 1.1788206 -1.1556882 2.6702266 0.48803672 -0.85192037 2.392427
1.5910695 -2.1369135 -0.35595286 0.84011215 -1.4285877 -0.09175117 0.67139274 0.060176767
-0.50903726 0.86476403 -0.6183132 -2.4030392 -0.12106816 0.93958884 3.171473 0.21659523
2.2146337 -0.60575795 -0.9094828 2.680933 1.0605886 -0.7265336 -1.6933713 -0.26679122
-1.6525007 0.4354612 -0.1640975 1.7574966 1.4595821 0.7730524 -0.6067423 0.594526
-1.6870927 0.581943 0.7449071 -1.5348634 -1.6619376 -0.50771666 -0.13173532 1.3974211
-0.9513453 -0.37881425 0.57179064 1.3081199 0.9183988 -0.17975129 0.15181229 -0.3275681
-1.4719776 -1.6070354 0.9713376 -0.10351924 -0.85426974 -0.8575891 -2.2196577 0.73621315
0.8874259 0.5506414 1.0995513 1.2921597 0.1674152 -1.047079 0.31069082 -1.0194931
-0.6015163 0.22729516 -2.047314 -0.15702397 -0.35376966 0.54613817 -0.21600585 1.2727787
-0.978315 0.8506016 0.42186117 -1.2513815 2.9940758 1.572133 0.135751 0.5955951
2.3044279 0.017134372 -0.49530196 1.724692 -2.2851405 2.549107 -0.1340356 -3.097434
-1.0090533 -1.7127837 0.14576104 0.74466825 0.52181035 1.7215408 1.822088 -0.14581451
-0.17954557 -2.077446 1.3448863 -1.0706096 0.4182449 0.5378947 -0.88410693 0.6499392
2.5120301 -1.1912472 0.28279614 -1.969838 0.21959946 -1.351804 -0.26554942 -0.006680546
0.74668014 -1.7872471 0.057557892 0.25985295 -0.9603769 1.0347329 -0.08599739 0.45779154
-0.38144138 1.7618506 -1.8218402 -0.23542249 0.9348208 0.67260957 -0.18038514 0.53437203
00000000: 50c6 d9bf 0343 093f 193b 99bd f14d 023e
00000010: b812 903c 2902 053f 2cca b13f 0169 bdbe
00000020: 64ce 6cbf f9a5 dd3f 2297 563f 858d ddbe
00000030: 97c1 1bbf 1db4 b83f e1a2 1740 174f 5abe
00000040: ef71 edbf 5b97 91bc 492b 963f 589d 993f
00000050: 0221 213f 65ab 893f 1577 4bbd aaba 22bf
00000060: cb3f 02c0 728b 3ebf 7c5c c63f 7932 453d
00000070: 35d1 cd3e 3f77 0bc0 b58a 1940 15d5 e23f
00000080: ba3d 3abf 2c89 d6be 88b9 4b3f c176 afbf
00000090: e810 3cbf 79ea 11bf fbe4 ef3f 28dc b23f
000000a0: d3d7 c8bf 7e8e 123e 4e9f fc3c f6cc b43f
000000b0: 50c4 713f 887d fa3e 3f73 4a3f ba8e 273e
000000c0: f124 983f fd43 2d3e e5d3 e3be 69e2 f43d
000000d0: dc08 bd3f e52c aabe 8895 5dbf f48d a43e
000000e0: b841 13c0 a29c 843f 9b6a e0be bc86 20bf
000000f0: 301d d43f 0cb9 e63f 7870 c8be 41ac afbf
00000100: 3276 0240 c2d0 d43e aa84 1ac0 fdac 5e3f
00000110: 2ef5 be3f 1c97 163f 3ea5 b43d 0117 2ebe
00000120: 1dbe dc3f d6e6 5bbf 49ae 2abe cf0a 783f
00000130: d30a babf b5e4 78bf 7798 0cc0 7af4 eb3e
00000140: f5ea 21bf 4159 08c0 3594 e6be 71c5 833e
00000150: b9a2 c23f b4ff 8c3e 781e adbe 3333 1a40
00000160: 74f9 48c0 14a5 65bf b75a e1bf 749c 1e3f
00000170: 04f0 6abf ff06 6f3d bb8f a7bc cdd7 1abf
00000180: f33d 5a3e c73b 15bf 3fc5 33bf 182e 80bf
00000190: a000 143f b71d 193e 463b 2abe d741 c13e
000001a0: 34ce d03f fd57 813f 1f57 353f 1a6b 2fbe
000001b0: 59e9 f23f 722e c6be a516 88bf ec55 bd3f
000001c0: 0a74 afbf 7533 383f 0ba4 293f d435 05c0
000001d0: 0626 35bf 1611 08bf b1a5 87bf 4bf0 fbbe
000001e0: 3b4a d5bf cea6 113e 98e3 963f 97ed 93bf
000001f0: fee4 2a40 f3df f93e 7417 5abf 861d 1940
00000200: 2aa8 cb3f 31c3 08c0 743f b6be 9711 573f
00000210: f6db b6bf 0ae8 bbbd 65e0 2b3f ea7b 763d
00000220: 4450 02bf 2d61 5d3f c649 1ebf 65cb 19c0
00000230: 95f2 f7bd e588 703f 6af9 4a40 24cb 5d3e
00000240: 8fbc 0d40 f412 1bbf ddd3 68bf 6894 2b40
00000250: 5ec1 873f 1bfe 39bf 64c0 d8bf dc98 88be
00000260: 2585 d3bf c5f4 de3e 2d09 28be a6f5 e03f
00000270: 96d3 ba3f c3e6 453f 7753 1bbf db32 183f
00000280: a7f2 d7bf 37fa 143f 3bb2 3e3f 6776 c4bf
00000290: 5fba d4bf b8f9 01bf a0e5 06be b2de b23f
000002a0: 5e8b 73bf f1f3 c1be df60 123f 7970 a73f
000002b0: 2f1c 6b3f b910 38be ae74 1b3e 02b7 a7be
000002c0: c369 bcbf 56b3 cdbf 95a9 783f e501 d4bd
000002d0: 6cb1 5abf f68a 5bbf df0e 0ec0 7778 3c3f
000002e0: 582e 633f d6f6 0c3f 19be 8c3f 7d65 a53f
000002f0: e46e 2b3e af06 86bf de12 9f3e c07e 82bf
00000300: f9fc 19bf 10c0 683e 3107 03c0 e4ca 20be
00000310: 4c21 b5be b6cf 0b3f a330 5dbe 6aea a23f
00000320: da72 7abf 07c1 593f 30fe d73e 452d a0bf
00000330: f09e 3f40 a73b c93f 4f02 0b3e ec78 183f
00000340: bf7b 1340 625d 8c3c 3898 fdbe b5c2 dc3f
00000350: be3f 12c0 9224 2340 a140 09be 5c3c 46c0
00000360: a928 81bf 7f3c dbbf 6242 153e 94a2 3e3f
00000370: 5d95 053f 735b dc3f 2e3a e93f 6650 15be
00000380: cbda 37be e0f4 04c0 3c25 ac3f bc09 89bf
00000390: 3224 d63e 78b3 093f d554 62bf 6a62 263f
000003a0: 1ac5 2040 ca7a 98bf a8ca 903e a723 fcbf
000003b0: aede 603e ea07 adbf 18f6 87be 7be8 dabb
000003c0: 6e26 3f3f 83c4 e4bf d3c1 6b3d 720b 853e
000003d0: 43db 75bf 2172 843f 661f b0bd a763 ea3e
000003e0: 494c c3be 5284 e13f 0f32 e9bf 9812 71be
000003f0: 6a50 6f3f 2430 2c3f e2b6 38be 9bcc 083f

conv1.7.kernel f4 [64, 1, 3, 3]
0.4564977 -0.006974185 -0.55889976 -0.63853395 -0.11257591 -0.16158825 -2.593897 -0.46872687
-1.4149474 1.5278858 2.0471473 0.50254136 1.2446581 1.0589882 0.3076496 2.115873
-0.18300043 0.08582534 -0.12904795 0.43621233 -0.027301492 1.8898947 1.3094307 -0.08190221
0.6975181 0.7119453 -0.83566225 0.25026974 2.13917 0.943955 -1.0166438 0.024419919
0.13641956 -0.8527616 1.4021242 3.1132264 0.69073266 -0.21974918 0.8934874 -0.2352446
1.4764794 1.885187 1.020169 -1.3283914 -0.7139531 -0.005683063 -1.0166271 -0.6858376
-0.3454071 -1.6272397 -2.800925 -0.39012593 0.3402349 -0.9798187 -0.9954501 0.4224448
-2.4888594 -1.5457232 1.6803949 0.2009808 0.5702759 -1.31437 -0.071693555 -0.5566413
-0.43827718 1.3795378 1.5551137 -1.4083656 -1.7680792 -0.480975 -0.71513176 -0.8795759
0.7315999 -0.2988191 0.06551707 0.46481174 -2.3786235 -0.73279333 0.9457269 0.8303388
-1.4465296 -0.72931457 0.57822937 1.2582462 1.3934004 -0.8244026 -1.0447105 -0.44866025
3.3518455 0.7728062 -0.18545479 1.4278845 0.58789885 -0.87270474 1.3073189 0.57479817
1.8560324 0.6580366 0.15007895 -1.2471488 0.7151997 0.99533397 -1.0424584 -1.0905927
0.85303843 -0.7466562 -0.8828318 -1.0379361 -0.022648238 -1.0076382 -2.3305378 0.86401844
-0.4136596 -1.0261956 -0.3647734 -0.25929973 -0.20196442 -0.63079685 -0.46430126 0.8467122
-0.19818453 0.79240113 -0.4538035 0.075035684 0.5891171 -0.87662125 0.3242979 0.45191526
0.6693755 -1.3839501 -0.72149354 -0.4427589 1.1825832 -0.37782788 -0.020576661 -1.884825
-0.4004621 -0.66112745 1.7040372 0.4382708 1.5407472 2.619521 -0.24486819 1.5184138
-0.54074174 1.7289143 1.3627561 -1.1065248 0.747885 -1.5624106 -0.39041078 -0.817664
-2.4367788 -0.8122722 0.13161656 -0.67302704 1.7338897 -0.29153845 1.9505492 1.2932507
-2.923908 0.038540777 0.74628145 -0.44469392 1.0281066 -1.3170257 -1.5595394 0.7101343
0.35001236 -2.16767 -0.13221237 -0.53710306 -1.3131748 1.7137532 1.4390583 -0.24377476
1.4554394 -0.9567313 -0.7444489 -0.67302614 -1.2986649 0.45745566 0.766461 -0.27498
1.9002919 1.4984627 1.145338 0.47455364 -1.0644742 0.021852601 0.8500549 -0.32534507
-1.2097142 -2.227514 0.9385418 0.33401647 -1.2010314 -1.2376018 -1.0533539 1.0588521
-2.2227154 0.57412696 1.52467 -1.38273 0.66657674 -0.9473258 0.52312934 -0.1042871
1.0678728 -1.1722319 -0.43668738 0.9184764 0.2578552 -0.91276056 -0.13990082 0.07306588
1.7707257 0.96862006 -1.5897446 -2.107807 -0.3886462 -0.873305 1.0302377 0.7272166
-0.30094638 -1.2415493 -0.20920868 -1.3305666 -1.0099806 -1.1309798 0.48191115 0.86340445
0.9273486 -0.82710993 -0.7538185 2.1026342 1.1513398 -0.19320835 -0.21932966 -0.49841326
-0.48956272 -1.0760956 2.2775598 -1.4998642 1.2153327 -1.4435604 -0.057658322 -0.34915885
2.0103252 -0.10151344 0.4694474 -1.3812436 -0.72234184 0.34459066 -0.39160353 -0.12237015
00000000: 11ba e93e b487 e4bb 0e14 0fbf f676 23bf
00000010: 338e e6bd 6477 25be 6902 26c0 f8fc efbe
00000020: ff1c b5bf c391 c33f 7604 0340 8da6 003f
00000030: f550 9f3f ed8c 873f 4084 9d3e 776a 0740
00000040: 7764 3bbe 32c5 af3d 2525 04be 3957 df3e
00000050: 61a7 dfbc 12e8 f13f 6d9b a73f 59bc a7bd
00000060: 8c90 323f 0c42 363f f6ed 55bf 5b23 803e
00000070: 29e8 0840 09a7 713f 6221 82bf 480c c83c
00000080: 92b1 0b3e 964e 5abf ce78 b33f 1a3f 4740
00000090: dbd3 303f ee05 61be 97bb 643f f6e3 70be
000000a0: 47fd bc3f cf4d f13f e694 823f bb08 aabf
000000b0: a1c5 36bf fd38 babb d620 82bf 0e93 2fbf
000000c0: 33d9 b0be 6449 d0bf 5b42 33c0 96be c7be
000000d0: 4533 ae3e 66d5 7abf d1d5 7ebf af4a d83e
000000e0: 7949 1fc0 42da c5bf 2e17 d73f e9cd 4d3e
000000f0: 9afd 113f 473d a8bf 12d4 92bd 0b80 0ebf
00000100: de65 e0be b294 b03f f70d c73f 5345 b4bf
00000110: 6b50 e2bf 5b42 f6be e012 37bf e32b 61bf
00000120: 224a 3b3f d1fe 98be d02d 863d cefb ed3e
00000130: 5e3b 18c0 5898 3bbf 281b 723f 1591 543f
00000140: e227 b9bf 5cb4 3abf d706 143f 360e a13f
00000150: f25a b23f 0c0c 53bf 13b9 85bf ccb6 e5be
00000160: a384 5640 a1d6 453f dce7 3dbe ebc4 b63f
00000170: 8a80 163f 9469 5fbf 3a56 a73f f925 133f
00000180: 7892 ed3f 1675 283f 4cae 193e 92a2 9fbf
00000190: 5417 373f 35ce 7e3f 476f 85bf 8b98 8bbf
000001a0: ba60 5a3f dc24 3fbf 4401 62bf 17db 84bf
000001b0: cc88 b9bc 4afa 80bf 8827 15c0 5030 5d3f
000001c0: 31cb d3be 615a 83bf 94c3 babe efc2 84be
000001d0: c3cf 4ebe e77b 21bf e5b8 edbe 21c2 583f
000001e0: e3f0 4abe cdda 4a3f ef58 e8be 4fac 993d
000001f0: 61d0 163f 406a 60bf 600a a63e 7061 e73e
00000200: 315c 2b3f 4725 b1bf cdb3 38bf 4bb1 e2be
00000210: e35e 973f a872 c1be 6390 a8bc f241 f1bf
00000220: 5e09 cdbe a63f 29bf e41d da3f 0865 e03e
00000230: 3437 c53f 3ba6 2740 babe 7abe 625b c23f
00000240: 0d6e 0abf 104d dd3f cb6e ae3f 9ba2 8dbf
00000250: 6475 3f3f 12fd c7bf ece3 c7be 6e52 51bf
00000260: 2ff4 1bc0 12f1 4fbf 7ec6 063e 804b 2cbf
00000270: 19f0 dd3f 8744 95be 99ab f93f 3d89 a53f
00000280: 4f21 3bc0 efdc 1d3d 4d0c 3f3f ecae e3be
00000290: ff98 833f 4c94 a8bf fd9e c7bf 5dcb 353f
000002a0: d234 b33e 1bbb 0ac0 ae62 07be 967f 09bf
000002b0: 1d16 a8bf 445c db3f 1033 b83f 17a0 79be
000002c0: d74b ba3f 58ec 74bf 3494 3ebf 714b 2cbf
000002d0: a73a a6bf a137 ea3e ca36 443f 2eca 8cbe
000002e0: c43c f33f a0cd bf3f 709a 923f b2f8 f23e
000002f0: b140 88bf 3a04 b33c 339d 593f a193 a6be
00000300: ead7 9abf 978f 0ec0 4744 703f 3504 ab3e
00000310: 66bb 99bf bc69 9ebf 4dd4 86bf 7788 873f
00000320: f840 0ec0 fcf9 123f 6328 c33f 4cfd b0bf
00000330: c6a4 2a3f f283 72bf ceeb 053f 7a94 d5bd
00000340: 0eb0 883f b20b 96bf 7d95 dfbe 4521 6b3f
00000350: 9905 843e adaa 69bf 2942 0fbe 90a3 953d
00000360: 24a7 e23f 7cf7 773f c07c cbbf 4fe6 06c0
00000370: a2fc c6be eb90 5fbf d4de 833f de2a 3a3f
00000380: a515 9abe 16eb 9ebf cd3a 56be 0250 aabf
00000390: 0b47 81bf f2c3 90bf 0fbd f63e 1308 5d3f
000003a0: b866 6d3f 7abd 53bf 40fa 40bf 8f91 0640
000003b0: 1a5f 933f 69d8 45be f497 60be 0630 ffbe
000003c0: f7a7 fabe 80bd 89bf 8ac3 1140 8dfb bfbf
000003d0: 0690 9b3f 96c6 b8bf 222b 6cbd f3c4 b2be
000003e0: 2ba9 0040 47e6 cfbd 695b f03e 97cc b0bf
000003f0: 65eb 38bf 306e b03e 4280 c8be 349d fabd
