Models/TCSVT_Encoder_Detail.model (torch, 55036 bytes, 10 tensors)

conv2.0.kernel f4 [64, 1, 3, 3]
000000 b9 ae d8 be 8b 52 03 3e 3a d3 92 3f 02 e7 1c 3f
       -0.42320803 0.12824456 1.1470711 0.6128999
000010 8f ed fc 3f 58 51 9b 3d 7e 8f d5 3f f5 15 72 bd
       1.9759997 0.075838745 1.6684415 -0.05910297
000020 90 f3 b3 bd be 83 d5 be 14 73 cb bf f7 a5 a2 be
       -0.0878669 -0.41702074 -1.5894494 -0.31767246
000030 5a 06 0b bf 73 52 ad 3f 24 ac 17 be 02 66 61 40
       -0.54306567 1.3540787 -0.1481176 3.521851
000040 29 c1 87 bf 8b dd 1d bf 6c 82 34 3f 46 8c b1 3d
       -1.0605823 -0.6166617 0.7051151 0.08669333
000050 83 70 3b 3f 08 04 85 bf 18 88 12 3f 36 39 90 be
       0.73218554 -1.0391855 0.5723891 -0.28168648
000060 e4 85 81 bf bc 23 f6 3e 82 78 a7 3f 56 e4 f6 bf
       -1.0118985 0.48074138 1.3083651 -1.9288433
000070 2a fd 31 be ed c1 a7 be c6 bb 53 3d 29 90 4d bf
       -0.1738173 -0.3276514 0.051692747 -0.80298096
000080 68 6a b3 3d 35 26 23 3f 9b c1 d9 be 3e de 2d bd
       0.0876053 0.63730174 -0.42530522 -0.042448275
000090 3e dd cb 3f 78 95 13 3f 03 fe 50 bf 14 f7 19 be
       1.5926893 0.57649946 -0.8163759 -0.15035659
0000a0 1a 41 85 bf 49 c1 95 bf 33 a5 2a 3f 1a f3 92 3d
       -1.0410492 -1.1699611 0.66658324 0.07175274
0000b0 95 00 d6 bf e6 53 47 3f c2 1b 13 3f 7b 99 19 3f
       -1.6718928 0.77862394 0.5746423 0.5999982
0000c0 a7 6c 02 3f f3 76 f9 3e cc 2a e7 3f 7e cf e2 be
       0.5094704 0.48723564 1.8059936 -0.4429893
0000d0 48 47 6b be 77 f9 a6 bf c3 a4 96 bf 16 d5 93 3f
       -0.2297641 -1.3044881 -1.1769031 1.1549404
0000e0 c3 68 46 3d 11 25 b2 3e 90 4f 23 3e c9 1f e4 3f
       0.048439752 0.34793904 0.1594832 1.78222
0000f0 03 fa b6 be 9d 48 d9 3f a0 d6 27 3f 23 3b b0 3e
       -0.3573762 1.6975285 0.65561867 0.34420118
000100 58 de 0d 40 51 d7 a2 bf 12 10 16 3f c3 b1 ad be
       2.2166958 -1.2721959 0.5861827 -0.33924684
000110 dd 73 e4 3e a6 72 c0 3f e8 e9 9d 3e be 56 50 3f
       0.44619647 1.5034988 0.3084252 0.8138236
000120 59 ab d4 bf 5d 82 0c bf 3b df 22 bf 76 2a fa be
       -1.6614791 -0.5488642 -0.6362187 -0.4886052
000130 f0 f6 ee 3e f9 9c e6 bd 56 de c7 bf 6a 9c 48 3f
       0.46672773 -0.11260409 -1.5614727 0.7836367
000140 45 ea 3d 3e 4d 11 ba be ec d9 7d bf ca 46 66 3d
       0.18546398 -0.36341324 -0.9916065 0.056219853
000150 ef 65 d3 bf 96 48 36 3f 89 92 29 40 0f ab c9 be
       -1.6515483 0.7120451 2.6495688 -0.3938832
000160 89 c2 56 3f fa ff 46 bf 45 86 f0 bf 72 01 fb bf
       0.8389059 -0.7773434 -1.8790976 -1.9609816
000170 d6 57 90 bf 66 96 2c bc 6b f3 6c bd 59 c6 96 3f
       -1.1276805 -0.010533905 -0.05784933 1.1779281
000180 ad 3e c1 bf e4 ba ae be 05 94 5d be da 7b 9e 3f
       -1.5097252 -0.3412696 -0.21638496 1.2381546
000190 40 4d 94 be c8 de 76 3f 72 06 db 3f eb cb cb 3d
       -0.28965187 0.9643369 1.7111342 0.09951004
0001a0 45 77 00 3e b4 79 84 3d be 0c a1 3f 9b fa 45 be
       0.12545498 0.064685255 1.2582014 -0.1933388
0001b0 13 b4 93 be cd 5d 90 be 21 4b 82 be 5e b8 e2 3e
       -0.28848323 -0.28196564 -0.25447944 0.44281286
0001c0 a0 30 08 bf 10 9d 5b 3e ee ea 9a 3d 2e ed 8f 3f
       -0.53199196 0.21446633 0.075643405 1.1244256
0001d0 58 6a 04 3f c0 24 8e 3f 28 63 b8 3f 47 5c 5f bf
       0.5172477 1.1104965 1.440526 -0.8725018
0001e0 0e 9b 67 bf 9a a0 1b bf 10 ea f3 3e 98 73 4c bc
       -0.9047097 -0.60791934 0.47639513 -0.012478732
0001f0 3a a1 dd 3e ea f8 ff 3e 30 33 10 3e 3c c3 a0 3f
       0.4328707 0.49994594 0.14082026 1.2559581
000200 88 69 e4 be b4 8d 04 be 03 25 a8 be ca bc c0 3e
       -0.44611764 -0.1294468 -0.32840738 0.37644035
000210 0b 12 1d 3e b2 87 40 bf c1 c9 07 3f 06 75 77 3e
       0.15338914 -0.75207055 0.5304223 0.24165735
000220 5a 0f c8 3e 33 85 de bf da d1 de 3d eb cf 73 3e
       0.39074212 -1.7384399 0.1087987 0.23809783
000230 96 51 9c be b7 36 16 3f ad 64 83 bf 30 57 c9 bf
       -0.30530995 0.5867724 -1.0265099 -1.5729733
000240 ee f3 f4 3f 64 84 b9 3e fe 94 79 3e 7c 7a 75 3f
       1.9136941 0.3623382 0.24373242 0.9589002
000250 16 62 90 bf b1 9f f0 3f 17 14 4c be c7 30 81 3f
       -1.1279933 1.8798734 -0.19929539 1.0093011
000260 0c e1 5a bf 54 12 9f 3f 52 74 f1 3c 08 b1 8c 3e
       -0.85499644 1.2427468 0.029474411 0.27478814
000270 3c 60 7e 3f f0 4d 02 be 9c f7 7e 3e 18 d8 51 bf
       0.9936559 -0.12725043 0.24899143 -0.8197036
000280 7b b2 ca 3f 11 a4 a4 3f cf b0 2d be e9 25 d8 bf
       1.5835718 1.2862569 -0.16961978 -1.6886569
000290 f9 a2 03 40 4b 48 be bf 0c 5d 0a be c8 75 79 3f
       2.056822 -1.4865812 -0.13512057 0.97445345
0002a0 39 73 34 bf 29 d0 d6 3e 76 30 db be a8 b1 b6 3e
       -0.70488316 0.4195569 -0.4281041 0.35682416
0002b0 24 e5 cc bf 9b 58 0e 3d 1c 01 db bf a8 fe 34 3f
       -1.6007428 0.03475247 -1.7109714 0.70701075
0002c0 da e8 be 3f a3 49 71 3e 46 af 77 3f 3c 14 d0 be
       1.4914811 0.23563246 0.9675182 -0.40640438
0002d0 6c ba c0 be 12 7a 93 3e 0a c0 a3 bf 4e 0d 49 3f
       -0.3764223 0.2880407 -1.2792981 0.78535926
0002e0 1d f2 48 3e 44 a4 23 bf d6 2d 2e be ce ca 39 bf
       0.19623609 -0.63922524 -0.17009673 -0.7257508
0002f0 b3 03 e2 bd e2 ff 34 3c 9d 2e 15 bf a2 44 a7 be
       -0.11035862 0.011047335 -0.5827425 -0.3266955
000300 67 ad 93 bf 1d 68 bd 3f 3a af 21 3f 03 6b 99 bf
       -1.1537293 1.4797398 0.63158 -1.1985782
000310 b1 f2 86 3f fe eb 34 bf 32 36 28 3e 4d c0 bf be
       1.0542814 -0.70672596 0.16426924 -0.374514
000320 5e f1 86 bf ec 72 d5 3f 95 e8 0a 40 91 a1 1f 3e
       -1.054241 1.6675696 2.1704457 0.15588976
000330 7c 3a 06 bf 5a 12 c6 bc 0c 51 12 3f 02 19 40 3f
       -0.5243299 -0.024178673 0.5715492 0.7503816
000340 4e da 82 3e 94 5a 90 3f bd c8 02 bf 3d 37 a1 bf
       0.25557178 1.1277642 -0.5108755 -1.2594982
000350 be a1 94 be 18 da 9f 3d 81 ee c4 3e d3 fd fd bf
       -0.2902965 0.0780527 0.38463214 -1.9843086
000360 22 bc 0b 3f bd af bc 3f de 73 09 3f 22 31 83 be
       0.5458394 1.4741131 0.53692424 -0.25623423
000370 05 cc 69 3f 30 71 91 3f be 45 d6 3f d3 52 79 bf
       0.91326934 1.1362667 1.6740034 -0.97392005
000380 27 b9 c6 3e db 88 e1 3f a1 8a 90 3f 26 27 8a bf
       0.38813135 1.761989 1.1292306 -1.0793197
000390 76 e6 3e bf 06 b0 03 be 3f 7f 89 bf 86 d4 3f 3f
       -0.74570405 -0.12860116 -1.0741957 0.7493366
0003a0 95 f4 e2 bf 99 dc a5 3f c7 c8 a9 bf 38 8f 83 bf
       -1.773089 1.2957946 -1.3264397 -1.0278082
0003b0 0a c2 42 3f af 89 3d bf 8f 15 4b 3f f8 69 99 3e
       0.7607733 -0.74038213 0.7932977 0.2996366
0003c0 dd 0a f1 3f f4 a5 bb 3f 3c 8a e3 be 84 eb 6a be
       1.883144 1.466002 -0.44441402 -0.22941405
0003d0 f9 08 05 3e 0d 22 1b bf 88 96 d7 be d5 58 b8 be
       0.12991704 -0.6059883 -0.42107034 -0.36005273
0003e0 90 77 24 3e 87 0e 83 be 52 8a 39 3f 0f 46 27 3f
       0.16061234 -0.2559702 0.72476685 0.65341276
0003f0 38 16 12 3f be c4 32 bf 27 b6 4f 3f f2 c4 81 3f
       0.57065153 -0.69831455 0.8113732 1.0138228

conv2.1.kernel f4 [64, 1, 3, 3]
000000 cb 0d 40 3f 63 59 15 bf 5f f7 54 bf 25 b4 04 40
       0.75021046 -0.5833952 -0.8318996 2.0734951
000010 33 0b 00 bf 7b 91 c7 3d 8b db a9 3e f1 5f 1c c0
       -0.5001709 0.09744545 0.3317531 -2.4433558
000020 3c 15 17 3e 5a 6a 2e 3e 4b 0e 86 3f 51 f3 c7 bf
       0.14754194 0.17032757 1.0473112 -1.5621129
000030 08 e7 ac 3e 63 15 07 bf 23 71 68 3e 51 11 c4 be
       0.33770013 -0.5276701 0.22699408 -0.3829446
000040 71 8f 3b bf 3c 8c 20 3e 1e fc ba be d9 2c 67 bf
       -0.7326575 0.15678495 -0.36520475 -0.9030281
000050 82 72 c3 be c9 b2 9c bf 05 b9 f2 3f c5 9b e8 3f
       -0.381733 -1.2242061 1.8962713 1.8172537
000060 ac c3 e5 3e 89 8c 93 bd f3 19 bf 3c 8c 24 b1 be
       0.44875848 -0.07204539 0.023327803 -0.34598196
000070 07 be 88 bf ca bf e6 be a8 46 5e 3e 12 22 ca 3f
       -1.0682992 -0.45068198 0.2170664 1.5791647
000080 55 54 9b be a0 6f 63 c0 a5 38 d0 bf 4f c7 00 40
       -0.30337778 -3.553688 -1.6267287 2.0121648
000090 18 82 87 bf 25 fe 28 be 7a 20 10 bf 83 e6 23 3f
       -1.0586576 -0.16503198 -0.56299555 0.6402361
0000a0 bb 82 38 3f c2 7a 13 bf 93 f3 b5 3f 6a 08 a6 be
       0.7207448 -0.5760919 1.4214958 -0.32428294
0000b0 e3 5b 06 40 11 32 54 3e 7c 95 33 be a7 26 61 bf
       2.0993583 0.20722224 -0.17537493 -0.87949604
0000c0 4a cd a6 bf d3 52 97 3d 3d 99 02 c0 c7 63 3f 3f
       -1.3031399 0.07388844 -2.040603 0.74761623
0000d0 cc 9f 93 be 2c fd e7 3c d9 e4 bc bf fc 3f b3 bf
       -0.28832853 0.028318964 -1.4757339 -1.4003901
0000e0 84 03 9f 3f cd f3 92 3f 4e 66 57 3f 94 b3 4f bf
       1.2422948 1.1480652 0.8414048 -0.8113339
0000f0 32 c2 47 bf d0 fa b6 bf e9 54 b5 3e 41 4f 6b bf
       -0.78030694 -1.4295292 0.35416344 -0.91917807
000100 fd 2c 30 40 7b 7d 24 be 59 e0 2d 3f 2a 15 16 3e
       2.7527459 -0.16063492 0.6792045 0.14656511
000110 e5 a6 b1 be 0d 43 3b bc cc 87 5d 3f a8 aa 86 3f
       -0.34697643 -0.01142956 0.86535335 1.052083
000120 03 42 ba be 99 f3 71 3e a8 da 86 bf 52 bc a2 be
       -0.36378488 0.23628081 -1.0535479 -0.31784302
000130 b4 84 8a 3f 02 c3 6c be 00 cd 2a 3f c1 91 86 bf
       1.0821748 -0.23121265 0.66719055 -1.051323
000140 8c e5 ed bf c9 87 f0 3e 39 db 90 3e 5c 48 a2 3f
       -1.8585677 0.46978596 0.28292254 1.2678332
000150 07 9c 91 bf 4e 8a 9e 3e 74 58 3a bf a5 dc 84 3f
       -1.1375741 0.30964893 -0.7279122 1.0379835
000160 2b 0c cc bf 85 b2 b9 be f1 88 99 bf 11 9c 11 3f
       -1.5941213 -0.36269012 -1.1994916 0.56878763
000170 fb 57 93 3d 47 d8 e8 be a2 87 9f be 71 38 82 be
       0.07194515 -0.45477507 -0.31158167 -0.25433686
000180 f4 8c 40 bf 70 91 24 bf 55 5a 3f 3e 2d 87 1d 3f
       -0.7521508 -0.6428442 0.18686803 0.61534387
000190 12 c8 c3 3e 36 7c 8b be 8e 9a 4f 3e cd c1 b3 be
       0.3823858 -0.27243203 0.20273802 -0.35108796
0001a0 7e 6f e9 bf f3 76 9a be b8 72 eb bf f2 a4 cd be
       -1.823715 -0.30168876 -1.8394384 -0.40164906
0001b0 c0 52 d2 3e ca 45 5a bf 1f c6 72 3f 4b ff 69 bf
       0.41078758 -0.8526274 0.9483356 -0.9140517
0001c0 59 19 20 3e 33 61 07 3f 36 48 0d be 18 95 d2 3d
       0.1563467 0.5288269 -0.13797078 0.102823436
0001d0 2c 4e 90 bd 74 f9 6e be 05 29 7f bf aa 4e b3 be
       -0.0704616 -0.23337346 -0.99671966 -0.35020953
0001e0 67 58 b0 3f 2b 0c 2e be a7 2f 8c 3f e6 7c 28 3f
       1.3776978 -0.16996829 1.0952042 0.6581558
0001f0 69 f9 48 be 1a 13 28 3f ce 55 e0 bf f9 30 a9 3f
       -0.19626392 0.65654147 -1.7526186 1.321807
000200 ab 73 e9 3f 80 70 4b 3e e3 f1 96 3f db f4 31 3f
       1.8238424 0.19867134 1.1792568 0.69514245
000210 63 b2 53 40 a4 5e bd bf f6 4b 46 bf a6 c3 a4 3f
       3.3077629 -1.4794507 -0.7745966 1.2872207
000220 c7 e7 67 3d 80 ba af be e1 6e a1 3e e0 75 65 bf
       0.056617524 -0.34321976 0.31529906 -0.8963299
000230 04 42 0f bf 95 3a 9b 3f e2 f8 8f be 96 13 22 3e
       -0.55960107 1.2127253 -0.2811957 0.15827784
000240 43 0e 72 3f 8b f8 6e bf c1 7f b0 be fe c2 1b 3f
       0.9455301 -0.93347996 -0.34472468 0.6084441
000250 04 97 8b 3e b6 03 79 bf 73 fc 12 3f a6 ff df 3f
       0.27263653 -0.9727129 0.57416457 1.7499893
000260 40 bc 05 bf 37 d6 9a bf 6d 74 56 3f 3b b7 83 3f
       -0.5224037 -1.2096623 0.837714 1.0290293
000270 75 0c 21 bf da 3a 3c c0 f2 a1 02 bf 44 ed 38 bc
       -0.6290963 -2.941092 -0.5102836 -0.011287037
000280 55 8f 2d 3f 49 df b7 3f 57 2e 0e 3f 7e 9f fe bd
       0.6779683 1.4365016 0.5553946 -0.124327645
000290 d1 4a 0d 3f 80 7f b3 3e 98 f6 e2 3f 93 9f 1d 3f
       0.55192286 0.35058212 1.7731504 0.61571616
0002a0 5f 05 43 be e1 a3 99 3f f6 f2 26 bf b6 e2 a0 bb
       -0.19045018 1.2003137 -0.6521448 -0.0049098385
0002b0 e4 1f 39 bf cf 50 0c bf c6 88 28 3e 58 86 5d 3f
       -0.72314286 -0.54810804 0.16458425 0.8653312
0002c0 24 d0 90 bd ca 47 d3 3d 24 65 11 c0 2f 05 10 c0
       -0.0707095 0.10316427 -2.2717981 -2.2503164
0002d0 b7 f5 a8 3e 7f b4 92 3e 73 55 9c 3d de 4a 0a 3f
       0.32999966 0.28653333 0.07633486 0.5402049
0002e0 f3 37 19 3f fc be 91 bf ee 62 f6 be 40 c8 8d bf
       0.59850997 -1.1386409 -0.48122352 -1.1076736
0002f0 17 38 64 bf 66 bc 57 bf e8 97 49 3f 69 05 6f bf
       -0.89148086 -0.8427185 0.78747416 -0.9336763
000300 a1 18 b2 3f 0a bb 4a 3e f4 ff 35 3f c1 4e e5 3f
       1.3913766 0.19797912 0.7109368 1.7914659
000310 91 f9 ec 3c 5a 1c df 3e 8b 56 8d bf c2 29 46 bf
       0.028927596 0.43576318 -1.1042036 -0.7740747
000320 38 32 11 3f 77 3b 74 3d 63 8c d0 be 50 9c b0 bf
       0.5671725 0.059627023 -0.40732107 -1.3797703
000330 59 3f 98 bf 15 bc 83 bf f0 e8 17 bf 1c 13 31 bf
       -1.1894332 -1.0291773 -0.5933981 -0.69169784
000340 4d c9 c6 bf e0 9f b4 3e 68 e1 fa bf 11 94 97 bf
       -1.5530182 0.35278225 -1.9600039 -1.1842061
000350 2b c9 82 bf ca d3 1f 3f 66 dd d7 be 26 66 fb bd
       -1.0217642 0.6243254 -0.421611 -0.12275343
000360 7a ef 84 be 7c b9 78 be c0 0d a6 3f f0 1c 98 bf
       -0.25963956 -0.24289507 1.2972946 -1.1883831
000370 dc b2 c6 3e 56 4f 07 bd 9c e3 6b be 1d 81 b3 bf
       0.38808334 -0.033034645 -0.23036045 -1.4023777
000380 e9 5e 84 bf 80 47 20 3f 4d e6 81 bf 42 b7 a4 3d
       -1.0341464 0.626091 -1.0148407 0.08042766
000390 5c 64 e0 3f e6 fd 45 3f 29 ca 8f bc e6 5c ef 3f
       1.7530627 0.77340543 -0.017552452 1.8700225
0003a0 f5 30 ca 3e fe b5 62 3f 94 ea f1 be e4 9c 6a bf
       0.39490476 0.8855895 -0.4724928 -0.91645646
0003b0 f9 7e 7a 3e 3d 78 21 3f b5 f4 8c 3f 9b 90 d2 be
       0.24462499 0.63074094 1.1012179 -0.4112595
0003c0 8e c1 e4 3e d6 eb 88 3f c7 ff 3a c0 c5 be 24 3e
       0.4467892 1.0696971 -2.9218614 0.16088398
0003d0 31 7c 25 be e8 53 a1 3f 86 7d 04 bf 75 0b 02 c0
       -0.16160657 1.2603731 -0.51754034 -2.0319493
0003e0 75 86 f5 3e 04 01 17 3e d4 7b 96 3f 80 6f 17 c0
       0.47954145 0.14746481 1.1756539 -2.3661804
0003f0 ba cf 32 3f 84 bd 08 3e 7d a4 97 be 81 f4 f9 bf
       0.69848216 0.13353544 -0.29617682 -1.9527742

conv2.2.kernel f4 [64, 1, 3, 3]
000000 a5 4c ed bd 8b 02 2c c0 ca 4f 3b bf 86 c0 15 40
       -0.115868844 -2.6876552 -0.73168623 2.3398757
000010 fc b4 57 bf d4 0c d2 be 61 3c d3 bf 48 37 c4 3e
       -0.84260535 -0.41025412 -1.6502801 0.38323426
000020 5c ff 64 be 72 78 0d be 4a 86 4f bb f6 fc 28 3f
       -0.22363037 -0.13815477 -0.0031665736 0.6601099
000030 dc 92 8a 3f 34 a5 9b bc 46 b0 1c 3f 40 48 8e 3e
       1.0826068 -0.018999673 0.6120647 0.27789497
000040 4e 8a 80 3f 14 b7 56 bf 58 e8 63 bf 6b 89 c9 3e
       1.0042207 -0.83873105 -0.89026403 0.39362654
000050 38 6a f5 3e 0a bc 93 3f 22 f6 c7 bf 1e 73 35 bf
       0.479326 1.154176 -1.5621989 -0.7087878
000060 86 c1 92 bf c8 e8 63 3e e7 57 1a 40 94 72 cf bf
       -1.1465309 0.22256768 2.4116151 -1.6206841
000070 3c f9 88 3d 2f 4d 87 bf a8 8b 3b 3c d3 f0 87 bf
       0.06688163 -1.057043 0.011446871 -1.0620369
000080 e0 b1 e7 bf 42 53 9e bd 8c 31 11 c0 67 ef 38 3f
       -1.8101158 -0.07730724 -2.268649 0.722403
000090 1e 75 b2 3f 8a af 33 3e 88 d6 32 3f f3 cc 92 3e
       1.3941991 0.17547432 0.698586 0.2867199
0000a0 4a 15 41 3e 68 ee b0 be 6b 72 5c bf eb 5c 8e 3f
       0.18855777 -0.3455689 -0.8611209 1.1122106
0000b0 eb 66 28 bf 76 42 a2 bf 4f 92 6b be 5e d5 36 3f
       -0.6578204 -1.2676532 -0.23005031 0.7141932
0000c0 66 50 28 3f c2 c7 8f be cf 03 4c 3f ac b3 0f c0
       0.6574768 -0.2808209 0.7969331 -2.2453413
0000d0 21 93 ef 3e d1 bd 5e 3e 38 a2 36 bf 3e 70 1c be
       0.46791938 0.21752097 -0.71341276 -0.15277192
0000e0 b3 28 ee bf 43 d6 25 3f b9 8f 21 bf 77 33 57 be
       -1.860617 0.6478006 -0.6310993 -0.21015726
0000f0 c2 9c 7d 3f a5 31 11 3e 6b 32 be 3e 8c eb 12 be
       0.9906732 0.14179094 0.3714784 -0.14347667
000100 13 48 c9 bf 36 52 51 3f 4d f3 b6 3f 0a 12 85 3e
       -1.572512 0.8176607 1.4293 0.25990325
000110 f0 c3 25 be 7d 97 11 3f 95 14 80 3e b9 f7 3f be
       -0.16188025 0.5687178 0.25015703 -0.18746842
000120 7e 03 14 3f 8c ec 77 3d ad 25 77 3f f1 fb a1 3f
       0.5781783 0.060528323 0.96541864 1.2655011
000130 81 cc c5 bf c3 cf e3 3f 44 02 c7 bf 80 8f 93 3f
       -1.5453035 1.7797779 -1.5547566 1.1528168
000140 fa d3 08 c0 c8 34 54 3f 20 90 6e bf 23 8d 5a 3f
       -2.137938 0.8289304 -0.9318867 0.8537161
000150 fb 70 98 3f 8c d5 51 bf 18 d1 86 be 22 67 a7 3f
       1.1909479 -0.8196647 -0.263314 1.3078349
000160 10 ef a0 3f 9f 04 7d bf d2 55 f3 bf 0c 8d 1d bf
       1.2572956 -0.98835176 -1.9010565 -0.61543345
000170 5c f2 de be ee 5d 06 40 60 f8 8f be d7 f3 c7 be
       -0.4354428 2.099483 -0.28119183 -0.39053223
000180 8e d7 3c bf 2c 24 a9 bf 4d 0f fc 3f 20 19 a9 bf
       -0.7376641 -1.3214164 1.969217 -1.3210793
000190 1a 99 d2 3f 67 f3 65 3f 56 6f e4 3f 01 52 ab 3f
       1.6452973 0.8982453 1.7846477 1.3384401
0001a0 05 82 ba be 43 dc 9c be 49 2c ec 3d 0c cd d0 be
       -0.36427322 -0.30636796 0.11531884 -0.40781438
0001b0 f8 c7 54 bf df 14 e2 3e f0 0a e5 be dc 6f 14 3f
       -0.8311763 0.44156548 -0.44734907 0.57983184
0001c0 d8 3a 82 bc 3a e2 7f bf d7 4a cc 3e ef ef ef bd
       -0.0158972 -0.9995457 0.39900848 -0.117156856
0001d0 9e cd 04 bf ca 4f 55 bf 45 6b 7c bf 92 c2 11 be
       -0.51876247 -0.83324873 -0.9860118 -0.14234379
0001e0 2e ec 3b bf c1 87 49 3f de 63 31 40 a8 6a 73 3f
       -0.73407257 0.7872277 2.7717204 0.9508462
0001f0 8c 61 06 bf 65 48 45 3d 93 ca ff 3e 30 68 12 bf
       -0.52492595 0.048164744 0.4995924 -0.5719023
000200 7d d5 98 3f ce 4d 08 40 fd 5b 4f c0 ee 30 30 3f
       1.1940151 2.1297488 -3.2399895 0.6882466
000210 6c 6a 88 bd c2 50 8b be 6a 9b c9 bf c1 07 69 3f
       -0.06660923 -0.2721005 -1.5750554 0.91027457
000220 54 1d 73 bf 3d d3 8e bf 49 4b d5 bf c4 f5 a5 bf
       -0.94966626 -1.1158215 -1.66636 -1.2965627
000230 28 61 24 bf bc e5 96 bd 88 7b de be ee ab 1e be
       -0.6421075 -0.07368037 -0.43453622 -0.15495273
000240 57 a3 83 bf 47 68 fe be d2 ca 35 3f e0 39 9c 3e
       -1.0284222 -0.49688932 0.71012604 0.30512905
000250 85 40 d9 3d 8b c0 a2 bf 40 99 97 3e af 19 a5 bf
       0.10608009 -1.271501 0.29609108 -1.2898463
000260 46 62 65 be 5c 2c a7 bf 03 fa 91 3f 45 72 3f bf
       -0.2240077 -1.3060412 1.1404423 -0.74783736
000270 03 4b 51 be 05 2a 10 c0 f1 7f 8a 3f 5b db e1 3d
       -0.20438771 -2.2525647 1.0820295 0.11028167
000280 1f d0 ff bf 39 01 f4 3e 52 f8 24 3f 0e f1 6b bf
       -1.9985389 0.47657183 0.64441407 -0.92164695
000290 90 9e ba 3e b5 6a 6a be ae 1a 40 3d 63 ef 0b be
       0.364491 -0.22892268 0.046900444 -0.13665538
0002a0 2b e4 1f be ef cc 57 bf b5 2e 91 3f 55 5c 3a bf
       -0.15614383 -0.8429708 1.1342379 -0.7279714
0002b0 08 03 75 bf 58 1e c6 be e1 cb 2e bf 72 f1 61 3f
       -0.9570775 -0.38695025 -0.68279845 0.8825904
0002c0 08 ef ab be 32 a6 4b bf 57 5e 75 3f 8c 39 d7 3e
       -0.33580804 -0.7955047 0.95847076 0.42036092
0002d0 8e bc 2d be 8f 8b 35 bf 1b e6 b8 3e 3f 60 3b 3f
       -0.16966459 -0.70916075 0.36113057 0.73193735
0002e0 05 c4 62 bf d6 db 26 bf e7 06 01 40 4b c8 6e bf
       -0.8858035 -0.65179193 2.0160463 -0.9327437
0002f0 90 f9 09 40 62 99 26 bf 62 c9 7e bf 2e 46 67 3e
       2.155857 -0.65077794 -0.99526036 0.22585365
000300 3f 2a fb bf b8 ce 7b bf 7a f9 76 bf 0f 31 1a be
       -1.9622267 -0.983623 -0.9647442 -0.15057777
000310 bb 55 e2 bd 6f 63 b9 3f 5c 55 4b 3f 7b 57 53 3f
       -0.11051508 1.448347 0.79427123 0.8255536
000320 ee 4a 04 be dc 3c 9e 3e 57 9b 7a 3f 54 2a a9 3d
       -0.12919208 0.30905807 0.9789328 0.082600266
000330 b1 30 94 3e 7f b1 5c 3e db 6a e0 be d5 94 4a 3f
       0.289434 0.21552084 -0.43831524 0.7913335
000340 39 03 79 bf f1 97 97 bf f3 32 1a bf ab af 99 bf
       -0.9727054 -1.1843244 -0.6023399 -1.2006735
000350 09 cc 1b 3f 8b 36 3d 3f e2 62 88 3e d0 24 4b 40
       0.6085821 0.7391135 0.26637942 3.1741219
000360 bf 21 08 3f 95 cb 77 bd fc 01 ea be 57 8f cf be
       0.5317649 -0.060496885 -0.4570464 -0.40539047
000370 98 e1 bf be 1e 67 f0 3f 8b b1 83 bf c5 05 2d bf
       -0.37476802 1.8781469 -1.0288557 -0.6758693
000380 45 1f 4f 3e 58 2e 30 bf ee 87 31 be b2 56 10 40
       0.20226772 -0.68820715 -0.1733701 2.2552915
000390 5b d6 00 40 26 98 28 3e 27 5c 85 bf 59 db 80 3f
       2.0130832 0.1646429 -1.0418748 1.006694
0003a0 7e 9f 54 3e 5f 45 8c 3e 45 c7 d6 be 22 c3 3e 3b
       0.20763966 0.27396676 -0.41948906 0.0029108007
0003b0 6e 6b e8 3d 4a 4c 38 bf ea 00 ca 3e 7c df 63 3e
       0.113486156 -0.7199141 0.39453822 0.22253221
0003c0 36 3d ac 3d b8 91 ba bf ed 03 1b 3e dc 6f f5 3e
       0.084101126 -1.457572 0.15138216 0.47936904
0003d0 c3 21 7a bf e7 32 d9 bf d9 5a 8b bf f8 1a 9e bf
       -0.97707766 -1.6968659 -1.08871 -1.235198
0003e0 30 82 46 3e 8f be af bf 65 a4 8f bf 0e 97 70 3f
       0.193856 -1.3730029 -1.1222044 0.9398049
0003f0 e5 7e 02 bf e8 ac c5 bf 4f e6 a4 3f 97 2f c9 3e
       -0.50974876 -1.5443392 1.2882785 0.3929412

conv2.3.kernel f4 [64, 1, 3, 3]
000000 96 36 18 3f f0 65 9d bf 15 82 b6 3e b3 b9 99 3e
       0.5945829 -1.2296734 0.3564612 0.3002449
000010 c8 f9 3f bf 97 6e 8a bf b1 3c 89 be 8e b2 0c 3f
       -0.7499051 -1.0814999 -0.26804116 0.5495995
000020 00 f8 bb bf 24 b1 18 3e e7 06 65 bd ba 7e ea 3f
       -1.4685059 0.14911324 -0.055914786 1.8319924
000030 a1 a6 2f bf 11 ee 9e bf 46 ec 83 bd ff 2e 56 3d
       -0.6861363 -1.2416402 -0.0644155 0.052290913
000040 73 56 ea be aa 53 96 3f df 90 a7 3d 69 d6 21 3f
       -0.4576908 1.1744282 0.08181929 0.6321779
000050 0c 8b 34 bf cd 02 6f bf a7 f1 8f be c3 ac c1 be
       -0.7052467 -0.9336365 -0.28114054 -0.3782712
000060 14 ad b4 3e 4a a0 4a 3f 56 02 fd be 84 37 4b bf
       0.35288298 0.7915083 -0.49415845 -0.79381585
000070 bf 24 f5 be e2 ae d5 bf f1 87 04 bf 41 4b e6 bf
       -0.47879598 -1.6693995 -0.5176993 -1.7991716
000080 05 4c ac 3e 43 33 a1 bd 45 f4 a4 3f b6 5d d5 3f
       0.33651748 -0.078711055 1.2887045 1.6669223
000090 b4 6e 8e bf a7 f1 40 3e 0b b7 cb bf 90 fb 9c 3e
       -1.1127534 0.18842183 -1.5915235 0.30660677
0000a0 57 9d 82 3e f6 15 99 bf fd d0 84 be 1e 11 26 3f
       0.25510666 -1.1959827 -0.25940695 0.6486987
0000b0 8e 1d 89 bf 51 18 21 3e e9 0d 99 3f f1 7b c0 3e
       -1.0712144 0.15731932 1.195737 0.3759456
0000c0 96 74 56 bf 09 50 32 3f 91 53 9e bf 4a ed e5 3e
       -0.83771646 0.69653374 -1.2369252 0.449076
0000d0 72 04 ec be 39 7a a0 3e 3f 07 52 3f 68 4f 4d bd
       -0.46097142 0.31343248 0.82042307 -0.050124556
0000e0 b7 19 72 bf e9 d2 aa 3c 1e 6c ae be de 1f 28 be
       -0.9457049 0.020852523 -0.34066862 -0.16418406
0000f0 21 e9 79 be 65 32 90 bf 7d c6 71 bf e2 a6 a7 3e
       -0.24405338 -1.1265379 -0.94443494 0.3274451
000100 4b c2 c9 be 2b 39 90 3e 13 c8 ac 3f 2b 60 48 3f
       -0.39406046 0.28168616 1.3498558 0.7827174
000110 8a ba 5a be 3f f1 86 be 8b f8 56 3e e7 d2 3b be
       -0.21360222 -0.2635593 0.20993249 -0.18342172
000120 a4 1a 0d be d3 a0 94 3d e0 e6 e7 be 0c 17 15 3f
       -0.13779694 0.07257237 -0.4529333 0.5823829
000130 0f e6 53 bf 55 36 2e 3f 8b e6 26 bf 2e 19 19 bf
       -0.82772917 0.68051654 -0.6519553 -0.59804046
000140 9b f3 32 bf 38 79 c0 3f 1d f0 2e 3f d9 b3 77 be
       -0.6990296 1.5036993 0.68335134 -0.241897
000150 d1 8f d5 bd f6 48 ae be c4 4e 75 3e 6b 86 c6 3d
       -0.104278214 -0.3404004 0.23955828 0.09693607
000160 da 83 bb be a8 c9 d4 3e 9f 5e 7a 3d c7 bf 02 c0
       -0.36624032 0.41560102 0.061125394 -2.0429552
000170 c0 9a 0a c0 cc 38 b8 3e 0a ab dc bf cc 36 92 bf
       -2.1656952 0.35980833 -1.7239697 -1.1422973
000180 3c d7 ba bf d2 fe 9d 3f 37 7f 92 be 6d ad 08 bf
       -1.4596934 1.234339 -0.28612682 -0.53389627
000190 52 15 c3 be 65 6b 16 3f 78 02 df be 02 46 b7 be
       -0.38102204 0.5875762 -0.4355657 -0.357956
0001a0 6a 49 9e bf 9e 2c d8 3f 92 93 2e 3e a1 c9 0f 3f
       -1.2366154 1.6888616 0.17048481 0.56167036
0001b0 b2 c3 1d 40 e3 f1 8d 3f 83 f9 34 bf ab 30 83 bf
       2.4650693 1.1089443 -0.70693225 -1.0249227
0001c0 51 e4 5e 3f bb a7 e5 be f5 dd 70 3f af c7 a6 3e
       0.87067133 -0.4485453 0.9408868 0.32574221
0001d0 ef 16 04 3f 2d c5 75 3f 5f 38 d2 3e d9 71 cd 3f
       0.51597494 0.9600399 0.41058633 1.6050369
0001e0 d8 db c6 3e 15 ef e1 3e c7 3f a1 bf fd a9 c6 bf
       0.38839602 0.44127718 -1.2597588 -1.5520626
0001f0 a9 af 79 bf 81 53 49 3f b6 29 0a 40 c0 04 0b bf
       -0.9753366 0.7864304 2.1587958 -0.5430412
000200 08 3d 34 bf d7 d3 87 bf a4 59 4e 3f a7 02 2d 3f
       -0.70405626 -1.0611523 0.8060553 0.6758217
000210 93 0f 35 bf 12 48 03 3f f6 9b 64 bf ed e8 85 be
       -0.7072689 0.51281846 -0.8930048 -0.2615427
000220 52 23 0e 3f 95 c5 2d 3f 9d 3c 26 3e 97 7d 88 3f
       0.55522645 0.6787961 0.1623406 1.0663327
000230 e4 cf 00 40 5a 5b 8d 3f 04 56 61 be b2 7f 48 be
       2.0126886 1.1043503 -0.22005469 -0.19579962
000240 9b 24 27 3c e6 76 4c 3c 89 b4 c9 be 0f d7 b5 3e
       0.0102015985 0.0124795195 -0.3939555 0.3551564
000250 97 cf 64 3e 65 2f b1 be 6e a1 89 be d6 f9 ec be
       0.22344814 -0.34606472 -0.26880974 -0.4628436
000260 af 48 51 3d ea c3 05 c0 cd b5 c9 3d a4 38 9d bf
       0.051094707 -2.0900826 0.09849129 -1.228291
000270 af 2b 8f 3d c8 94 39 be cf 4c 41 3f fe f9 b6 3f
       0.06990754 -0.18123162 0.75507826 1.4295042
000280 83 5f fd 3f 0d 34 71 3f 33 93 ec be 20 23 04 be
       1.9794773 0.9422005 -0.46206054 -0.12904024
000290 fa ce 1b bf 58 19 9b 3f b1 11 a5 3f b4 24 4a 3f
       -0.60862696 1.2117109 1.2896024 0.78962255
0002a0 c3 e1 d1 3f b2 eb 4e 3f b4 83 57 bf 19 b4 18 bf
       1.6397022 0.8082839 -0.8418534 -0.5964981
0002b0 42 aa b3 3e 40 32 b1 bf b5 e9 23 bf f6 9d f7 3f
       0.35090834 -1.384346 -0.64028484 1.9345081
0002c0 81 a7 92 bf 1f 98 bd 3e 51 de a7 be 3e fa ce 3f
       -1.1457368 0.37030122 -0.327868 1.6170118
0002d0 5e d4 35 3f b4 8e 02 3d a4 0b 1a 3f 35 b1 cc 3e
       0.7102717 0.031874374 0.6017401 0.39978948
0002e0 b5 3f 90 3f 7f 89 c8 3f 74 9b 99 3e bf d1 1f 3e
       1.1269442 1.566696 0.30001414 0.15607356
0002f0 e4 62 93 bf ef c2 8c 3f e3 20 01 40 fd 22 d9 3e
       -1.1514554 1.0996989 2.0176322 0.42409506
000300 d3 fd a3 bf 36 01 31 3e d0 7d 38 3e da 95 d9 3d
       -1.2811836 0.17285618 0.18016744 0.10624285
000310 9f e7 8e 3f a6 9f 25 3f 9d 52 89 bf d4 e1 87 3f
       1.1164435 0.6469673 -1.0728337 1.0615792
000320 da 7c 78 be cd 77 17 c0 d5 5a 86 bf ee d1 a0 3f
       -0.24266377 -2.366687 -1.049647 1.2564065
000330 aa c1 21 3f 89 02 0c 3e dc a0 44 3e 78 01 92 3f
       0.6318613 0.13672842 0.19201988 1.1406698
000340 e1 f6 05 c0 b6 f0 00 3d 75 e4 95 be f2 72 39 3e
       -2.0931933 0.03147956 -0.2927586 0.18110254
000350 08 2a bd 3f 64 17 7b 3c 23 c5 bc 3e 23 98 16 c0
       1.4778452 0.015325401 0.36869153 -2.3530357
000360 73 30 7a bc 57 fe 60 bf bb e3 13 40 ed 66 60 bb
       -0.01527034 -0.8788809 2.3107746 -0.0034241036
000370 7c 23 54 3e dd c7 e6 be a1 11 e7 3f 3a e5 c9 bd
       0.20716661 -0.4507436 1.8052255 -0.098581746
000380 04 2d 86 3f 18 5a 7a 3f 60 0a b9 3f 1c 2d 79 be
       1.0482488 0.9779372 1.4456291 -0.24333614
000390 ab 21 0b 3f 23 9d 14 3e 24 18 62 3f 05 bc c6 3d
       0.5434825 0.14513068 0.88318086 0.09703831
0003a0 7b 79 9e 3e 7e b5 ac 3e a9 cf 1a c0 7f 75 24 c0
       0.30952057 0.33732218 -2.4189246 -2.5696714
0003b0 7c 16 24 bd 00 aa 60 3f 5e 28 c6 be 25 c0 a2 3f
       -0.040060505 0.877594 -0.38702673 1.2714888
0003c0 77 58 4b be 2f 14 9e bf 0f f2 64 bf 8b 9b 9d 3f
       -0.19857965 -1.234991 -0.8943185 1.2313093
0003d0 16 5c d7 bf 74 71 6e 3e 75 e6 f6 3e 65 26 86 3f
       -1.6824977 0.23285466 0.482227 1.0480467
0003e0 af e6 8b 3f 35 11 93 3f bc d7 3e 3f c3 ee 39 bf
       1.0929774 1.1489626 0.74547935 -0.72629946
0003f0 17 e4 14 bf 1d 48 93 3f 50 8d 46 be 4f 8a f8 be
       -0.5816054 1.1506382 -0.19389844 -0.4854302

conv2.4.kernel f4 [64, 1, 3, 3]
000000 94 5d 3b 3f f9 b9 c8 3f 45 71 2f bf 5e 6e 67 bf
       0.73189664 1.5681754 -0.6853221 -0.9040278
000010 96 04 5a 3f 30 21 ab 3e a5 83 03 40 b1 d0 1c bf
       0.8516325 0.33423758 2.05491 -0.6125594
000020 c0 d8 36 3e 27 70 23 3f 0c 14 2c 3f dd 12 7f 3f
       0.17856121 0.63843006 0.6721809 0.9963816
000030 cd b6 76 3f d3 ec 91 bf 7c 9e c6 bf d7 f8 c0 bd
       0.9637268 -1.1400398 -1.5517116 -0.094224624
000040 4c 45 60 bf 6a d7 8e be 93 61 2d 40 75 b2 48 bf
       -0.8760574 -0.27898723 2.7090805 -0.78397304
000050 6c 7c 4c 3f 8a 0c 46 bf c0 49 11 3f 32 84 f5 3f
       0.7987735 -0.77362883 0.5675316 1.9180968
000060 e8 32 43 bf a9 b6 cd be ae ab 89 3f c4 2f 54 3e
       -0.7624955 -0.4017842 1.0755517 0.20721346
000070 fb fb 9a be de 48 f9 3e 85 c0 fe be 1b 9e 84 3e
       -0.3027037 0.48688406 -0.49756256 0.25901875
000080 b0 1a 40 3f e4 04 e2 3f 96 cf 82 3e d8 2c 5a 3f
       0.7504072 1.7657743 0.25549 0.85224676
000090 93 2e b3 3f b0 b5 95 3e 57 e9 08 3f 27 cb ea 3f
       1.3998588 0.2924018 0.5348105 1.8343247
0000a0 93 c0 91 be 05 d2 88 bf 47 1b 38 bf 26 86 8a 3d
       -0.28467235 -1.0689093 -0.7191662 0.06763868
0000b0 e5 39 3c 3f f3 fa db 3d 38 b3 19 be c6 0e 6d 3f
       0.7352584 0.10741224 -0.15009773 0.9260067
0000c0 a4 f3 1e bf e3 78 67 c0 8b 5a ca 3f 75 68 5f bf
       -0.62090516 -3.6167533 1.5808882 -0.87268764
0000d0 db 06 8d 3e 9c b6 63 3e e3 05 3b 3e c8 83 19 3e
       0.27544293 0.22237629 0.18263964 0.14991677
0000e0 16 85 17 bf 68 f4 a4 bf 13 5d 37 3f c4 88 77 be
       -0.5918745 -1.2887087 0.71626395 -0.24173266
0000f0 4c f8 79 be 5c 52 46 3f 21 53 b3 3f 2a 3d dd 3e
       -0.24411124 0.7746942 1.4009744 0.43210727
000100 2b a6 0b be c1 10 53 3f b6 3c 1e bc 07 72 6a bf
       -0.13637607 0.8244744 -0.009658029 -0.9158024
000110 03 ed 8c be 9b 63 0f 3d eb 8e a7 3e ea 8d 2f 3f
       -0.27524576 0.0350071 0.32726225 0.6857592
000120 f6 bf 8f bf 63 20 3c bf 95 cb 0b c0 38 66 06 be
       -1.1230457 -0.7348692 -2.1843007 -0.13124931
000130 34 5e 1d bd 3c ed a9 3f 76 11 70 3d 3c 89 78 bf
       -0.038419917 1.3275523 0.058610402 -0.97084403
000140 d1 dd 8a 3f d2 2d 35 bf 19 de c4 bf 32 83 19 3e
       1.0848943 -0.7077304 -1.5380279 0.14991453
000150 e9 22 e8 3f c8 6d aa 3e 86 64 cf 3f c2 28 8e be
       1.8135654 0.3328688 1.6202552 -0.2776547
000160 61 ba a4 be cc 7c 06 3e fd af 92 3f b2 92 d9 3e
       -0.32173446 0.13133544 1.1459957 0.42494732
000170 21 df 6a bf 09 18 06 bf 0e 23 93 3e da 7d 30 be
       -0.9174672 -0.52380425 0.28737682 -0.17235509
000180 42 e8 8c 3e 38 9f df 3f 1c c1 1a 3f d1 91 73 3f
       0.2752095 1.7470465 0.6045091 0.95144373
000190 42 b1 0f bf ef f6 84 3e 01 df 1e bf 4a 65 f5 3e
       -0.5612985 0.25969645 -0.62059027 0.4792884
0001a0 e2 f0 6e bf 1e 5f 3a bf 71 c9 1d 3f b4 9c 0e 3f
       -0.9333631 -0.7280139 0.616355 0.5570786
0001b0 a9 01 89 3f ed 13 27 bf f1 fc 2a bf 28 1b b5 3f
       1.0703632 -0.6526478 -0.6679221 1.4148912
0001c0 6c 2c 0f 3f e1 79 d3 bf 56 1b 44 3f ed a3 45 3e
       0.5592716 -1.652157 0.7660421 0.19300814
0001d0 22 14 44 3e 40 c4 5e 3e 54 17 e3 be 59 58 1a 3f
       0.19148305 0.21754551 -0.44353735 0.6029106
0001e0 82 a7 8a 3d 7b bf 66 bd 42 c7 d5 bf 37 a4 bc bf
       0.06770231 -0.056334954 -1.6701434 -1.4737614
0001f0 70 1c cd be 2c 4b 37 be 83 04 2e bf 46 5e 63 3f
       -0.4006076 -0.1789977 -0.67975634 0.88815725
000200 38 4c ff bd de 85 22 3f 4e 76 b2 be 07 be e3 bf
       -0.124657094 0.63485515 -0.34855884 -1.7792367
000210 22 08 66 3c 8e 7b 85 3f 53 8e da 3f b1 37 3f 3f
       0.014040025 1.0428331 1.7074684 0.74694353
000220 f3 36 6d bf c2 8c 91 3f ae f0 3d 3e 46 a4 4b bf
       -0.9266197 1.1371081 0.18548843 -0.79547536
000230 69 2c 0c 3f b3 c5 d4 3e 22 ea 06 40 57 84 86 bf
       0.54755265 0.41557083 2.1080403 -1.0509137
000240 ba 90 d8 3d 8c 84 d0 3d 70 99 7f bf ca 5e 20 3e
       0.105744794 0.10181531 -0.998435 0.15661159
000250 58 3e 2e 3f 4f 63 ad 3f 11 b5 86 bd 55 fc 42 3f
       0.6806388 1.3545932 -0.065775044 0.7616628
000260 67 9e b9 be ac 42 72 bf d2 6f 8f bf ab b6 4f 3e
       -0.36253664 -0.94632983 -1.1206 0.20284526
000270 01 56 9a bc 65 59 ae 3d cf bf 7b 3f b7 24 04 bf
       -0.018839838 0.085131444 0.9833955 -0.5161852
000280 58 03 03 40 e4 4d bb bf d4 0c a2 be 66 37 fa 3f
       2.047079 -1.4633145 -0.31650412 1.9548156
000290 16 d5 d1 bf 4e 0e 0d 3f c7 5a 00 bf 41 14 50 3f
       -1.6393154 0.5509995 -0.50138515 0.81280905
0002a0 bd d6 d5 be fc e5 8c be ac 27 7f bf 82 21 94 bf
       -0.41765395 -0.27519214 -0.9966991 -1.1572726
0002b0 c5 e7 2c 3e aa e2 de be 8c 17 a5 3f 8a 2d 14 3f
       0.16885288 -0.43532306 1.2897811 0.5788199
0002c0 89 25 d1 bf 18 ba 37 bf 48 a9 90 be 1b 8e 42 3f
       -1.633958 -0.7176833 -0.2825415 0.75998086
0002d0 ec dd f4 bf 56 51 83 bf 9f 5b 84 bf 5a 66 1c bf
       -1.9130225 -1.0259197 -1.034046 -0.61093676
0002e0 ca 12 b3 be 67 4b 00 c0 f3 15 0d bf 4e 3b 84 bf
       -0.34975272 -2.0046022 -0.55111617 -1.0330598
0002f0 22 f3 e1 3d 7c 38 92 3f ef d6 b9 be 3a ab bc bf
       0.11032702 1.1423488 -0.36296794 -1.4739754
000300 7a b4 1c 3d b7 03 a6 3e 1c bc 1e bf 1e f8 41 bf
       0.038258053 0.3242471 -0.6200578 -0.7576922
000310 f1 81 0e 40 f4 fd 97 bc 24 59 c4 3e 73 5c 01 be
       2.226681 -0.018553711 0.3834926 -0.12632923
000320 bc 01 48 3d 5e 3c 78 bf 10 7d c2 be 9f d6 a0 bf
       0.04882978 -0.96967113 -0.3798604 -1.2565497
000330 d4 bd 1b 40 ba 7d 6a 3f 6c e5 5a bf 31 e6 56 bf
       2.4334612 0.91598094 -0.8550632 -0.83944994
000340 2b f7 ec bf 28 c7 67 bf 72 39 ec be 7a 57 f6 bf
       -1.851293 -0.90538263 -0.46137577 -1.9245446
000350 11 85 72 3f 6b 9a fb 3f 58 7d df 3f ab dc f2 bf
       0.94734293 1.96565 1.7460127 -1.8973593
000360 d6 2c c8 be 5c 1b d8 3e 19 bd 19 bf c5 c0 af be
       -0.39096707 0.42208374 -0.60054165 -0.3432676
000370 0e 6f 6f be f4 3d b2 be 7e 86 bd 3f b6 dd a2 3f
       -0.23382208 -0.3481289 1.4806669 1.2723911
000380 31 73 35 3f 6d 6f 1e bf 87 09 e0 bf 00 65 b3 3e
       0.70878893 -0.6188877 -1.7502908 0.35037994
000390 80 ed 2c bd d2 5d 80 bf be 49 91 bf 8a b3 f1 3e
       -0.042218685 -1.0028632 -1.1350629 0.4720729
0003a0 1c d2 9e bf 5a b8 7f 3f 69 e4 a9 3f 06 12 27 3f
       -1.240787 0.99890673 1.327283 0.65261877
0003b0 4e 87 70 bf 38 d1 cc bf ad 94 5e 3d 60 a2 2a be
       -0.9395646 -1.6001348 0.054341007 -0.16663504
0003c0 87 4a a7 bf fa 48 3d bf 6a 87 ca be 8d d4 81 3e
       -1.3069619 -0.7393948 -0.39556438 0.25357476
0003d0 da 12 55 3d e0 af 4f 3f cd 6e 85 be 69 b4 f5 3e
       0.05201993 0.8112774 -0.26061097 0.47989205
0003e0 58 ef 9f 3d 4a 0e ea 3e 5d 07 c2 3e 7a 8c d6 bf
       0.07809323 0.45714027 0.37896243 -1.676162
0003f0 a9 9c d0 bf a5 35 bb bf 05 7b 09 c0 2a e9 08 3f
       -1.6297809 -1.4625746 -2.1481335 0.5348078

conv2.5.kernel f4 [64, 1, 3, 3]
000000 57 05 35 3e ad 36 8f bf 36 53 c4 be 9c d3 90 3f
       0.17677818 -1.1188561 -0.38344735 1.1314578
000010 b2 f6 8f be 7e 4d e2 3f db c0 f5 bf a7 a7 57 3f
       -0.281179 1.7679899 -1.919948 0.8424019
000020 f4 16 15 bf db b6 89 bf fa d0 26 3d 82 34 1c bf
       -0.5823815 -1.0758928 0.04072664 -0.6101762
000030 3b b2 96 bf 4d 07 ab bf 40 44 35 3f af 89 9a be
       -1.1773142 -1.3361603 0.70807266 -0.3018317
000040 a0 5b 1e bf a2 4b 1f be 38 85 43 bf f8 34 86 3f
       -0.6185856 -0.15556195 -0.7637515 1.0484915
000050 e7 11 a1 bd b3 89 f7 3e 71 24 13 bf 8c 12 9c 3e
       -0.07864743 0.48347244 -0.5747748 0.304829
000060 e3 60 14 be 0c 90 82 bf 72 fb ba bd 1d 7c 97 bf
       -0.14490084 -1.020021 -0.09129991 -1.1834751
000070 d7 69 c3 bf 8d b7 63 3f 0e b2 da bb 8d 4e 95 3f
       -1.5266675 0.8895195 -0.006674058 1.1664597
000080 15 34 f0 bf 25 02 7a 3e 04 be dc 3f 96 d2 40 3f
       -1.8765894 0.2441488 1.7245488 0.7532133
000090 0b 42 d9 bf 3e 34 19 40 59 9f 98 bf 7f b4 4e bf
       -1.697328 2.3938136 -1.1923629 -0.80744165
0000a0 a5 ef 1b bf 97 0f 03 40 c1 20 51 bf 69 c9 78 bf
       -0.60912544 2.0478265 -0.81690603 -0.9718233
0000b0 fb ce 94 bf 88 e8 c3 bf eb 12 4d 3f c9 3f c4 bf
       -1.1625665 -1.5305338 0.8010699 -1.5331966
0000c0 3c fd 9f be f7 bb c9 3f 57 b3 a5 be 7a 0b 46 be
       -0.3124789 1.5760487 -0.32363388 -0.19340315
0000d0 55 56 8c bf b7 8a 3e 3f 5b 0c a1 bd 19 33 90 bf
       -1.0963846 0.7443041 -0.07863685 -1.1265594
0000e0 12 05 80 bf 70 fd 29 3e 44 5f cd bd d5 f7 c8 bf
       -1.0001547 0.16600585 -0.10027936 -1.5700632
0000f0 d8 67 27 bf b1 a7 01 3f f5 8f 18 40 7a 55 db be
       -0.6539283 0.506465 2.3837864 -0.4283865
000100 20 82 81 bf b8 9d 99 3e 09 51 74 bd 85 b4 be 3e
       -1.0117836 0.30003142 -0.059647594 0.372471
000110 53 0d ca be 71 53 db bf 7b 6c d3 3e 65 02 06 be
       -0.3946329 -1.7134839 0.41293702 -0.13086851
000120 a6 80 47 3d 18 d2 01 40 1b 03 8f bf 9a 3e 11 bf
       0.048706673 2.028448 -1.1172823 -0.5673615
000130 77 bf bd bf 6f bd 86 3f 04 66 94 be 27 db d2 bd
       -1.4824055 1.052656 -0.28984082 -0.10295706
000140 86 3c 8f 3f 72 99 f7 3d 31 5a 5c 3e 37 5f 4a bf
       1.1190345 0.12089814 0.2151878 -0.79051536
000150 1a 8e 17 bf 2f 86 0b be 6b c7 a7 3f fd cb 02 3d
       -0.59201205 -0.13625406 1.3107733 0.03193282
000160 83 39 dc 3e 3d 93 70 3f 21 65 48 3d 44 7d 0c be
       0.43012628 0.9397467 0.04892457 -0.1371966
000170 f6 e1 78 3e 1a 73 12 3f ba db 1c 3e 9c ea d6 bd
       0.24304947 0.5720688 0.15318194 -0.10493967
000180 88 02 b9 bf 9f db b1 bd 1b f0 86 bf d8 3f 8b bf
       -1.4453897 -0.086844675 -1.0542024 -1.0878859
000190 14 5e c0 3c 97 66 74 bf 6a 9a 95 be 67 36 8c bf
       0.02348236 -0.9546904 -0.2921937 -1.0954102
0001a0 f5 c9 e7 bf aa 55 90 3f c1 d3 23 c0 7c 85 dc be
       -1.8108507 1.1276143 -2.5597994 -0.4307059
0001b0 51 4a 3d c0 28 69 e6 bd 1f a8 94 bc aa 3e cd 3f
       -2.957661 -0.11250526 -0.018146573 1.6034749
0001c0 cd e0 13 be c9 89 9e bf ab 8d e5 bf e4 d5 1e bf
       -0.14441223 -1.2385799 -1.7933859 -0.6204512
0001d0 49 68 4a 3f ab 04 22 3f 0c 3d 0f 3f 6c 6d 46 bf
       0.79065377 0.6328837 0.55952525 -0.77510715
0001e0 f2 c9 94 be 74 a1 9e 3f ce 60 32 3e 3b 13 98 be
       -0.29060322 1.2393022 0.1741974 -0.29702172
0001f0 dd 05 b7 bd 56 3d 28 3f d7 ce f0 bf 27 2d e5 3f
       -0.08936665 0.6571859 -1.8813123 1.7904404
000200 78 70 02 c0 98 96 81 3f 31 59 58 bf 65 8f 20 3d
       -2.0381145 1.0124083 -0.84511095 0.03919925
000210 e1 bf 15 bf 78 f0 af bd a8 92 d3 be 55 89 be 3f
       -0.5849591 -0.08590788 -0.41322827 1.488566
000220 b3 eb 5c bf 56 ba 88 3e 27 c5 4b 3f e3 9d bb be
       -0.8629715 0.26704663 0.79597706 -0.36643896
000230 fe 5e 00 3f 1d 31 98 be ca 4d b3 bf e9 df 8b bf
       0.50144947 -0.2972497 -1.4008114 -1.0927707
000240 20 76 61 3f fe 97 72 3f 36 99 00 bf bf 13 e8 3f
       0.8807087 0.9476317 -0.5023378 1.8131026
000250 14 f1 be be c6 85 3b bf 68 e0 95 3f 5f a7 27 3e
       -0.37293303 -0.73251 1.1709108 0.16372441
000260 ee 65 b0 bf c6 24 52 c0 b6 5a 9d 3f 00 40 1c 3f
       -1.3781106 -3.2834945 1.2293308 0.61035156
000270 55 df f6 be 92 c0 c1 be 97 bf 81 3f bc fc 8d 3f
       -0.48217264 -0.37842232 1.0136594 1.1092753
000280 2f 98 b5 bf 7d e1 97 3f 59 53 97 bf 4c f9 2c 3f
       -1.4187068 1.1865689 -1.1822311 0.67567897
000290 2d 78 86 bf 5c fb c5 3e 9c 58 dd bf c0 f6 1c be
       -1.0505425 0.38668334 -1.7292666 -0.15328503
0002a0 5b a6 4c 3f b4 62 e3 be 1c 23 f7 be df 5d 53 3e
       0.7994134 -0.44411242 -0.48268974 0.20641278
0002b0 9a e1 bf 3e aa 82 6d bf 17 2b bf bc 4e ab c3 3f
       0.37476808 -0.927775 -0.023335977 1.5286653
0002c0 07 4e 10 bf fc cb 04 be 62 41 22 3e c1 bc 53 3f
       -0.5636906 -0.12968439 0.15845254 0.8270989
0002d0 55 b3 08 bf e3 2a 6e 3f df dd 0a be b4 03 ec bf
       -0.5339864 0.9303419 -0.135612 -1.843863
0002e0 88 aa e6 3f 27 c6 23 3f a4 5e 14 bf d4 26 13 3f
       1.8020792 0.6397423 -0.5795691 0.5748112
0002f0 1f 39 21 be 73 f9 dc 3c 42 81 06 bf e8 ae 64 bf
       -0.15744446 0.026974415 -0.5254098 -0.89329386
000300 33 98 8f be f8 0e 80 3f 0f 09 15 40 07 06 56 3f
       -0.28045806 1.0004568 2.328678 0.83602947
000310 49 26 41 bf 88 86 af 3e 2e f8 60 3d 95 22 cd 3e
       -0.75449044 0.34282327 0.054924183 0.40065446
000320 8f e7 89 bf 67 cd 29 bd 43 8e 87 3e cb a7 0e 3f
       -1.0773791 -0.041455653 0.26475725 0.5572478
000330 54 75 ca 3f 98 92 9e bf 68 03 cb 3e ed a8 60 bf
       1.5817056 -1.2388487 0.39651036 -0.8775776
000340 7e 4c b0 bf 30 00 b5 bf 98 1b e3 be 28 e5 37 3f
       -1.3773344 -1.4140682 -0.4435699 0.7183404
000350 25 9b 23 3e 89 fd 4e 3f fb aa fd bd 51 2d b0 bf
       0.15977152 0.80855614 -0.123861276 -1.376383
000360 d2 75 88 3d b9 21 f9 be 0a 6e ab 3f 23 a2 09 be
       0.066630974 -0.4865854 1.3392956 -0.13440756
000370 d9 a2 38 3f 6b f0 85 3f a7 72 87 3e db 17 b4 bf
       0.72123486 1.0463995 0.2645466 -1.406978
000380 3d 5c 33 be cf 47 21 3f d2 90 c0 be 73 59 9a bf
       -0.17515655 0.63000196 -0.3761049 -1.2058548
000390 bb 60 b5 bf 54 49 c1 bf 65 97 c0 3f 66 6d 90 bf
       -1.4170145 -1.5100503 1.5046202 -1.1283386
0003a0 79 e2 90 3f 01 c6 11 bf 28 07 6f bf f6 60 3e 3f
       1.1319114 -0.56942755 -0.93370295 0.743667
0003b0 f6 91 56 be c8 85 b1 3f 8f 95 5b bf 59 68 8a bf
       -0.20954117 1.3868952 -0.85775083 -1.0813094
0003c0 7c 4d b8 bf 57 c1 23 3f cc 76 ea bf da 62 a7 be
       -1.4398646 0.6396689 -1.8317504 -0.32692605
0003d0 9d 98 8d bf 94 df a3 bd 5b db b6 bf f9 15 46 3f
       -1.1062199 -0.080016285 -1.4285692 0.7737728
0003e0 45 e4 b2 bf 58 93 a1 3f 9b 85 72 bf b4 b3 dc 3f
       -1.3975912 1.2623091 -0.94735116 1.7242341
0003f0 36 3e 5d bf 2d 6a 38 bf e2 05 a3 3e 7b 2b 09 40
       -0.8642305 -0.7203701 0.31840426 2.1432788

conv2.6.kernel f4 [64, 1, 3, 3]
000000 70 4a 66 3f 4e 6f cd 3e d1 78 40 bf 53 81 e2 3f
       0.8995733 0.4012398 -0.7518435 1.7695717
000010 e1 22 3e bf 38 26 28 bf 7c 0d cb 3f e5 2f b7 3e
       -0.7427197 -0.6568332 1.586349 0.35778728
000020 f7 89 14 bf 99 5d 13 bd 57 35 2b bd e4 27 54 be
       -0.5802302 -0.035977934 -0.041798916 -0.20718342
000030 39 8a 2b bf 53 b2 1d 40 16 41 fb be f3 be 40 bf
       -0.67007786 2.464009 -0.49073094 -0.75291365
000040 8a f4 68 bd 93 91 84 bd b8 68 37 c0 f4 39 ee 3e
       -0.056873836 -0.064730786 -2.8657665 0.4652859
000050 ee b4 0c 40 68 1b eb bf df f0 76 be fb 91 87 3b
       2.198543 -1.8367739 -0.24115323 0.0041372753
000060 d1 ee 2c bd f3 3e 1f 3f be 8e 67 3e 20 b5 95 bf
       -0.04221994 0.6220543 0.22613046 -1.16959
000070 a1 69 3e 3f f6 2c 2f bf d3 38 e0 bf e1 1e e3 3e
       0.74379927 -0.6842798 -1.7517341 0.44359496
000080 33 5c 1e bf 2c 54 06 3f 6e 22 a9 3f 31 90 ae 3f
       -0.61859435 0.52472186 1.3213632 1.3637754
000090 ca 12 86 bf de 39 6d 3e 0b 7e df 3d 82 be 4f bf
       -1.0474484 0.23166606 0.10912713 -0.81150067
0000a0 7d 57 b3 3e 32 47 b0 3e af 0d a7 bf cd 8f 93 3f
       0.35027686 0.34429318 -1.3051051 1.152826
0000b0 e5 72 71 3f fc 6a b1 3f 68 29 0a 3e 2e e8 d1 3e
       0.9431594 1.3860774 0.13492358 0.40997452
0000c0 78 83 59 3d ef 8a d4 be 17 61 88 bf 67 0f 11 bf
       0.053103894 -0.41512248 -1.065463 -0.5666413
0000d0 43 a4 d2 3f 3a f7 a4 3f ea 51 8d be 65 a2 21 40
       1.6456379 1.2887948 -0.27601558 2.5255368
0000e0 47 6c d5 3f f8 ce 35 be 38 6e a9 bf 29 3a c6 be
       1.6673669 -0.17754734 -1.3236761 -0.38716248
0000f0 37 7d ea 3e f9 a8 fa 3e be 91 50 bf 27 06 15 bf
       0.45798656 0.4895704 -0.81472385 -0.5821251
000100 f1 cd b5 bf f1 bf fc bd 3d d2 01 be bb 8b 41 bf
       -1.4203473 -0.123412974 -0.12677856 -0.75603837
000110 ae 61 05 3f 82 3f 75 3f dd 19 a1 3d d8 33 ec be
       0.5210217 0.9580003 0.07866261 -0.46133304
000120 c3 66 96 3f cf a8 50 be ad 35 a9 be ee 7e 4e 3f
       1.175011 -0.20376895 -0.33048764 0.8066243
000130 29 96 e1 bd b3 10 86 be 20 bd 8d 3e 66 65 e9 3e
       -0.11014969 -0.26184615 0.27683353 0.45585173
000140 37 14 a7 3f d1 eb 05 bc 11 e1 b2 bb b7 eb 22 bf
       1.3053044 -0.008173899 -0.005458959 -0.6364092
000150 c9 32 84 3f b2 49 eb be 03 d3 ab be c7 af 1a bc
       1.0327998 -0.45954663 -0.33559427 -0.009441323
000160 4d 69 d5 bd f6 f4 2d 40 ee 65 90 3f ed 59 10 3f
       -0.10420475 2.7180762 1.1281106 0.56387216
000170 9b 21 9e 3f 8e 0e be 3f f0 d1 c2 3f bf 75 0b 3f
       1.2354006 1.4848192 1.5220318 0.5447654
000180 c9 d6 57 bf a1 76 a8 bd 5e 1b 3a bf 1a 60 ef be
       -0.8431211 -0.08225752 -0.7269801 -0.46753007
000190 8b 04 34 c0 81 ec 58 3f bb 82 a0 3f 0f 35 f0 3e
       -2.8127773 0.84735876 1.2539896 0.4691548
0001a0 7b 95 68 be dd 1f 7c bf 77 c9 bc 3f ca 6e a2 3f
       -0.22713272 -0.9848612 1.4748982 1.269006
0001b0 f3 c4 4c be e4 bf a3 be 79 c1 12 3f a9 ef 19 3e
       -0.19997005 -0.31982338 0.57326466 0.1503283
0001c0 28 a2 e1 3e 8d be ab bf 62 75 f4 3e 7b ee c0 3e
       0.44069028 -1.3417526 0.47745806 0.37681946
0001d0 a3 f3 de bf c0 54 b1 3f 77 89 e8 3f 80 5d cb 3f
       -1.7418102 1.3853989 1.8166951 1.5887909
0001e0 89 0a ce bf 1d 49 cb 3f e9 ae 87 3f aa d8 4b bc
       -1.6096965 1.5881687 1.0600253 -0.012441793
0001f0 a6 66 1c bf 27 b1 8a bf b3 c9 9f 3f 03 a9 0c c0
       -0.6109413 -1.0835313 1.2483429 -2.1978157
000200 5c fa 38 bf 72 ca 1f c0 26 3f 39 bf c9 c3 2e bf
       -0.7225702 -2.4967313 -0.7236198 -0.68267494
000210 15 28 2a bf 21 9c 68 bf 8e 4f da bc 30 bc 60 3f
       -0.6646741 -0.90863234 -0.026649263 0.8778715
000220 50 9d 35 bf c7 84 78 3f c2 bb eb 3f 89 b5 b0 bf
       -0.70943165 0.970776 1.8416674 -1.38054
000230 bc ff 09 3f 51 e1 34 bf 28 e9 09 bf c1 d0 0c c0
       0.53905845 -0.70656306 -0.53871393 -2.2002413
000240 d7 0a 20 3f 0a 14 49 bf 43 d3 a1 be a0 9c e1 be
       0.6251654 -0.785462 -0.31606492 -0.44064808
000250 25 4d ac 3f df 8b 5d 3f b1 ec f2 bf 40 be 0e 3f
       1.3461043 0.8654155 -1.8978482 0.5575905
000260 80 9c 88 3f 80 0a 84 be 6c c7 66 bf 7e 57 a8 bc
       1.067276 -0.2578926 -0.90148044 -0.020549532
000270 0b e0 03 3e 2b 15 61 3e 35 86 38 3d 60 ba a9 3e
       0.12878434 0.21980731 0.045049865 0.33150005
000280 d2 c7 2b 3f 5f 6b f4 be 56 df 62 bf 2f 2a 69 bf
       0.67101777 -0.47738168 -0.88622034 -0.9107999
000290 8a 53 ac be 9a f2 8d 3e b2 62 ca 3f be 3a 9b bf
       -0.33657485 0.27724153 1.581137 -1.2127302
0002a0 73 4f 7f be 16 22 41 c0 10 ac 8c bf 68 f0 58 bf
       -0.24932651 -3.0177054 -1.0990009 -0.8474183
0002b0 c8 56 32 bf 7b 24 08 3f 18 fa cf bf 08 65 7a be
       -0.6966367 0.53180665 -1.6248198 -0.24452603
0002c0 61 85 fe 3d 1f bc 32 bf 41 59 4a 3f 03 e4 ad be
       0.12427784 -0.698183 0.7904244 -0.33963022
0002d0 c4 43 62 bf c6 c5 68 3e 51 6a ae 3f 6c c2 77 be
       -0.8838465 0.22731695 1.3626195 -0.2419526
0002e0 c2 a8 2c bf 1e 5f c6 3d 5c 7c ab bf 70 ff 55 bf
       -0.67445004 0.09686111 -1.3397326 -0.8359289
0002f0 23 ce c6 3f a3 15 26 bf 08 01 c7 be 07 2a a3 bf
       1.5531658 -0.64876765 -0.38867974 -1.2747201
000300 79 4b 8d 3f d9 02 a3 3f 17 8a 81 bf 47 65 e0 bf
       1.1038657 1.2735244 -1.0120267 -1.7530907
000310 30 79 a9 3f 26 c6 bf bf 95 dd 37 3f c8 01 0d 3f
       1.3240108 -1.4982345 0.7182248 0.5508084
000320 4e 97 37 3f d4 76 b0 3f 3c 1a 05 c0 2a ff 81 3f
       0.7171525 1.3786263 -2.0797262 1.0155995
000330 22 a2 65 bf b0 8d f3 bf 72 be 22 bf 88 d8 b4 3d
       -0.8970052 -1.9027615 -0.63571846 0.088303626
000340 84 bf 5a 3f 20 ab c3 bd 5c cf 74 be 60 66 93 bc
       0.8544848 -0.09554124 -0.23907226 -0.017993152
000350 91 85 14 3b f9 46 9d 3f e4 4f ae be 14 05 4e 3f
       0.002266262 1.2287284 -0.34045327 0.804765
000360 01 bc 00 bf 8f eb b7 bf 91 a8 f6 bf 61 c3 c9 3e
       -0.5028687 -1.4368762 -1.9270192 0.39406875
000370 37 38 85 bf 65 9a c1 bf 8c ab a2 3f 75 67 c0 bf
       -1.040778 -1.5125242 1.2708602 -1.5031573
000380 4c 95 cf 3f c2 27 74 be 01 03 15 bf 8e 09 e5 3e
       1.6217437 -0.23843291 -0.5820771 0.44733852
000390 7e 37 12 be 82 ff 3b 3f fa 34 c4 3f c9 f5 08 bf
       -0.14278981 0.7343675 1.5328667 -0.5350004
0003a0 04 47 50 3f 21 4b 49 3f f6 e7 4a 3e 38 53 eb bf
       0.8135836 0.7863026 0.19815049 -1.8384771
0003b0 19 88 5f bf f5 6a bd 3e f4 be 98 3f 18 ab a2 bf
       -0.87317044 0.36995664 1.1933274 -1.2708464
0003c0 94 dc ac 3e 2e 65 52 3f 2b 93 f1 bf c8 5a c4 be
       0.33762038 0.8218564 -1.8873037 -0.3835051
0003d0 f4 a5 10 bf 8e e6 6b bf 06 2e 5d 3e b0 0c b6 3e
       -0.56503224 -0.92148674 0.21599588 0.35556555
0003e0 d1 e1 71 bf 36 cd bd be 33 ae 88 bf 1a 58 3a 3f
       -0.94485193 -0.37070626 -1.0678161 0.7279068
0003f0 ae b7 aa bf 83 8d cb 3e d9 6a 4e bf e1 ac 08 3e
       -1.3337305 0.39756402 -0.80631787 0.13347198
